<?xml version="1.0" ?>
<net batch="1" name="model" version="2">
	<layers>
		<layer id="302" name="data" precision="FP32" type="Input">
			<output>
				<port id="0">
					<dim>16</dim>
					<dim>3</dim>
					<dim>300</dim>
					<dim>300</dim>
				</port>
			</output>
		</layer>
		<layer id="189" name="conv1/7x7_s2" precision="FP32" type="Convolution">
			<data dilation-x="1" dilation-y="1" group="1" kernel-x="7" kernel-y="7" output="64" pad-x="3" pad-y="3" stride="1,1,2,2" stride-x="2" stride-y="2"/>
			<input>
				<port id="0">
					<dim>16</dim>
					<dim>3</dim>
					<dim>300</dim>
					<dim>300</dim>
				</port>
			</input>
			<output>
				<port id="3">
					<dim>16</dim>
					<dim>64</dim>
					<dim>150</dim>
					<dim>150</dim>
				</port>
			</output>
			<blobs>
				<weights offset="38693304" size="37632"/>
				<biases offset="7995456" size="256"/>
			</blobs>
		</layer>
		<layer id="224" name="conv1/7x7_s2/bn/sc/relu" precision="FP32" type="ReLU">
			<data engine="caffe.ReLUParameter.DEFAULT" negative_slope="0.0"/>
			<input>
				<port id="0">
					<dim>16</dim>
					<dim>64</dim>
					<dim>150</dim>
					<dim>150</dim>
				</port>
			</input>
			<output>
				<port id="1">
					<dim>16</dim>
					<dim>64</dim>
					<dim>150</dim>
					<dim>150</dim>
				</port>
			</output>
		</layer>
		<layer id="151" name="pool1/3x3_s2" precision="FP32" type="Pooling">
			<data exclude-pad="false" kernel-x="3" kernel-y="3" pad-x="0" pad-y="0" pool-method="max" rounding_type="ceil" stride="1,1,2,2" stride-x="2" stride-y="2"/>
			<input>
				<port id="0">
					<dim>16</dim>
					<dim>64</dim>
					<dim>150</dim>
					<dim>150</dim>
				</port>
			</input>
			<output>
				<port id="1">
					<dim>16</dim>
					<dim>64</dim>
					<dim>75</dim>
					<dim>75</dim>
				</port>
			</output>
		</layer>
		<layer id="211" name="conv2/3x3_reduce" precision="FP32" type="Convolution">
			<data dilation-x="1" dilation-y="1" group="1" kernel-x="1" kernel-y="1" output="64" pad-x="0" pad-y="0" stride="1,1,1,1" stride-x="1" stride-y="1"/>
			<input>
				<port id="0">
					<dim>16</dim>
					<dim>64</dim>
					<dim>75</dim>
					<dim>75</dim>
				</port>
			</input>
			<output>
				<port id="3">
					<dim>16</dim>
					<dim>64</dim>
					<dim>75</dim>
					<dim>75</dim>
				</port>
			</output>
			<blobs>
				<weights offset="443264" size="16384"/>
				<biases offset="11721400" size="256"/>
			</blobs>
		</layer>
		<layer id="488" name="conv2/3x3_reduce/bn/sc/relu" precision="FP32" type="ReLU">
			<data engine="caffe.ReLUParameter.DEFAULT" negative_slope="0.0"/>
			<input>
				<port id="0">
					<dim>16</dim>
					<dim>64</dim>
					<dim>75</dim>
					<dim>75</dim>
				</port>
			</input>
			<output>
				<port id="1">
					<dim>16</dim>
					<dim>64</dim>
					<dim>75</dim>
					<dim>75</dim>
				</port>
			</output>
		</layer>
		<layer id="475" name="conv2/3x3" precision="FP32" type="Convolution">
			<data dilation-x="1" dilation-y="1" group="1" kernel-x="3" kernel-y="3" output="192" pad-x="1" pad-y="1" stride="1,1,1,1" stride-x="1" stride-y="1"/>
			<input>
				<port id="0">
					<dim>16</dim>
					<dim>64</dim>
					<dim>75</dim>
					<dim>75</dim>
				</port>
			</input>
			<output>
				<port id="3">
					<dim>16</dim>
					<dim>192</dim>
					<dim>75</dim>
					<dim>75</dim>
				</port>
			</output>
			<blobs>
				<weights offset="24596584" size="442368"/>
				<biases offset="5780448" size="768"/>
			</blobs>
		</layer>
		<layer id="250" name="conv2/3x3/bn/sc/relu" precision="FP32" type="ReLU">
			<data engine="caffe.ReLUParameter.DEFAULT" negative_slope="0.0"/>
			<input>
				<port id="0">
					<dim>16</dim>
					<dim>192</dim>
					<dim>75</dim>
					<dim>75</dim>
				</port>
			</input>
			<output>
				<port id="1">
					<dim>16</dim>
					<dim>192</dim>
					<dim>75</dim>
					<dim>75</dim>
				</port>
			</output>
		</layer>
		<layer id="389" name="pool2/3x3_s2" precision="FP32" type="Pooling">
			<data exclude-pad="false" kernel-x="3" kernel-y="3" pad-x="0" pad-y="0" pool-method="max" rounding_type="ceil" stride="1,1,2,2" stride-x="2" stride-y="2"/>
			<input>
				<port id="0">
					<dim>16</dim>
					<dim>192</dim>
					<dim>75</dim>
					<dim>75</dim>
				</port>
			</input>
			<output>
				<port id="1">
					<dim>16</dim>
					<dim>192</dim>
					<dim>37</dim>
					<dim>37</dim>
				</port>
			</output>
		</layer>
		<layer id="186" name="inception_3a/pool" precision="FP32" type="Pooling">
			<data exclude-pad="false" kernel-x="3" kernel-y="3" pad-x="1" pad-y="1" pool-method="avg" rounding_type="ceil" stride="1,1,1,1" stride-x="1" stride-y="1"/>
			<input>
				<port id="0">
					<dim>16</dim>
					<dim>192</dim>
					<dim>37</dim>
					<dim>37</dim>
				</port>
			</input>
			<output>
				<port id="1">
					<dim>16</dim>
					<dim>192</dim>
					<dim>37</dim>
					<dim>37</dim>
				</port>
			</output>
		</layer>
		<layer id="286" name="inception_3a/pool_proj" precision="FP32" type="Convolution">
			<data dilation-x="1" dilation-y="1" group="1" kernel-x="1" kernel-y="1" output="32" pad-x="0" pad-y="0" stride="1,1,1,1" stride-x="1" stride-y="1"/>
			<input>
				<port id="0">
					<dim>16</dim>
					<dim>192</dim>
					<dim>37</dim>
					<dim>37</dim>
				</port>
			</input>
			<output>
				<port id="3">
					<dim>16</dim>
					<dim>32</dim>
					<dim>37</dim>
					<dim>37</dim>
				</port>
			</output>
			<blobs>
				<weights offset="39451832" size="24576"/>
				<biases offset="28659640" size="128"/>
			</blobs>
		</layer>
		<layer id="316" name="inception_3a/pool_proj/bn/sc/relu" precision="FP32" type="ReLU">
			<data engine="caffe.ReLUParameter.DEFAULT" negative_slope="0.0"/>
			<input>
				<port id="0">
					<dim>16</dim>
					<dim>32</dim>
					<dim>37</dim>
					<dim>37</dim>
				</port>
			</input>
			<output>
				<port id="1">
					<dim>16</dim>
					<dim>32</dim>
					<dim>37</dim>
					<dim>37</dim>
				</port>
			</output>
		</layer>
		<layer id="453" name="inception_3a/double3x3_reduce" precision="FP32" type="Convolution">
			<data dilation-x="1" dilation-y="1" group="1" kernel-x="1" kernel-y="1" output="64" pad-x="0" pad-y="0" stride="1,1,1,1" stride-x="1" stride-y="1"/>
			<input>
				<port id="0">
					<dim>16</dim>
					<dim>192</dim>
					<dim>37</dim>
					<dim>37</dim>
				</port>
			</input>
			<output>
				<port id="3">
					<dim>16</dim>
					<dim>64</dim>
					<dim>37</dim>
					<dim>37</dim>
				</port>
			</output>
			<blobs>
				<weights offset="38420024" size="49152"/>
				<biases offset="13624072" size="256"/>
			</blobs>
		</layer>
		<layer id="155" name="inception_3a/double3x3_reduce/bn/sc/relu" precision="FP32" type="ReLU">
			<data engine="caffe.ReLUParameter.DEFAULT" negative_slope="0.0"/>
			<input>
				<port id="0">
					<dim>16</dim>
					<dim>64</dim>
					<dim>37</dim>
					<dim>37</dim>
				</port>
			</input>
			<output>
				<port id="1">
					<dim>16</dim>
					<dim>64</dim>
					<dim>37</dim>
					<dim>37</dim>
				</port>
			</output>
		</layer>
		<layer id="108" name="inception_3a/1x1" precision="FP32" type="Convolution">
			<data dilation-x="1" dilation-y="1" group="1" kernel-x="1" kernel-y="1" output="64" pad-x="0" pad-y="0" stride="1,1,1,1" stride-x="1" stride-y="1"/>
			<input>
				<port id="0">
					<dim>16</dim>
					<dim>192</dim>
					<dim>37</dim>
					<dim>37</dim>
				</port>
			</input>
			<output>
				<port id="3">
					<dim>16</dim>
					<dim>64</dim>
					<dim>37</dim>
					<dim>37</dim>
				</port>
			</output>
			<blobs>
				<weights offset="14732424" size="49152"/>
				<biases offset="44050360" size="256"/>
			</blobs>
		</layer>
		<layer id="354" name="inception_3a/1x1/bn/sc/relu" precision="FP32" type="ReLU">
			<data engine="caffe.ReLUParameter.DEFAULT" negative_slope="0.0"/>
			<input>
				<port id="0">
					<dim>16</dim>
					<dim>64</dim>
					<dim>37</dim>
					<dim>37</dim>
				</port>
			</input>
			<output>
				<port id="1">
					<dim>16</dim>
					<dim>64</dim>
					<dim>37</dim>
					<dim>37</dim>
				</port>
			</output>
		</layer>
		<layer id="307" name="inception_3a/3x3_reduce" precision="FP32" type="Convolution">
			<data dilation-x="1" dilation-y="1" group="1" kernel-x="1" kernel-y="1" output="64" pad-x="0" pad-y="0" stride="1,1,1,1" stride-x="1" stride-y="1"/>
			<input>
				<port id="0">
					<dim>16</dim>
					<dim>192</dim>
					<dim>37</dim>
					<dim>37</dim>
				</port>
			</input>
			<output>
				<port id="3">
					<dim>16</dim>
					<dim>64</dim>
					<dim>37</dim>
					<dim>37</dim>
				</port>
			</output>
			<blobs>
				<weights offset="44625976" size="49152"/>
				<biases offset="38197560" size="256"/>
			</blobs>
		</layer>
		<layer id="503" name="inception_3a/3x3_reduce/bn/sc/relu" precision="FP32" type="ReLU">
			<data engine="caffe.ReLUParameter.DEFAULT" negative_slope="0.0"/>
			<input>
				<port id="0">
					<dim>16</dim>
					<dim>64</dim>
					<dim>37</dim>
					<dim>37</dim>
				</port>
			</input>
			<output>
				<port id="1">
					<dim>16</dim>
					<dim>64</dim>
					<dim>37</dim>
					<dim>37</dim>
				</port>
			</output>
		</layer>
		<layer id="504" name="inception_3a/3x3" precision="FP32" type="Convolution">
			<data dilation-x="1" dilation-y="1" group="1" kernel-x="3" kernel-y="3" output="64" pad-x="1" pad-y="1" stride="1,1,1,1" stride-x="1" stride-y="1"/>
			<input>
				<port id="0">
					<dim>16</dim>
					<dim>64</dim>
					<dim>37</dim>
					<dim>37</dim>
				</port>
			</input>
			<output>
				<port id="3">
					<dim>16</dim>
					<dim>64</dim>
					<dim>37</dim>
					<dim>37</dim>
				</port>
			</output>
			<blobs>
				<weights offset="11573944" size="147456"/>
				<biases offset="9655616" size="256"/>
			</blobs>
		</layer>
		<layer id="99" name="inception_3a/3x3/bn/sc/relu" precision="FP32" type="ReLU">
			<data engine="caffe.ReLUParameter.DEFAULT" negative_slope="0.0"/>
			<input>
				<port id="0">
					<dim>16</dim>
					<dim>64</dim>
					<dim>37</dim>
					<dim>37</dim>
				</port>
			</input>
			<output>
				<port id="1">
					<dim>16</dim>
					<dim>64</dim>
					<dim>37</dim>
					<dim>37</dim>
				</port>
			</output>
		</layer>
		<layer id="270" name="inception_3a/double3x3a" precision="FP32" type="Convolution">
			<data dilation-x="1" dilation-y="1" group="1" kernel-x="3" kernel-y="3" output="96" pad-x="1" pad-y="1" stride="1,1,1,1" stride-x="1" stride-y="1"/>
			<input>
				<port id="0">
					<dim>16</dim>
					<dim>64</dim>
					<dim>37</dim>
					<dim>37</dim>
				</port>
			</input>
			<output>
				<port id="3">
					<dim>16</dim>
					<dim>96</dim>
					<dim>37</dim>
					<dim>37</dim>
				</port>
			</output>
			<blobs>
				<weights offset="25439720" size="221184"/>
				<biases offset="44675128" size="384"/>
			</blobs>
		</layer>
		<layer id="435" name="inception_3a/double3x3a/bn/sc/relu" precision="FP32" type="ReLU">
			<data engine="caffe.ReLUParameter.DEFAULT" negative_slope="0.0"/>
			<input>
				<port id="0">
					<dim>16</dim>
					<dim>96</dim>
					<dim>37</dim>
					<dim>37</dim>
				</port>
			</input>
			<output>
				<port id="1">
					<dim>16</dim>
					<dim>96</dim>
					<dim>37</dim>
					<dim>37</dim>
				</port>
			</output>
		</layer>
		<layer id="185" name="inception_3a/double3x3b" precision="FP32" type="Convolution">
			<data dilation-x="1" dilation-y="1" group="1" kernel-x="3" kernel-y="3" output="96" pad-x="1" pad-y="1" stride="1,1,1,1" stride-x="1" stride-y="1"/>
			<input>
				<port id="0">
					<dim>16</dim>
					<dim>96</dim>
					<dim>37</dim>
					<dim>37</dim>
				</port>
			</input>
			<output>
				<port id="3">
					<dim>16</dim>
					<dim>96</dim>
					<dim>37</dim>
					<dim>37</dim>
				</port>
			</output>
			<blobs>
				<weights offset="459648" size="331776"/>
				<biases offset="38469176" size="384"/>
			</blobs>
		</layer>
		<layer id="462" name="inception_3a/double3x3b/bn/sc/relu" precision="FP32" type="ReLU">
			<data engine="caffe.ReLUParameter.DEFAULT" negative_slope="0.0"/>
			<input>
				<port id="0">
					<dim>16</dim>
					<dim>96</dim>
					<dim>37</dim>
					<dim>37</dim>
				</port>
			</input>
			<output>
				<port id="1">
					<dim>16</dim>
					<dim>96</dim>
					<dim>37</dim>
					<dim>37</dim>
				</port>
			</output>
		</layer>
		<layer id="217" name="inception_3a/output" precision="FP32" type="Concat">
			<data axis="1"/>
			<input>
				<port id="0">
					<dim>16</dim>
					<dim>64</dim>
					<dim>37</dim>
					<dim>37</dim>
				</port>
				<port id="1">
					<dim>16</dim>
					<dim>64</dim>
					<dim>37</dim>
					<dim>37</dim>
				</port>
				<port id="2">
					<dim>16</dim>
					<dim>96</dim>
					<dim>37</dim>
					<dim>37</dim>
				</port>
				<port id="3">
					<dim>16</dim>
					<dim>32</dim>
					<dim>37</dim>
					<dim>37</dim>
				</port>
			</input>
			<output>
				<port id="4">
					<dim>16</dim>
					<dim>256</dim>
					<dim>37</dim>
					<dim>37</dim>
				</port>
			</output>
		</layer>
		<layer id="43" name="inception_3b/pool" precision="FP32" type="Pooling">
			<data exclude-pad="false" kernel-x="3" kernel-y="3" pad-x="1" pad-y="1" pool-method="avg" rounding_type="ceil" stride="1,1,1,1" stride-x="1" stride-y="1"/>
			<input>
				<port id="0">
					<dim>16</dim>
					<dim>256</dim>
					<dim>37</dim>
					<dim>37</dim>
				</port>
			</input>
			<output>
				<port id="1">
					<dim>16</dim>
					<dim>256</dim>
					<dim>37</dim>
					<dim>37</dim>
				</port>
			</output>
		</layer>
		<layer id="352" name="inception_3b/pool_proj" precision="FP32" type="Convolution">
			<data dilation-x="1" dilation-y="1" group="1" kernel-x="1" kernel-y="1" output="64" pad-x="0" pad-y="0" stride="1,1,1,1" stride-x="1" stride-y="1"/>
			<input>
				<port id="0">
					<dim>16</dim>
					<dim>256</dim>
					<dim>37</dim>
					<dim>37</dim>
				</port>
			</input>
			<output>
				<port id="3">
					<dim>16</dim>
					<dim>64</dim>
					<dim>37</dim>
					<dim>37</dim>
				</port>
			</output>
			<blobs>
				<weights offset="4386816" size="65536"/>
				<biases offset="32076856" size="256"/>
			</blobs>
		</layer>
		<layer id="297" name="inception_3b/pool_proj/bn/sc/relu" precision="FP32" type="ReLU">
			<data engine="caffe.ReLUParameter.DEFAULT" negative_slope="0.0"/>
			<input>
				<port id="0">
					<dim>16</dim>
					<dim>64</dim>
					<dim>37</dim>
					<dim>37</dim>
				</port>
			</input>
			<output>
				<port id="1">
					<dim>16</dim>
					<dim>64</dim>
					<dim>37</dim>
					<dim>37</dim>
				</port>
			</output>
		</layer>
		<layer id="203" name="inception_3b/1x1" precision="FP32" type="Convolution">
			<data dilation-x="1" dilation-y="1" group="1" kernel-x="1" kernel-y="1" output="64" pad-x="0" pad-y="0" stride="1,1,1,1" stride-x="1" stride-y="1"/>
			<input>
				<port id="0">
					<dim>16</dim>
					<dim>256</dim>
					<dim>37</dim>
					<dim>37</dim>
				</port>
			</input>
			<output>
				<port id="3">
					<dim>16</dim>
					<dim>64</dim>
					<dim>37</dim>
					<dim>37</dim>
				</port>
			</output>
			<blobs>
				<weights offset="25041000" size="65536"/>
				<biases offset="9656376" size="256"/>
			</blobs>
		</layer>
		<layer id="210" name="inception_3b/1x1/bn/sc/relu" precision="FP32" type="ReLU">
			<data engine="caffe.ReLUParameter.DEFAULT" negative_slope="0.0"/>
			<input>
				<port id="0">
					<dim>16</dim>
					<dim>64</dim>
					<dim>37</dim>
					<dim>37</dim>
				</port>
			</input>
			<output>
				<port id="1">
					<dim>16</dim>
					<dim>64</dim>
					<dim>37</dim>
					<dim>37</dim>
				</port>
			</output>
		</layer>
		<layer id="60" name="inception_3b/3x3_reduce" precision="FP32" type="Convolution">
			<data dilation-x="1" dilation-y="1" group="1" kernel-x="1" kernel-y="1" output="64" pad-x="0" pad-y="0" stride="1,1,1,1" stride-x="1" stride-y="1"/>
			<input>
				<port id="0">
					<dim>16</dim>
					<dim>256</dim>
					<dim>37</dim>
					<dim>37</dim>
				</port>
			</input>
			<output>
				<port id="3">
					<dim>16</dim>
					<dim>64</dim>
					<dim>37</dim>
					<dim>37</dim>
				</port>
			</output>
			<blobs>
				<weights offset="13263288" size="65536"/>
				<biases offset="22052712" size="256"/>
			</blobs>
		</layer>
		<layer id="45" name="inception_3b/3x3_reduce/bn/sc/relu" precision="FP32" type="ReLU">
			<data engine="caffe.ReLUParameter.DEFAULT" negative_slope="0.0"/>
			<input>
				<port id="0">
					<dim>16</dim>
					<dim>64</dim>
					<dim>37</dim>
					<dim>37</dim>
				</port>
			</input>
			<output>
				<port id="1">
					<dim>16</dim>
					<dim>64</dim>
					<dim>37</dim>
					<dim>37</dim>
				</port>
			</output>
		</layer>
		<layer id="419" name="inception_3b/3x3" precision="FP32" type="Convolution">
			<data dilation-x="1" dilation-y="1" group="1" kernel-x="3" kernel-y="3" output="96" pad-x="1" pad-y="1" stride="1,1,1,1" stride-x="1" stride-y="1"/>
			<input>
				<port id="0">
					<dim>16</dim>
					<dim>64</dim>
					<dim>37</dim>
					<dim>37</dim>
				</port>
			</input>
			<output>
				<port id="3">
					<dim>16</dim>
					<dim>96</dim>
					<dim>37</dim>
					<dim>37</dim>
				</port>
			</output>
			<blobs>
				<weights offset="26880440" size="221184"/>
				<biases offset="13625352" size="384"/>
			</blobs>
		</layer>
		<layer id="114" name="inception_3b/3x3/bn/sc/relu" precision="FP32" type="ReLU">
			<data engine="caffe.ReLUParameter.DEFAULT" negative_slope="0.0"/>
			<input>
				<port id="0">
					<dim>16</dim>
					<dim>96</dim>
					<dim>37</dim>
					<dim>37</dim>
				</port>
			</input>
			<output>
				<port id="1">
					<dim>16</dim>
					<dim>96</dim>
					<dim>37</dim>
					<dim>37</dim>
				</port>
			</output>
		</layer>
		<layer id="149" name="inception_3b/double3x3_reduce" precision="FP32" type="Convolution">
			<data dilation-x="1" dilation-y="1" group="1" kernel-x="1" kernel-y="1" output="64" pad-x="0" pad-y="0" stride="1,1,1,1" stride-x="1" stride-y="1"/>
			<input>
				<port id="0">
					<dim>16</dim>
					<dim>256</dim>
					<dim>37</dim>
					<dim>37</dim>
				</port>
			</input>
			<output>
				<port id="3">
					<dim>16</dim>
					<dim>64</dim>
					<dim>37</dim>
					<dim>37</dim>
				</port>
			</output>
			<blobs>
				<weights offset="11721656" size="65536"/>
				<biases offset="38419000" size="256"/>
			</blobs>
		</layer>
		<layer id="329" name="inception_3b/double3x3_reduce/bn/sc/relu" precision="FP32" type="ReLU">
			<data engine="caffe.ReLUParameter.DEFAULT" negative_slope="0.0"/>
			<input>
				<port id="0">
					<dim>16</dim>
					<dim>64</dim>
					<dim>37</dim>
					<dim>37</dim>
				</port>
			</input>
			<output>
				<port id="1">
					<dim>16</dim>
					<dim>64</dim>
					<dim>37</dim>
					<dim>37</dim>
				</port>
			</output>
		</layer>
		<layer id="68" name="inception_3b/double3x3a" precision="FP32" type="Convolution">
			<data dilation-x="1" dilation-y="1" group="1" kernel-x="3" kernel-y="3" output="96" pad-x="1" pad-y="1" stride="1,1,1,1" stride-x="1" stride-y="1"/>
			<input>
				<port id="0">
					<dim>16</dim>
					<dim>64</dim>
					<dim>37</dim>
					<dim>37</dim>
				</port>
			</input>
			<output>
				<port id="3">
					<dim>16</dim>
					<dim>96</dim>
					<dim>37</dim>
					<dim>37</dim>
				</port>
			</output>
			<blobs>
				<weights offset="38197816" size="221184"/>
				<biases offset="44050616" size="384"/>
			</blobs>
		</layer>
		<layer id="74" name="inception_3b/double3x3a/bn/sc/relu" precision="FP32" type="ReLU">
			<data engine="caffe.ReLUParameter.DEFAULT" negative_slope="0.0"/>
			<input>
				<port id="0">
					<dim>16</dim>
					<dim>96</dim>
					<dim>37</dim>
					<dim>37</dim>
				</port>
			</input>
			<output>
				<port id="1">
					<dim>16</dim>
					<dim>96</dim>
					<dim>37</dim>
					<dim>37</dim>
				</port>
			</output>
		</layer>
		<layer id="495" name="inception_3b/double3x3b" precision="FP32" type="Convolution">
			<data dilation-x="1" dilation-y="1" group="1" kernel-x="3" kernel-y="3" output="96" pad-x="1" pad-y="1" stride="1,1,1,1" stride-x="1" stride-y="1"/>
			<input>
				<port id="0">
					<dim>16</dim>
					<dim>96</dim>
					<dim>37</dim>
					<dim>37</dim>
				</port>
			</input>
			<output>
				<port id="3">
					<dim>16</dim>
					<dim>96</dim>
					<dim>37</dim>
					<dim>37</dim>
				</port>
			</output>
			<blobs>
				<weights offset="42058552" size="331776"/>
				<biases offset="25660904" size="384"/>
			</blobs>
		</layer>
		<layer id="482" name="inception_3b/double3x3b/bn/sc/relu" precision="FP32" type="ReLU">
			<data engine="caffe.ReLUParameter.DEFAULT" negative_slope="0.0"/>
			<input>
				<port id="0">
					<dim>16</dim>
					<dim>96</dim>
					<dim>37</dim>
					<dim>37</dim>
				</port>
			</input>
			<output>
				<port id="1">
					<dim>16</dim>
					<dim>96</dim>
					<dim>37</dim>
					<dim>37</dim>
				</port>
			</output>
		</layer>
		<layer id="411" name="inception_3b/output" precision="FP32" type="Concat">
			<data axis="1"/>
			<input>
				<port id="0">
					<dim>16</dim>
					<dim>64</dim>
					<dim>37</dim>
					<dim>37</dim>
				</port>
				<port id="1">
					<dim>16</dim>
					<dim>96</dim>
					<dim>37</dim>
					<dim>37</dim>
				</port>
				<port id="2">
					<dim>16</dim>
					<dim>96</dim>
					<dim>37</dim>
					<dim>37</dim>
				</port>
				<port id="3">
					<dim>16</dim>
					<dim>64</dim>
					<dim>37</dim>
					<dim>37</dim>
				</port>
			</input>
			<output>
				<port id="4">
					<dim>16</dim>
					<dim>320</dim>
					<dim>37</dim>
					<dim>37</dim>
				</port>
			</output>
		</layer>
		<layer id="288" name="conv4_3_norm_mbox_loc" precision="FP32" type="Convolution">
			<data dilation-x="1" dilation-y="1" group="1" kernel-x="3" kernel-y="3" output="16" pad-x="1" pad-y="1" stride="1,1,1,1" stride-x="1" stride-y="1"/>
			<input>
				<port id="0">
					<dim>16</dim>
					<dim>320</dim>
					<dim>37</dim>
					<dim>37</dim>
				</port>
			</input>
			<output>
				<port id="3">
					<dim>16</dim>
					<dim>16</dim>
					<dim>37</dim>
					<dim>37</dim>
				</port>
			</output>
			<blobs>
				<weights offset="44675512" size="184320"/>
				<biases offset="25106536" size="64"/>
			</blobs>
		</layer>
		<layer id="317" name="conv4_3_norm_mbox_loc_perm" precision="FP32" type="Permute">
			<data order="0,2,3,1"/>
			<input>
				<port id="0">
					<dim>16</dim>
					<dim>16</dim>
					<dim>37</dim>
					<dim>37</dim>
				</port>
			</input>
			<output>
				<port id="1">
					<dim>16</dim>
					<dim>37</dim>
					<dim>37</dim>
					<dim>16</dim>
				</port>
			</output>
		</layer>
		<layer id="440" name="conv4_3_norm_mbox_loc_flat" precision="FP32" type="Flatten">
			<data axis="1"/>
			<input>
				<port id="0">
					<dim>16</dim>
					<dim>37</dim>
					<dim>37</dim>
					<dim>16</dim>
				</port>
			</input>
			<output>
				<port id="1">
					<dim>16</dim>
					<dim>21904</dim>
				</port>
			</output>
		</layer>
		<layer id="296" name="inception_3c/pool" precision="FP32" type="Pooling">
			<data exclude-pad="false" kernel-x="3" kernel-y="3" pad-x="0" pad-y="0" pool-method="max" rounding_type="ceil" stride="1,1,2,2" stride-x="2" stride-y="2"/>
			<input>
				<port id="0">
					<dim>16</dim>
					<dim>320</dim>
					<dim>37</dim>
					<dim>37</dim>
				</port>
			</input>
			<output>
				<port id="1">
					<dim>16</dim>
					<dim>320</dim>
					<dim>18</dim>
					<dim>18</dim>
				</port>
			</output>
		</layer>
		<layer id="298" name="inception_3c/double3x3_reduce" precision="FP32" type="Convolution">
			<data dilation-x="1" dilation-y="1" group="1" kernel-x="1" kernel-y="1" output="64" pad-x="0" pad-y="0" stride="1,1,1,1" stride-x="1" stride-y="1"/>
			<input>
				<port id="0">
					<dim>16</dim>
					<dim>320</dim>
					<dim>37</dim>
					<dim>37</dim>
				</port>
			</input>
			<output>
				<port id="3">
					<dim>16</dim>
					<dim>64</dim>
					<dim>37</dim>
					<dim>37</dim>
				</port>
			</output>
			<blobs>
				<weights offset="29619256" size="81920"/>
				<biases offset="19763336" size="256"/>
			</blobs>
		</layer>
		<layer id="84" name="inception_3c/double3x3_reduce/bn/sc/relu" precision="FP32" type="ReLU">
			<data engine="caffe.ReLUParameter.DEFAULT" negative_slope="0.0"/>
			<input>
				<port id="0">
					<dim>16</dim>
					<dim>64</dim>
					<dim>37</dim>
					<dim>37</dim>
				</port>
			</input>
			<output>
				<port id="1">
					<dim>16</dim>
					<dim>64</dim>
					<dim>37</dim>
					<dim>37</dim>
				</port>
			</output>
		</layer>
		<layer id="163" name="inception_3c/double3x3a" precision="FP32" type="Convolution">
			<data dilation-x="1" dilation-y="1" group="1" kernel-x="3" kernel-y="3" output="96" pad-x="1" pad-y="1" stride="1,1,1,1" stride-x="1" stride-y="1"/>
			<input>
				<port id="0">
					<dim>16</dim>
					<dim>64</dim>
					<dim>37</dim>
					<dim>37</dim>
				</port>
			</input>
			<output>
				<port id="3">
					<dim>16</dim>
					<dim>96</dim>
					<dim>37</dim>
					<dim>37</dim>
				</port>
			</output>
			<blobs>
				<weights offset="41836600" size="221184"/>
				<biases offset="36722616" size="384"/>
			</blobs>
		</layer>
		<layer id="486" name="inception_3c/double3x3a/bn/sc/relu" precision="FP32" type="ReLU">
			<data engine="caffe.ReLUParameter.DEFAULT" negative_slope="0.0"/>
			<input>
				<port id="0">
					<dim>16</dim>
					<dim>96</dim>
					<dim>37</dim>
					<dim>37</dim>
				</port>
			</input>
			<output>
				<port id="1">
					<dim>16</dim>
					<dim>96</dim>
					<dim>37</dim>
					<dim>37</dim>
				</port>
			</output>
		</layer>
		<layer id="201" name="inception_3c/double3x3b" precision="FP32" type="Convolution">
			<data dilation-x="1" dilation-y="1" group="1" kernel-x="3" kernel-y="3" output="96" pad-x="0" pad-y="0" stride="1,1,2,2" stride-x="2" stride-y="2"/>
			<input>
				<port id="0">
					<dim>16</dim>
					<dim>96</dim>
					<dim>37</dim>
					<dim>37</dim>
				</port>
			</input>
			<output>
				<port id="3">
					<dim>16</dim>
					<dim>96</dim>
					<dim>18</dim>
					<dim>18</dim>
				</port>
			</output>
			<blobs>
				<weights offset="25106600" size="331776"/>
				<biases offset="42390328" size="384"/>
			</blobs>
		</layer>
		<layer id="89" name="inception_3c/double3x3b/bn/sc/relu" precision="FP32" type="ReLU">
			<data engine="caffe.ReLUParameter.DEFAULT" negative_slope="0.0"/>
			<input>
				<port id="0">
					<dim>16</dim>
					<dim>96</dim>
					<dim>18</dim>
					<dim>18</dim>
				</port>
			</input>
			<output>
				<port id="1">
					<dim>16</dim>
					<dim>96</dim>
					<dim>18</dim>
					<dim>18</dim>
				</port>
			</output>
		</layer>
		<layer id="251" name="conv4_3_norm_mbox_priorbox" precision="FP32" type="PriorBox">
			<data aspect_ratio="2.0" clip="0" flip="1" max_size="60.0" min_size="30.0" offset="0.5" step="8.0" variance="0.10000000149011612,0.10000000149011612,0.20000000298023224,0.20000000298023224"/>
			<input>
				<port id="0">
					<dim>16</dim>
					<dim>320</dim>
					<dim>37</dim>
					<dim>37</dim>
				</port>
				<port id="1">
					<dim>16</dim>
					<dim>3</dim>
					<dim>300</dim>
					<dim>300</dim>
				</port>
			</input>
			<output>
				<port id="2">
					<dim>1</dim>
					<dim>2</dim>
					<dim>21904</dim>
				</port>
			</output>
		</layer>
		<layer id="508" name="conv4_3_norm_mbox_conf" precision="FP32" type="Convolution">
			<data dilation-x="1" dilation-y="1" group="1" kernel-x="3" kernel-y="3" output="84" pad-x="1" pad-y="1" stride="1,1,1,1" stride-x="1" stride-y="1"/>
			<input>
				<port id="0">
					<dim>16</dim>
					<dim>320</dim>
					<dim>37</dim>
					<dim>37</dim>
				</port>
			</input>
			<output>
				<port id="3">
					<dim>16</dim>
					<dim>84</dim>
					<dim>37</dim>
					<dim>37</dim>
				</port>
			</output>
			<blobs>
				<weights offset="27691960" size="967680"/>
				<biases offset="25662688" size="336"/>
			</blobs>
		</layer>
		<layer id="208" name="conv4_3_norm_mbox_conf_perm" precision="FP32" type="Permute">
			<data order="0,2,3,1"/>
			<input>
				<port id="0">
					<dim>16</dim>
					<dim>84</dim>
					<dim>37</dim>
					<dim>37</dim>
				</port>
			</input>
			<output>
				<port id="1">
					<dim>16</dim>
					<dim>37</dim>
					<dim>37</dim>
					<dim>84</dim>
				</port>
			</output>
		</layer>
		<layer id="277" name="conv4_3_norm_mbox_conf_flat" precision="FP32" type="Flatten">
			<data axis="1"/>
			<input>
				<port id="0">
					<dim>16</dim>
					<dim>37</dim>
					<dim>37</dim>
					<dim>84</dim>
				</port>
			</input>
			<output>
				<port id="1">
					<dim>16</dim>
					<dim>114996</dim>
				</port>
			</output>
		</layer>
		<layer id="269" name="inception_3c/3x3_reduce" precision="FP32" type="Convolution">
			<data dilation-x="1" dilation-y="1" group="1" kernel-x="1" kernel-y="1" output="128" pad-x="0" pad-y="0" stride="1,1,1,1" stride-x="1" stride-y="1"/>
			<input>
				<port id="0">
					<dim>16</dim>
					<dim>320</dim>
					<dim>37</dim>
					<dim>37</dim>
				</port>
			</input>
			<output>
				<port id="3">
					<dim>16</dim>
					<dim>128</dim>
					<dim>37</dim>
					<dim>37</dim>
				</port>
			</output>
			<blobs>
				<weights offset="30143544" size="163840"/>
				<biases offset="11788216" size="512"/>
			</blobs>
		</layer>
		<layer id="160" name="inception_3c/3x3_reduce/bn/sc/relu" precision="FP32" type="ReLU">
			<data engine="caffe.ReLUParameter.DEFAULT" negative_slope="0.0"/>
			<input>
				<port id="0">
					<dim>16</dim>
					<dim>128</dim>
					<dim>37</dim>
					<dim>37</dim>
				</port>
			</input>
			<output>
				<port id="1">
					<dim>16</dim>
					<dim>128</dim>
					<dim>37</dim>
					<dim>37</dim>
				</port>
			</output>
		</layer>
		<layer id="253" name="inception_3c/3x3" precision="FP32" type="Convolution">
			<data dilation-x="1" dilation-y="1" group="1" kernel-x="3" kernel-y="3" output="160" pad-x="0" pad-y="0" stride="1,1,2,2" stride-x="2" stride-y="2"/>
			<input>
				<port id="0">
					<dim>16</dim>
					<dim>128</dim>
					<dim>37</dim>
					<dim>37</dim>
				</port>
			</input>
			<output>
				<port id="3">
					<dim>16</dim>
					<dim>160</dim>
					<dim>18</dim>
					<dim>18</dim>
				</port>
			</output>
			<blobs>
				<weights offset="10836664" size="737280"/>
				<biases offset="32077112" size="640"/>
			</blobs>
		</layer>
		<layer id="513" name="inception_3c/3x3/bn/sc/relu" precision="FP32" type="ReLU">
			<data engine="caffe.ReLUParameter.DEFAULT" negative_slope="0.0"/>
			<input>
				<port id="0">
					<dim>16</dim>
					<dim>160</dim>
					<dim>18</dim>
					<dim>18</dim>
				</port>
			</input>
			<output>
				<port id="1">
					<dim>16</dim>
					<dim>160</dim>
					<dim>18</dim>
					<dim>18</dim>
				</port>
			</output>
		</layer>
		<layer id="535" name="inception_3c/output" precision="FP32" type="Concat">
			<data axis="1"/>
			<input>
				<port id="0">
					<dim>16</dim>
					<dim>160</dim>
					<dim>18</dim>
					<dim>18</dim>
				</port>
				<port id="1">
					<dim>16</dim>
					<dim>96</dim>
					<dim>18</dim>
					<dim>18</dim>
				</port>
				<port id="2">
					<dim>16</dim>
					<dim>320</dim>
					<dim>18</dim>
					<dim>18</dim>
				</port>
			</input>
			<output>
				<port id="3">
					<dim>16</dim>
					<dim>576</dim>
					<dim>18</dim>
					<dim>18</dim>
				</port>
			</output>
		</layer>
		<layer id="248" name="inception_4a/3x3_reduce" precision="FP32" type="Convolution">
			<data dilation-x="1" dilation-y="1" group="1" kernel-x="1" kernel-y="1" output="64" pad-x="0" pad-y="0" stride="1,1,1,1" stride-x="1" stride-y="1"/>
			<input>
				<port id="0">
					<dim>16</dim>
					<dim>576</dim>
					<dim>18</dim>
					<dim>18</dim>
				</port>
			</input>
			<output>
				<port id="3">
					<dim>16</dim>
					<dim>64</dim>
					<dim>18</dim>
					<dim>18</dim>
				</port>
			</output>
			<blobs>
				<weights offset="21683816" size="147456"/>
				<biases offset="22052456" size="256"/>
			</blobs>
		</layer>
		<layer id="500" name="inception_4a/double3x3_reduce" precision="FP32" type="Convolution">
			<data dilation-x="1" dilation-y="1" group="1" kernel-x="1" kernel-y="1" output="96" pad-x="0" pad-y="0" stride="1,1,1,1" stride-x="1" stride-y="1"/>
			<input>
				<port id="0">
					<dim>16</dim>
					<dim>576</dim>
					<dim>18</dim>
					<dim>18</dim>
				</port>
			</input>
			<output>
				<port id="3">
					<dim>16</dim>
					<dim>96</dim>
					<dim>18</dim>
					<dim>18</dim>
				</port>
			</output>
			<blobs>
				<weights offset="22052968" size="221184"/>
				<biases offset="9656632" size="384"/>
			</blobs>
		</layer>
		<layer id="487" name="inception_4a/double3x3_reduce/bn/sc/relu" precision="FP32" type="ReLU">
			<data engine="caffe.ReLUParameter.DEFAULT" negative_slope="0.0"/>
			<input>
				<port id="0">
					<dim>16</dim>
					<dim>96</dim>
					<dim>18</dim>
					<dim>18</dim>
				</port>
			</input>
			<output>
				<port id="1">
					<dim>16</dim>
					<dim>96</dim>
					<dim>18</dim>
					<dim>18</dim>
				</port>
			</output>
		</layer>
		<layer id="3" name="inception_4a/double3x3a" precision="FP32" type="Convolution">
			<data dilation-x="1" dilation-y="1" group="1" kernel-x="3" kernel-y="3" output="128" pad-x="1" pad-y="1" stride="1,1,1,1" stride-x="1" stride-y="1"/>
			<input>
				<port id="0">
					<dim>16</dim>
					<dim>96</dim>
					<dim>18</dim>
					<dim>18</dim>
				</port>
			</input>
			<output>
				<port id="3">
					<dim>16</dim>
					<dim>128</dim>
					<dim>18</dim>
					<dim>18</dim>
				</port>
			</output>
			<blobs>
				<weights offset="37460280" size="442368"/>
				<biases offset="9655104" size="512"/>
			</blobs>
		</layer>
		<layer id="112" name="inception_4a/double3x3a/bn/sc/relu" precision="FP32" type="ReLU">
			<data engine="caffe.ReLUParameter.DEFAULT" negative_slope="0.0"/>
			<input>
				<port id="0">
					<dim>16</dim>
					<dim>128</dim>
					<dim>18</dim>
					<dim>18</dim>
				</port>
			</input>
			<output>
				<port id="1">
					<dim>16</dim>
					<dim>128</dim>
					<dim>18</dim>
					<dim>18</dim>
				</port>
			</output>
		</layer>
		<layer id="283" name="inception_4a/double3x3b" precision="FP32" type="Convolution">
			<data dilation-x="1" dilation-y="1" group="1" kernel-x="3" kernel-y="3" output="128" pad-x="1" pad-y="1" stride="1,1,1,1" stride-x="1" stride-y="1"/>
			<input>
				<port id="0">
					<dim>16</dim>
					<dim>128</dim>
					<dim>18</dim>
					<dim>18</dim>
				</port>
			</input>
			<output>
				<port id="3">
					<dim>16</dim>
					<dim>128</dim>
					<dim>18</dim>
					<dim>18</dim>
				</port>
			</output>
			<blobs>
				<weights offset="5782976" size="589824"/>
				<biases offset="27691448" size="512"/>
			</blobs>
		</layer>
		<layer id="46" name="inception_4a/double3x3b/bn/sc/relu" precision="FP32" type="ReLU">
			<data engine="caffe.ReLUParameter.DEFAULT" negative_slope="0.0"/>
			<input>
				<port id="0">
					<dim>16</dim>
					<dim>128</dim>
					<dim>18</dim>
					<dim>18</dim>
				</port>
			</input>
			<output>
				<port id="1">
					<dim>16</dim>
					<dim>128</dim>
					<dim>18</dim>
					<dim>18</dim>
				</port>
			</output>
		</layer>
		<layer id="165" name="inception_4a/1x1" precision="FP32" type="Convolution">
			<data dilation-x="1" dilation-y="1" group="1" kernel-x="1" kernel-y="1" output="224" pad-x="0" pad-y="0" stride="1,1,1,1" stride-x="1" stride-y="1"/>
			<input>
				<port id="0">
					<dim>16</dim>
					<dim>576</dim>
					<dim>18</dim>
					<dim>18</dim>
				</port>
			</input>
			<output>
				<port id="3">
					<dim>16</dim>
					<dim>224</dim>
					<dim>18</dim>
					<dim>18</dim>
				</port>
			</output>
			<blobs>
				<weights offset="29103160" size="516096"/>
				<biases offset="25661288" size="896"/>
			</blobs>
		</layer>
		<layer id="40" name="inception_4a/1x1/bn/sc/relu" precision="FP32" type="ReLU">
			<data engine="caffe.ReLUParameter.DEFAULT" negative_slope="0.0"/>
			<input>
				<port id="0">
					<dim>16</dim>
					<dim>224</dim>
					<dim>18</dim>
					<dim>18</dim>
				</port>
			</input>
			<output>
				<port id="1">
					<dim>16</dim>
					<dim>224</dim>
					<dim>18</dim>
					<dim>18</dim>
				</port>
			</output>
		</layer>
		<layer id="62" name="inception_4a/pool" precision="FP32" type="Pooling">
			<data exclude-pad="false" kernel-x="3" kernel-y="3" pad-x="1" pad-y="1" pool-method="avg" rounding_type="ceil" stride="1,1,1,1" stride-x="1" stride-y="1"/>
			<input>
				<port id="0">
					<dim>16</dim>
					<dim>576</dim>
					<dim>18</dim>
					<dim>18</dim>
				</port>
			</input>
			<output>
				<port id="1">
					<dim>16</dim>
					<dim>576</dim>
					<dim>18</dim>
					<dim>18</dim>
				</port>
			</output>
		</layer>
		<layer id="199" name="inception_4a/pool_proj" precision="FP32" type="Convolution">
			<data dilation-x="1" dilation-y="1" group="1" kernel-x="1" kernel-y="1" output="128" pad-x="0" pad-y="0" stride="1,1,1,1" stride-x="1" stride-y="1"/>
			<input>
				<port id="0">
					<dim>16</dim>
					<dim>576</dim>
					<dim>18</dim>
					<dim>18</dim>
				</port>
			</input>
			<output>
				<port id="3">
					<dim>16</dim>
					<dim>128</dim>
					<dim>18</dim>
					<dim>18</dim>
				</port>
			</output>
			<blobs>
				<weights offset="13329160" size="294912"/>
				<biases offset="9654592" size="512"/>
			</blobs>
		</layer>
		<layer id="219" name="inception_4a/pool_proj/bn/sc/relu" precision="FP32" type="ReLU">
			<data engine="caffe.ReLUParameter.DEFAULT" negative_slope="0.0"/>
			<input>
				<port id="0">
					<dim>16</dim>
					<dim>128</dim>
					<dim>18</dim>
					<dim>18</dim>
				</port>
			</input>
			<output>
				<port id="1">
					<dim>16</dim>
					<dim>128</dim>
					<dim>18</dim>
					<dim>18</dim>
				</port>
			</output>
		</layer>
		<layer id="0" name="inception_4a/3x3_reduce/bn/sc/relu" precision="FP32" type="ReLU">
			<data engine="caffe.ReLUParameter.DEFAULT" negative_slope="0.0"/>
			<input>
				<port id="0">
					<dim>16</dim>
					<dim>64</dim>
					<dim>18</dim>
					<dim>18</dim>
				</port>
			</input>
			<output>
				<port id="1">
					<dim>16</dim>
					<dim>64</dim>
					<dim>18</dim>
					<dim>18</dim>
				</port>
			</output>
		</layer>
		<layer id="157" name="inception_4a/3x3" precision="FP32" type="Convolution">
			<data dilation-x="1" dilation-y="1" group="1" kernel-x="3" kernel-y="3" output="96" pad-x="1" pad-y="1" stride="1,1,1,1" stride-x="1" stride-y="1"/>
			<input>
				<port id="0">
					<dim>16</dim>
					<dim>64</dim>
					<dim>18</dim>
					<dim>18</dim>
				</port>
			</input>
			<output>
				<port id="3">
					<dim>16</dim>
					<dim>96</dim>
					<dim>18</dim>
					<dim>18</dim>
				</port>
			</output>
			<blobs>
				<weights offset="13042104" size="221184"/>
				<biases offset="442880" size="384"/>
			</blobs>
		</layer>
		<layer id="485" name="inception_4a/3x3/bn/sc/relu" precision="FP32" type="ReLU">
			<data engine="caffe.ReLUParameter.DEFAULT" negative_slope="0.0"/>
			<input>
				<port id="0">
					<dim>16</dim>
					<dim>96</dim>
					<dim>18</dim>
					<dim>18</dim>
				</port>
			</input>
			<output>
				<port id="1">
					<dim>16</dim>
					<dim>96</dim>
					<dim>18</dim>
					<dim>18</dim>
				</port>
			</output>
		</layer>
		<layer id="37" name="inception_4a/output" precision="FP32" type="Concat">
			<data axis="1"/>
			<input>
				<port id="0">
					<dim>16</dim>
					<dim>224</dim>
					<dim>18</dim>
					<dim>18</dim>
				</port>
				<port id="1">
					<dim>16</dim>
					<dim>96</dim>
					<dim>18</dim>
					<dim>18</dim>
				</port>
				<port id="2">
					<dim>16</dim>
					<dim>128</dim>
					<dim>18</dim>
					<dim>18</dim>
				</port>
				<port id="3">
					<dim>16</dim>
					<dim>128</dim>
					<dim>18</dim>
					<dim>18</dim>
				</port>
			</input>
			<output>
				<port id="4">
					<dim>16</dim>
					<dim>576</dim>
					<dim>18</dim>
					<dim>18</dim>
				</port>
			</output>
		</layer>
		<layer id="514" name="inception_4b/1x1" precision="FP32" type="Convolution">
			<data dilation-x="1" dilation-y="1" group="1" kernel-x="1" kernel-y="1" output="192" pad-x="0" pad-y="0" stride="1,1,1,1" stride-x="1" stride-y="1"/>
			<input>
				<port id="0">
					<dim>16</dim>
					<dim>576</dim>
					<dim>18</dim>
					<dim>18</dim>
				</port>
			</input>
			<output>
				<port id="3">
					<dim>16</dim>
					<dim>192</dim>
					<dim>18</dim>
					<dim>18</dim>
				</port>
			</output>
			<blobs>
				<weights offset="28660792" size="442368"/>
				<biases offset="42057784" size="768"/>
			</blobs>
		</layer>
		<layer id="439" name="inception_4b/1x1/bn/sc/relu" precision="FP32" type="ReLU">
			<data engine="caffe.ReLUParameter.DEFAULT" negative_slope="0.0"/>
			<input>
				<port id="0">
					<dim>16</dim>
					<dim>192</dim>
					<dim>18</dim>
					<dim>18</dim>
				</port>
			</input>
			<output>
				<port id="1">
					<dim>16</dim>
					<dim>192</dim>
					<dim>18</dim>
					<dim>18</dim>
				</port>
			</output>
		</layer>
		<layer id="530" name="inception_4b/3x3_reduce" precision="FP32" type="Convolution">
			<data dilation-x="1" dilation-y="1" group="1" kernel-x="1" kernel-y="1" output="96" pad-x="0" pad-y="0" stride="1,1,1,1" stride-x="1" stride-y="1"/>
			<input>
				<port id="0">
					<dim>16</dim>
					<dim>576</dim>
					<dim>18</dim>
					<dim>18</dim>
				</port>
			</input>
			<output>
				<port id="3">
					<dim>16</dim>
					<dim>96</dim>
					<dim>18</dim>
					<dim>18</dim>
				</port>
			</output>
			<blobs>
				<weights offset="38471736" size="221184"/>
				<biases offset="21460872" size="384"/>
			</blobs>
		</layer>
		<layer id="373" name="inception_4b/3x3_reduce/bn/sc/relu" precision="FP32" type="ReLU">
			<data engine="caffe.ReLUParameter.DEFAULT" negative_slope="0.0"/>
			<input>
				<port id="0">
					<dim>16</dim>
					<dim>96</dim>
					<dim>18</dim>
					<dim>18</dim>
				</port>
			</input>
			<output>
				<port id="1">
					<dim>16</dim>
					<dim>96</dim>
					<dim>18</dim>
					<dim>18</dim>
				</port>
			</output>
		</layer>
		<layer id="24" name="inception_4b/3x3" precision="FP32" type="Convolution">
			<data dilation-x="1" dilation-y="1" group="1" kernel-x="3" kernel-y="3" output="128" pad-x="1" pad-y="1" stride="1,1,1,1" stride-x="1" stride-y="1"/>
			<input>
				<port id="0">
					<dim>16</dim>
					<dim>96</dim>
					<dim>18</dim>
					<dim>18</dim>
				</port>
			</input>
			<output>
				<port id="3">
					<dim>16</dim>
					<dim>128</dim>
					<dim>18</dim>
					<dim>18</dim>
				</port>
			</output>
			<blobs>
				<weights offset="512" size="442368"/>
				<biases offset="0" size="512"/>
			</blobs>
		</layer>
		<layer id="314" name="inception_4b/3x3/bn/sc/relu" precision="FP32" type="ReLU">
			<data engine="caffe.ReLUParameter.DEFAULT" negative_slope="0.0"/>
			<input>
				<port id="0">
					<dim>16</dim>
					<dim>128</dim>
					<dim>18</dim>
					<dim>18</dim>
				</port>
			</input>
			<output>
				<port id="1">
					<dim>16</dim>
					<dim>128</dim>
					<dim>18</dim>
					<dim>18</dim>
				</port>
			</output>
		</layer>
		<layer id="14" name="inception_4b/pool" precision="FP32" type="Pooling">
			<data exclude-pad="false" kernel-x="3" kernel-y="3" pad-x="1" pad-y="1" pool-method="avg" rounding_type="ceil" stride="1,1,1,1" stride-x="1" stride-y="1"/>
			<input>
				<port id="0">
					<dim>16</dim>
					<dim>576</dim>
					<dim>18</dim>
					<dim>18</dim>
				</port>
			</input>
			<output>
				<port id="1">
					<dim>16</dim>
					<dim>576</dim>
					<dim>18</dim>
					<dim>18</dim>
				</port>
			</output>
		</layer>
		<layer id="342" name="inception_4b/pool_proj" precision="FP32" type="Convolution">
			<data dilation-x="1" dilation-y="1" group="1" kernel-x="1" kernel-y="1" output="128" pad-x="0" pad-y="0" stride="1,1,1,1" stride-x="1" stride-y="1"/>
			<input>
				<port id="0">
					<dim>16</dim>
					<dim>576</dim>
					<dim>18</dim>
					<dim>18</dim>
				</port>
			</input>
			<output>
				<port id="3">
					<dim>16</dim>
					<dim>128</dim>
					<dim>18</dim>
					<dim>18</dim>
				</port>
			</output>
			<blobs>
				<weights offset="26585528" size="294912"/>
				<biases offset="20870024" size="512"/>
			</blobs>
		</layer>
		<layer id="237" name="inception_4b/pool_proj/bn/sc/relu" precision="FP32" type="ReLU">
			<data engine="caffe.ReLUParameter.DEFAULT" negative_slope="0.0"/>
			<input>
				<port id="0">
					<dim>16</dim>
					<dim>128</dim>
					<dim>18</dim>
					<dim>18</dim>
				</port>
			</input>
			<output>
				<port id="1">
					<dim>16</dim>
					<dim>128</dim>
					<dim>18</dim>
					<dim>18</dim>
				</port>
			</output>
		</layer>
		<layer id="477" name="inception_4b/double3x3_reduce" precision="FP32" type="Convolution">
			<data dilation-x="1" dilation-y="1" group="1" kernel-x="1" kernel-y="1" output="96" pad-x="0" pad-y="0" stride="1,1,1,1" stride-x="1" stride-y="1"/>
			<input>
				<port id="0">
					<dim>16</dim>
					<dim>576</dim>
					<dim>18</dim>
					<dim>18</dim>
				</port>
			</input>
			<output>
				<port id="3">
					<dim>16</dim>
					<dim>96</dim>
					<dim>18</dim>
					<dim>18</dim>
				</port>
			</output>
			<blobs>
				<weights offset="12673464" size="221184"/>
				<biases offset="5779456" size="384"/>
			</blobs>
		</layer>
		<layer id="94" name="inception_4b/double3x3_reduce/bn/sc/relu" precision="FP32" type="ReLU">
			<data engine="caffe.ReLUParameter.DEFAULT" negative_slope="0.0"/>
			<input>
				<port id="0">
					<dim>16</dim>
					<dim>96</dim>
					<dim>18</dim>
					<dim>18</dim>
				</port>
			</input>
			<output>
				<port id="1">
					<dim>16</dim>
					<dim>96</dim>
					<dim>18</dim>
					<dim>18</dim>
				</port>
			</output>
		</layer>
		<layer id="414" name="inception_4b/double3x3a" precision="FP32" type="Convolution">
			<data dilation-x="1" dilation-y="1" group="1" kernel-x="3" kernel-y="3" output="128" pad-x="1" pad-y="1" stride="1,1,1,1" stride-x="1" stride-y="1"/>
			<input>
				<port id="0">
					<dim>16</dim>
					<dim>96</dim>
					<dim>18</dim>
					<dim>18</dim>
				</port>
			</input>
			<output>
				<port id="3">
					<dim>16</dim>
					<dim>128</dim>
					<dim>18</dim>
					<dim>18</dim>
				</port>
			</output>
			<blobs>
				<weights offset="29701176" size="442368"/>
				<biases offset="5779840" size="512"/>
			</blobs>
		</layer>
		<layer id="58" name="inception_4b/double3x3a/bn/sc/relu" precision="FP32" type="ReLU">
			<data engine="caffe.ReLUParameter.DEFAULT" negative_slope="0.0"/>
			<input>
				<port id="0">
					<dim>16</dim>
					<dim>128</dim>
					<dim>18</dim>
					<dim>18</dim>
				</port>
			</input>
			<output>
				<port id="1">
					<dim>16</dim>
					<dim>128</dim>
					<dim>18</dim>
					<dim>18</dim>
				</port>
			</output>
		</layer>
		<layer id="73" name="inception_4b/double3x3b" precision="FP32" type="Convolution">
			<data dilation-x="1" dilation-y="1" group="1" kernel-x="3" kernel-y="3" output="128" pad-x="1" pad-y="1" stride="1,1,1,1" stride-x="1" stride-y="1"/>
			<input>
				<port id="0">
					<dim>16</dim>
					<dim>128</dim>
					<dim>18</dim>
					<dim>18</dim>
				</port>
			</input>
			<output>
				<port id="3">
					<dim>16</dim>
					<dim>128</dim>
					<dim>18</dim>
					<dim>18</dim>
				</port>
			</output>
			<blobs>
				<weights offset="38730936" size="589824"/>
				<biases offset="21461256" size="512"/>
			</blobs>
		</layer>
		<layer id="321" name="inception_4b/double3x3b/bn/sc/relu" precision="FP32" type="ReLU">
			<data engine="caffe.ReLUParameter.DEFAULT" negative_slope="0.0"/>
			<input>
				<port id="0">
					<dim>16</dim>
					<dim>128</dim>
					<dim>18</dim>
					<dim>18</dim>
				</port>
			</input>
			<output>
				<port id="1">
					<dim>16</dim>
					<dim>128</dim>
					<dim>18</dim>
					<dim>18</dim>
				</port>
			</output>
		</layer>
		<layer id="121" name="inception_4b/output" precision="FP32" type="Concat">
			<data axis="1"/>
			<input>
				<port id="0">
					<dim>16</dim>
					<dim>192</dim>
					<dim>18</dim>
					<dim>18</dim>
				</port>
				<port id="1">
					<dim>16</dim>
					<dim>128</dim>
					<dim>18</dim>
					<dim>18</dim>
				</port>
				<port id="2">
					<dim>16</dim>
					<dim>128</dim>
					<dim>18</dim>
					<dim>18</dim>
				</port>
				<port id="3">
					<dim>16</dim>
					<dim>128</dim>
					<dim>18</dim>
					<dim>18</dim>
				</port>
			</input>
			<output>
				<port id="4">
					<dim>16</dim>
					<dim>576</dim>
					<dim>18</dim>
					<dim>18</dim>
				</port>
			</output>
		</layer>
		<layer id="96" name="inception_4c/3x3_reduce" precision="FP32" type="Convolution">
			<data dilation-x="1" dilation-y="1" group="1" kernel-x="1" kernel-y="1" output="128" pad-x="0" pad-y="0" stride="1,1,1,1" stride-x="1" stride-y="1"/>
			<input>
				<port id="0">
					<dim>16</dim>
					<dim>576</dim>
					<dim>18</dim>
					<dim>18</dim>
				</port>
			</input>
			<output>
				<port id="3">
					<dim>16</dim>
					<dim>128</dim>
					<dim>18</dim>
					<dim>18</dim>
				</port>
			</output>
			<blobs>
				<weights offset="21165960" size="294912"/>
				<biases offset="14782088" size="512"/>
			</blobs>
		</layer>
		<layer id="16" name="inception_4c/3x3_reduce/bn/sc/relu" precision="FP32" type="ReLU">
			<data engine="caffe.ReLUParameter.DEFAULT" negative_slope="0.0"/>
			<input>
				<port id="0">
					<dim>16</dim>
					<dim>128</dim>
					<dim>18</dim>
					<dim>18</dim>
				</port>
			</input>
			<output>
				<port id="1">
					<dim>16</dim>
					<dim>128</dim>
					<dim>18</dim>
					<dim>18</dim>
				</port>
			</output>
		</layer>
		<layer id="249" name="inception_4c/3x3" precision="FP32" type="Convolution">
			<data dilation-x="1" dilation-y="1" group="1" kernel-x="3" kernel-y="3" output="160" pad-x="1" pad-y="1" stride="1,1,1,1" stride-x="1" stride-y="1"/>
			<input>
				<port id="0">
					<dim>16</dim>
					<dim>128</dim>
					<dim>18</dim>
					<dim>18</dim>
				</port>
			</input>
			<output>
				<port id="3">
					<dim>16</dim>
					<dim>160</dim>
					<dim>18</dim>
					<dim>18</dim>
				</port>
			</output>
			<blobs>
				<weights offset="43312312" size="737280"/>
				<biases offset="5782336" size="640"/>
			</blobs>
		</layer>
		<layer id="176" name="inception_4c/3x3/bn/sc/relu" precision="FP32" type="ReLU">
			<data engine="caffe.ReLUParameter.DEFAULT" negative_slope="0.0"/>
			<input>
				<port id="0">
					<dim>16</dim>
					<dim>160</dim>
					<dim>18</dim>
					<dim>18</dim>
				</port>
			</input>
			<output>
				<port id="1">
					<dim>16</dim>
					<dim>160</dim>
					<dim>18</dim>
					<dim>18</dim>
				</port>
			</output>
		</layer>
		<layer id="65" name="inception_4c/1x1" precision="FP32" type="Convolution">
			<data dilation-x="1" dilation-y="1" group="1" kernel-x="1" kernel-y="1" output="160" pad-x="0" pad-y="0" stride="1,1,1,1" stride-x="1" stride-y="1"/>
			<input>
				<port id="0">
					<dim>16</dim>
					<dim>576</dim>
					<dim>18</dim>
					<dim>18</dim>
				</port>
			</input>
			<output>
				<port id="3">
					<dim>16</dim>
					<dim>160</dim>
					<dim>18</dim>
					<dim>18</dim>
				</port>
			</output>
			<blobs>
				<weights offset="13921416" size="368640"/>
				<biases offset="6372800" size="640"/>
			</blobs>
		</layer>
		<layer id="273" name="inception_4c/1x1/bn/sc/relu" precision="FP32" type="ReLU">
			<data engine="caffe.ReLUParameter.DEFAULT" negative_slope="0.0"/>
			<input>
				<port id="0">
					<dim>16</dim>
					<dim>160</dim>
					<dim>18</dim>
					<dim>18</dim>
				</port>
			</input>
			<output>
				<port id="1">
					<dim>16</dim>
					<dim>160</dim>
					<dim>18</dim>
					<dim>18</dim>
				</port>
			</output>
		</layer>
		<layer id="524" name="inception_4c/pool" precision="FP32" type="Pooling">
			<data exclude-pad="false" kernel-x="3" kernel-y="3" pad-x="1" pad-y="1" pool-method="avg" rounding_type="ceil" stride="1,1,1,1" stride-x="1" stride-y="1"/>
			<input>
				<port id="0">
					<dim>16</dim>
					<dim>576</dim>
					<dim>18</dim>
					<dim>18</dim>
				</port>
			</input>
			<output>
				<port id="1">
					<dim>16</dim>
					<dim>576</dim>
					<dim>18</dim>
					<dim>18</dim>
				</port>
			</output>
		</layer>
		<layer id="236" name="inception_4c/pool_proj" precision="FP32" type="Convolution">
			<data dilation-x="1" dilation-y="1" group="1" kernel-x="1" kernel-y="1" output="96" pad-x="0" pad-y="0" stride="1,1,1,1" stride-x="1" stride-y="1"/>
			<input>
				<port id="0">
					<dim>16</dim>
					<dim>576</dim>
					<dim>18</dim>
					<dim>18</dim>
				</port>
			</input>
			<output>
				<port id="3">
					<dim>16</dim>
					<dim>96</dim>
					<dim>18</dim>
					<dim>18</dim>
				</port>
			</output>
			<blobs>
				<weights offset="44272696" size="221184"/>
				<biases offset="38692920" size="384"/>
			</blobs>
		</layer>
		<layer id="102" name="inception_4c/pool_proj/bn/sc/relu" precision="FP32" type="ReLU">
			<data engine="caffe.ReLUParameter.DEFAULT" negative_slope="0.0"/>
			<input>
				<port id="0">
					<dim>16</dim>
					<dim>96</dim>
					<dim>18</dim>
					<dim>18</dim>
				</port>
			</input>
			<output>
				<port id="1">
					<dim>16</dim>
					<dim>96</dim>
					<dim>18</dim>
					<dim>18</dim>
				</port>
			</output>
		</layer>
		<layer id="383" name="inception_4c/double3x3_reduce" precision="FP32" type="Convolution">
			<data dilation-x="1" dilation-y="1" group="1" kernel-x="1" kernel-y="1" output="128" pad-x="0" pad-y="0" stride="1,1,1,1" stride-x="1" stride-y="1"/>
			<input>
				<port id="0">
					<dim>16</dim>
					<dim>576</dim>
					<dim>18</dim>
					<dim>18</dim>
				</port>
			</input>
			<output>
				<port id="3">
					<dim>16</dim>
					<dim>128</dim>
					<dim>18</dim>
					<dim>18</dim>
				</port>
			</output>
			<blobs>
				<weights offset="37902648" size="294912"/>
				<biases offset="21165448" size="512"/>
			</blobs>
		</layer>
		<layer id="39" name="inception_4c/double3x3_reduce/bn/sc/relu" precision="FP32" type="ReLU">
			<data engine="caffe.ReLUParameter.DEFAULT" negative_slope="0.0"/>
			<input>
				<port id="0">
					<dim>16</dim>
					<dim>128</dim>
					<dim>18</dim>
					<dim>18</dim>
				</port>
			</input>
			<output>
				<port id="1">
					<dim>16</dim>
					<dim>128</dim>
					<dim>18</dim>
					<dim>18</dim>
				</port>
			</output>
		</layer>
		<layer id="206" name="inception_4c/double3x3a" precision="FP32" type="Convolution">
			<data dilation-x="1" dilation-y="1" group="1" kernel-x="3" kernel-y="3" output="160" pad-x="1" pad-y="1" stride="1,1,1,1" stride-x="1" stride-y="1"/>
			<input>
				<port id="0">
					<dim>16</dim>
					<dim>128</dim>
					<dim>18</dim>
					<dim>18</dim>
				</port>
			</input>
			<output>
				<port id="3">
					<dim>16</dim>
					<dim>160</dim>
					<dim>18</dim>
					<dim>18</dim>
				</port>
			</output>
			<blobs>
				<weights offset="36723000" size="737280"/>
				<biases offset="25438376" size="640"/>
			</blobs>
		</layer>
		<layer id="178" name="inception_4c/double3x3a/bn/sc/relu" precision="FP32" type="ReLU">
			<data engine="caffe.ReLUParameter.DEFAULT" negative_slope="0.0"/>
			<input>
				<port id="0">
					<dim>16</dim>
					<dim>160</dim>
					<dim>18</dim>
					<dim>18</dim>
				</port>
			</input>
			<output>
				<port id="1">
					<dim>16</dim>
					<dim>160</dim>
					<dim>18</dim>
					<dim>18</dim>
				</port>
			</output>
		</layer>
		<layer id="471" name="inception_4c/double3x3b" precision="FP32" type="Convolution">
			<data dilation-x="1" dilation-y="1" group="1" kernel-x="3" kernel-y="3" output="160" pad-x="1" pad-y="1" stride="1,1,1,1" stride-x="1" stride-y="1"/>
			<input>
				<port id="0">
					<dim>16</dim>
					<dim>160</dim>
					<dim>18</dim>
					<dim>18</dim>
				</port>
			</input>
			<output>
				<port id="3">
					<dim>16</dim>
					<dim>160</dim>
					<dim>18</dim>
					<dim>18</dim>
				</port>
			</output>
			<blobs>
				<weights offset="42390712" size="921600"/>
				<biases offset="25439080" size="640"/>
			</blobs>
		</layer>
		<layer id="481" name="inception_4c/double3x3b/bn/sc/relu" precision="FP32" type="ReLU">
			<data engine="caffe.ReLUParameter.DEFAULT" negative_slope="0.0"/>
			<input>
				<port id="0">
					<dim>16</dim>
					<dim>160</dim>
					<dim>18</dim>
					<dim>18</dim>
				</port>
			</input>
			<output>
				<port id="1">
					<dim>16</dim>
					<dim>160</dim>
					<dim>18</dim>
					<dim>18</dim>
				</port>
			</output>
		</layer>
		<layer id="429" name="inception_4c/output" precision="FP32" type="Concat">
			<data axis="1"/>
			<input>
				<port id="0">
					<dim>16</dim>
					<dim>160</dim>
					<dim>18</dim>
					<dim>18</dim>
				</port>
				<port id="1">
					<dim>16</dim>
					<dim>160</dim>
					<dim>18</dim>
					<dim>18</dim>
				</port>
				<port id="2">
					<dim>16</dim>
					<dim>160</dim>
					<dim>18</dim>
					<dim>18</dim>
				</port>
				<port id="3">
					<dim>16</dim>
					<dim>96</dim>
					<dim>18</dim>
					<dim>18</dim>
				</port>
			</input>
			<output>
				<port id="4">
					<dim>16</dim>
					<dim>576</dim>
					<dim>18</dim>
					<dim>18</dim>
				</port>
			</output>
		</layer>
		<layer id="448" name="inception_4d/double3x3_reduce" precision="FP32" type="Convolution">
			<data dilation-x="1" dilation-y="1" group="1" kernel-x="1" kernel-y="1" output="160" pad-x="0" pad-y="0" stride="1,1,1,1" stride-x="1" stride-y="1"/>
			<input>
				<port id="0">
					<dim>16</dim>
					<dim>576</dim>
					<dim>18</dim>
					<dim>18</dim>
				</port>
			</input>
			<output>
				<port id="3">
					<dim>16</dim>
					<dim>160</dim>
					<dim>18</dim>
					<dim>18</dim>
				</port>
			</output>
			<blobs>
				<weights offset="792576" size="368640"/>
				<biases offset="791936" size="640"/>
			</blobs>
		</layer>
		<layer id="144" name="inception_4d/double3x3_reduce/bn/sc/relu" precision="FP32" type="ReLU">
			<data engine="caffe.ReLUParameter.DEFAULT" negative_slope="0.0"/>
			<input>
				<port id="0">
					<dim>16</dim>
					<dim>160</dim>
					<dim>18</dim>
					<dim>18</dim>
				</port>
			</input>
			<output>
				<port id="1">
					<dim>16</dim>
					<dim>160</dim>
					<dim>18</dim>
					<dim>18</dim>
				</port>
			</output>
		</layer>
		<layer id="332" name="inception_4d/double3x3a" precision="FP32" type="Convolution">
			<data dilation-x="1" dilation-y="1" group="1" kernel-x="3" kernel-y="3" output="192" pad-x="1" pad-y="1" stride="1,1,1,1" stride-x="1" stride-y="1"/>
			<input>
				<port id="0">
					<dim>16</dim>
					<dim>160</dim>
					<dim>18</dim>
					<dim>18</dim>
				</port>
			</input>
			<output>
				<port id="3">
					<dim>16</dim>
					<dim>192</dim>
					<dim>18</dim>
					<dim>18</dim>
				</port>
			</output>
			<blobs>
				<weights offset="19764104" size="1105920"/>
				<biases offset="21682952" size="768"/>
			</blobs>
		</layer>
		<layer id="146" name="inception_4d/double3x3a/bn/sc/relu" precision="FP32" type="ReLU">
			<data engine="caffe.ReLUParameter.DEFAULT" negative_slope="0.0"/>
			<input>
				<port id="0">
					<dim>16</dim>
					<dim>192</dim>
					<dim>18</dim>
					<dim>18</dim>
				</port>
			</input>
			<output>
				<port id="1">
					<dim>16</dim>
					<dim>192</dim>
					<dim>18</dim>
					<dim>18</dim>
				</port>
			</output>
		</layer>
		<layer id="437" name="inception_4d/double3x3b" precision="FP32" type="Convolution">
			<data dilation-x="1" dilation-y="1" group="1" kernel-x="3" kernel-y="3" output="192" pad-x="1" pad-y="1" stride="1,1,1,1" stride-x="1" stride-y="1"/>
			<input>
				<port id="0">
					<dim>16</dim>
					<dim>192</dim>
					<dim>18</dim>
					<dim>18</dim>
				</port>
			</input>
			<output>
				<port id="3">
					<dim>16</dim>
					<dim>192</dim>
					<dim>18</dim>
					<dim>18</dim>
				</port>
			</output>
			<blobs>
				<weights offset="4452352" size="1327104"/>
				<biases offset="13920648" size="768"/>
			</blobs>
		</layer>
		<layer id="408" name="inception_4d/double3x3b/bn/sc/relu" precision="FP32" type="ReLU">
			<data engine="caffe.ReLUParameter.DEFAULT" negative_slope="0.0"/>
			<input>
				<port id="0">
					<dim>16</dim>
					<dim>192</dim>
					<dim>18</dim>
					<dim>18</dim>
				</port>
			</input>
			<output>
				<port id="1">
					<dim>16</dim>
					<dim>192</dim>
					<dim>18</dim>
					<dim>18</dim>
				</port>
			</output>
		</layer>
		<layer id="434" name="inception_4d/1x1" precision="FP32" type="Convolution">
			<data dilation-x="1" dilation-y="1" group="1" kernel-x="1" kernel-y="1" output="96" pad-x="0" pad-y="0" stride="1,1,1,1" stride-x="1" stride-y="1"/>
			<input>
				<port id="0">
					<dim>16</dim>
					<dim>576</dim>
					<dim>18</dim>
					<dim>18</dim>
				</port>
			</input>
			<output>
				<port id="3">
					<dim>16</dim>
					<dim>96</dim>
					<dim>18</dim>
					<dim>18</dim>
				</port>
			</output>
			<blobs>
				<weights offset="44051512" size="221184"/>
				<biases offset="38470328" size="384"/>
			</blobs>
		</layer>
		<layer id="310" name="inception_4d/1x1/bn/sc/relu" precision="FP32" type="ReLU">
			<data engine="caffe.ReLUParameter.DEFAULT" negative_slope="0.0"/>
			<input>
				<port id="0">
					<dim>16</dim>
					<dim>96</dim>
					<dim>18</dim>
					<dim>18</dim>
				</port>
			</input>
			<output>
				<port id="1">
					<dim>16</dim>
					<dim>96</dim>
					<dim>18</dim>
					<dim>18</dim>
				</port>
			</output>
		</layer>
		<layer id="324" name="inception_4d/pool" precision="FP32" type="Pooling">
			<data exclude-pad="false" kernel-x="3" kernel-y="3" pad-x="1" pad-y="1" pool-method="avg" rounding_type="ceil" stride="1,1,1,1" stride-x="1" stride-y="1"/>
			<input>
				<port id="0">
					<dim>16</dim>
					<dim>576</dim>
					<dim>18</dim>
					<dim>18</dim>
				</port>
			</input>
			<output>
				<port id="1">
					<dim>16</dim>
					<dim>576</dim>
					<dim>18</dim>
					<dim>18</dim>
				</port>
			</output>
		</layer>
		<layer id="124" name="inception_4d/pool_proj" precision="FP32" type="Convolution">
			<data dilation-x="1" dilation-y="1" group="1" kernel-x="1" kernel-y="1" output="96" pad-x="0" pad-y="0" stride="1,1,1,1" stride-x="1" stride-y="1"/>
			<input>
				<port id="0">
					<dim>16</dim>
					<dim>576</dim>
					<dim>18</dim>
					<dim>18</dim>
				</port>
			</input>
			<output>
				<port id="3">
					<dim>16</dim>
					<dim>96</dim>
					<dim>18</dim>
					<dim>18</dim>
				</port>
			</output>
			<blobs>
				<weights offset="21461768" size="221184"/>
				<biases offset="41836216" size="384"/>
			</blobs>
		</layer>
		<layer id="164" name="inception_4d/pool_proj/bn/sc/relu" precision="FP32" type="ReLU">
			<data engine="caffe.ReLUParameter.DEFAULT" negative_slope="0.0"/>
			<input>
				<port id="0">
					<dim>16</dim>
					<dim>96</dim>
					<dim>18</dim>
					<dim>18</dim>
				</port>
			</input>
			<output>
				<port id="1">
					<dim>16</dim>
					<dim>96</dim>
					<dim>18</dim>
					<dim>18</dim>
				</port>
			</output>
		</layer>
		<layer id="77" name="inception_4d/3x3_reduce" precision="FP32" type="Convolution">
			<data dilation-x="1" dilation-y="1" group="1" kernel-x="1" kernel-y="1" output="128" pad-x="0" pad-y="0" stride="1,1,1,1" stride-x="1" stride-y="1"/>
			<input>
				<port id="0">
					<dim>16</dim>
					<dim>576</dim>
					<dim>18</dim>
					<dim>18</dim>
				</port>
			</input>
			<output>
				<port id="3">
					<dim>16</dim>
					<dim>128</dim>
					<dim>18</dim>
					<dim>18</dim>
				</port>
			</output>
			<blobs>
				<weights offset="13625736" size="294912"/>
				<biases offset="44051000" size="512"/>
			</blobs>
		</layer>
		<layer id="532" name="inception_4d/3x3_reduce/bn/sc/relu" precision="FP32" type="ReLU">
			<data engine="caffe.ReLUParameter.DEFAULT" negative_slope="0.0"/>
			<input>
				<port id="0">
					<dim>16</dim>
					<dim>128</dim>
					<dim>18</dim>
					<dim>18</dim>
				</port>
			</input>
			<output>
				<port id="1">
					<dim>16</dim>
					<dim>128</dim>
					<dim>18</dim>
					<dim>18</dim>
				</port>
			</output>
		</layer>
		<layer id="9" name="inception_4d/3x3" precision="FP32" type="Convolution">
			<data dilation-x="1" dilation-y="1" group="1" kernel-x="3" kernel-y="3" output="192" pad-x="1" pad-y="1" stride="1,1,1,1" stride-x="1" stride-y="1"/>
			<input>
				<port id="0">
					<dim>16</dim>
					<dim>128</dim>
					<dim>18</dim>
					<dim>18</dim>
				</port>
			</input>
			<output>
				<port id="3">
					<dim>16</dim>
					<dim>192</dim>
					<dim>18</dim>
					<dim>18</dim>
				</port>
			</output>
			<blobs>
				<weights offset="8769856" size="884736"/>
				<biases offset="38469560" size="768"/>
			</blobs>
		</layer>
		<layer id="516" name="inception_4d/3x3/bn/sc/relu" precision="FP32" type="ReLU">
			<data engine="caffe.ReLUParameter.DEFAULT" negative_slope="0.0"/>
			<input>
				<port id="0">
					<dim>16</dim>
					<dim>192</dim>
					<dim>18</dim>
					<dim>18</dim>
				</port>
			</input>
			<output>
				<port id="1">
					<dim>16</dim>
					<dim>192</dim>
					<dim>18</dim>
					<dim>18</dim>
				</port>
			</output>
		</layer>
		<layer id="271" name="inception_4d/output" precision="FP32" type="Concat">
			<data axis="1"/>
			<input>
				<port id="0">
					<dim>16</dim>
					<dim>96</dim>
					<dim>18</dim>
					<dim>18</dim>
				</port>
				<port id="1">
					<dim>16</dim>
					<dim>192</dim>
					<dim>18</dim>
					<dim>18</dim>
				</port>
				<port id="2">
					<dim>16</dim>
					<dim>192</dim>
					<dim>18</dim>
					<dim>18</dim>
				</port>
				<port id="3">
					<dim>16</dim>
					<dim>96</dim>
					<dim>18</dim>
					<dim>18</dim>
				</port>
			</input>
			<output>
				<port id="4">
					<dim>16</dim>
					<dim>576</dim>
					<dim>18</dim>
					<dim>18</dim>
				</port>
			</output>
		</layer>
		<layer id="315" name="inception_4e/double3x3_reduce" precision="FP32" type="Convolution">
			<data dilation-x="1" dilation-y="1" group="1" kernel-x="1" kernel-y="1" output="192" pad-x="0" pad-y="0" stride="1,1,1,1" stride-x="1" stride-y="1"/>
			<input>
				<port id="0">
					<dim>16</dim>
					<dim>576</dim>
					<dim>18</dim>
					<dim>18</dim>
				</port>
			</input>
			<output>
				<port id="3">
					<dim>16</dim>
					<dim>192</dim>
					<dim>18</dim>
					<dim>18</dim>
				</port>
			</output>
			<blobs>
				<weights offset="7553088" size="442368"/>
				<biases offset="44049592" size="768"/>
			</blobs>
		</layer>
		<layer id="385" name="inception_4e/double3x3_reduce/bn/sc/relu" precision="FP32" type="ReLU">
			<data engine="caffe.ReLUParameter.DEFAULT" negative_slope="0.0"/>
			<input>
				<port id="0">
					<dim>16</dim>
					<dim>192</dim>
					<dim>18</dim>
					<dim>18</dim>
				</port>
			</input>
			<output>
				<port id="1">
					<dim>16</dim>
					<dim>192</dim>
					<dim>18</dim>
					<dim>18</dim>
				</port>
			</output>
		</layer>
		<layer id="170" name="inception_4e/double3x3a" precision="FP32" type="Convolution">
			<data dilation-x="1" dilation-y="1" group="1" kernel-x="3" kernel-y="3" output="256" pad-x="1" pad-y="1" stride="1,1,1,1" stride-x="1" stride-y="1"/>
			<input>
				<port id="0">
					<dim>16</dim>
					<dim>192</dim>
					<dim>18</dim>
					<dim>18</dim>
				</port>
			</input>
			<output>
				<port id="3">
					<dim>16</dim>
					<dim>256</dim>
					<dim>18</dim>
					<dim>18</dim>
				</port>
			</output>
			<blobs>
				<weights offset="30307384" size="1769472"/>
				<biases offset="5781312" size="1024"/>
			</blobs>
		</layer>
		<layer id="300" name="inception_4e/double3x3a/bn/sc/relu" precision="FP32" type="ReLU">
			<data engine="caffe.ReLUParameter.DEFAULT" negative_slope="0.0"/>
			<input>
				<port id="0">
					<dim>16</dim>
					<dim>256</dim>
					<dim>18</dim>
					<dim>18</dim>
				</port>
			</input>
			<output>
				<port id="1">
					<dim>16</dim>
					<dim>256</dim>
					<dim>18</dim>
					<dim>18</dim>
				</port>
			</output>
		</layer>
		<layer id="20" name="inception_4e/double3x3b" precision="FP32" type="Convolution">
			<data dilation-x="1" dilation-y="1" group="1" kernel-x="3" kernel-y="3" output="256" pad-x="1" pad-y="1" stride="1,1,2,2" stride-x="2" stride-y="2"/>
			<input>
				<port id="0">
					<dim>16</dim>
					<dim>256</dim>
					<dim>18</dim>
					<dim>18</dim>
				</port>
			</input>
			<output>
				<port id="3">
					<dim>16</dim>
					<dim>256</dim>
					<dim>9</dim>
					<dim>9</dim>
				</port>
			</output>
			<blobs>
				<weights offset="39476920" size="2359296"/>
				<biases offset="44624952" size="1024"/>
			</blobs>
		</layer>
		<layer id="265" name="inception_4e/double3x3b/bn/sc/relu" precision="FP32" type="ReLU">
			<data engine="caffe.ReLUParameter.DEFAULT" negative_slope="0.0"/>
			<input>
				<port id="0">
					<dim>16</dim>
					<dim>256</dim>
					<dim>9</dim>
					<dim>9</dim>
				</port>
			</input>
			<output>
				<port id="1">
					<dim>16</dim>
					<dim>256</dim>
					<dim>9</dim>
					<dim>9</dim>
				</port>
			</output>
		</layer>
		<layer id="13" name="inception_4e/pool" precision="FP32" type="Pooling">
			<data exclude-pad="false" kernel-x="3" kernel-y="3" pad-x="0" pad-y="0" pool-method="max" rounding_type="ceil" stride="1,1,2,2" stride-x="2" stride-y="2"/>
			<input>
				<port id="0">
					<dim>16</dim>
					<dim>576</dim>
					<dim>18</dim>
					<dim>18</dim>
				</port>
			</input>
			<output>
				<port id="1">
					<dim>16</dim>
					<dim>576</dim>
					<dim>9</dim>
					<dim>9</dim>
				</port>
			</output>
		</layer>
		<layer id="493" name="conv6_1" precision="FP32" type="Convolution">
			<data dilation-x="1" dilation-y="1" group="1" kernel-x="1" kernel-y="1" output="256" pad-x="0" pad-y="0" stride="1,1,1,1" stride-x="1" stride-y="1"/>
			<input>
				<port id="0">
					<dim>16</dim>
					<dim>576</dim>
					<dim>18</dim>
					<dim>18</dim>
				</port>
			</input>
			<output>
				<port id="3">
					<dim>16</dim>
					<dim>256</dim>
					<dim>18</dim>
					<dim>18</dim>
				</port>
			</output>
			<blobs>
				<weights offset="27101624" size="589824"/>
				<biases offset="38470712" size="1024"/>
			</blobs>
		</layer>
		<layer id="119" name="conv6_1_relu" precision="FP32" type="ReLU">
			<data engine="caffe.ReLUParameter.DEFAULT" negative_slope="0.0"/>
			<input>
				<port id="0">
					<dim>16</dim>
					<dim>256</dim>
					<dim>18</dim>
					<dim>18</dim>
				</port>
			</input>
			<output>
				<port id="1">
					<dim>16</dim>
					<dim>256</dim>
					<dim>18</dim>
					<dim>18</dim>
				</port>
			</output>
		</layer>
		<layer id="258" name="conv6_2" precision="FP32" type="Convolution">
			<data dilation-x="1" dilation-y="1" group="1" kernel-x="3" kernel-y="3" output="512" pad-x="1" pad-y="1" stride="1,1,2,2" stride-x="2" stride-y="2"/>
			<input>
				<port id="0">
					<dim>16</dim>
					<dim>256</dim>
					<dim>18</dim>
					<dim>18</dim>
				</port>
			</input>
			<output>
				<port id="3">
					<dim>16</dim>
					<dim>512</dim>
					<dim>9</dim>
					<dim>9</dim>
				</port>
			</output>
			<blobs>
				<weights offset="14782600" size="4718592"/>
				<biases offset="25038952" size="2048"/>
			</blobs>
		</layer>
		<layer id="97" name="conv6_2_relu" precision="FP32" type="ReLU">
			<data engine="caffe.ReLUParameter.DEFAULT" negative_slope="0.0"/>
			<input>
				<port id="0">
					<dim>16</dim>
					<dim>512</dim>
					<dim>9</dim>
					<dim>9</dim>
				</port>
			</input>
			<output>
				<port id="1">
					<dim>16</dim>
					<dim>512</dim>
					<dim>9</dim>
					<dim>9</dim>
				</port>
			</output>
		</layer>
		<layer id="472" name="conv6_2_mbox_priorbox" precision="FP32" type="PriorBox">
			<data aspect_ratio="2.0,3.0" clip="0" flip="1" max_size="162.0" min_size="111.0" offset="0.5" step="32.0" variance="0.10000000149011612,0.10000000149011612,0.20000000298023224,0.20000000298023224"/>
			<input>
				<port id="0">
					<dim>16</dim>
					<dim>512</dim>
					<dim>9</dim>
					<dim>9</dim>
				</port>
				<port id="1">
					<dim>16</dim>
					<dim>3</dim>
					<dim>300</dim>
					<dim>300</dim>
				</port>
			</input>
			<output>
				<port id="2">
					<dim>1</dim>
					<dim>2</dim>
					<dim>1944</dim>
				</port>
			</output>
		</layer>
		<layer id="388" name="conv7_1" precision="FP32" type="Convolution">
			<data dilation-x="1" dilation-y="1" group="1" kernel-x="1" kernel-y="1" output="128" pad-x="0" pad-y="0" stride="1,1,1,1" stride-x="1" stride-y="1"/>
			<input>
				<port id="0">
					<dim>16</dim>
					<dim>512</dim>
					<dim>9</dim>
					<dim>9</dim>
				</port>
			</input>
			<output>
				<port id="3">
					<dim>16</dim>
					<dim>128</dim>
					<dim>9</dim>
					<dim>9</dim>
				</port>
			</output>
			<blobs>
				<weights offset="19501192" size="262144"/>
				<biases offset="791424" size="512"/>
			</blobs>
		</layer>
		<layer id="218" name="conv7_1_relu" precision="FP32" type="ReLU">
			<data engine="caffe.ReLUParameter.DEFAULT" negative_slope="0.0"/>
			<input>
				<port id="0">
					<dim>16</dim>
					<dim>128</dim>
					<dim>9</dim>
					<dim>9</dim>
				</port>
			</input>
			<output>
				<port id="1">
					<dim>16</dim>
					<dim>128</dim>
					<dim>9</dim>
					<dim>9</dim>
				</port>
			</output>
		</layer>
		<layer id="23" name="conv7_2" precision="FP32" type="Convolution">
			<data dilation-x="1" dilation-y="1" group="1" kernel-x="3" kernel-y="3" output="256" pad-x="1" pad-y="1" stride="1,1,2,2" stride-x="2" stride-y="2"/>
			<input>
				<port id="0">
					<dim>16</dim>
					<dim>128</dim>
					<dim>9</dim>
					<dim>9</dim>
				</port>
			</input>
			<output>
				<port id="3">
					<dim>16</dim>
					<dim>256</dim>
					<dim>5</dim>
					<dim>5</dim>
				</port>
			</output>
			<blobs>
				<weights offset="2322432" size="1179648"/>
				<biases offset="11787192" size="1024"/>
			</blobs>
		</layer>
		<layer id="494" name="conv7_2_relu" precision="FP32" type="ReLU">
			<data engine="caffe.ReLUParameter.DEFAULT" negative_slope="0.0"/>
			<input>
				<port id="0">
					<dim>16</dim>
					<dim>256</dim>
					<dim>5</dim>
					<dim>5</dim>
				</port>
			</input>
			<output>
				<port id="1">
					<dim>16</dim>
					<dim>256</dim>
					<dim>5</dim>
					<dim>5</dim>
				</port>
			</output>
		</layer>
		<layer id="104" name="conv8_1" precision="FP32" type="Convolution">
			<data dilation-x="1" dilation-y="1" group="1" kernel-x="1" kernel-y="1" output="128" pad-x="0" pad-y="0" stride="1,1,1,1" stride-x="1" stride-y="1"/>
			<input>
				<port id="0">
					<dim>16</dim>
					<dim>256</dim>
					<dim>5</dim>
					<dim>5</dim>
				</port>
			</input>
			<output>
				<port id="3">
					<dim>16</dim>
					<dim>128</dim>
					<dim>5</dim>
					<dim>5</dim>
				</port>
			</output>
			<blobs>
				<weights offset="44493880" size="131072"/>
				<biases offset="19763592" size="512"/>
			</blobs>
		</layer>
		<layer id="231" name="conv8_1_relu" precision="FP32" type="ReLU">
			<data engine="caffe.ReLUParameter.DEFAULT" negative_slope="0.0"/>
			<input>
				<port id="0">
					<dim>16</dim>
					<dim>128</dim>
					<dim>5</dim>
					<dim>5</dim>
				</port>
			</input>
			<output>
				<port id="1">
					<dim>16</dim>
					<dim>128</dim>
					<dim>5</dim>
					<dim>5</dim>
				</port>
			</output>
		</layer>
		<layer id="148" name="conv8_2" precision="FP32" type="Convolution">
			<data dilation-x="1" dilation-y="1" group="1" kernel-x="3" kernel-y="3" output="256" pad-x="0" pad-y="0" stride="1,1,1,1" stride-x="1" stride-y="1"/>
			<input>
				<port id="0">
					<dim>16</dim>
					<dim>128</dim>
					<dim>5</dim>
					<dim>5</dim>
				</port>
			</input>
			<output>
				<port id="3">
					<dim>16</dim>
					<dim>256</dim>
					<dim>3</dim>
					<dim>3</dim>
				</port>
			</output>
			<blobs>
				<weights offset="6373440" size="1179648"/>
				<biases offset="28659768" size="1024"/>
			</blobs>
		</layer>
		<layer id="293" name="conv8_2_relu" precision="FP32" type="ReLU">
			<data engine="caffe.ReLUParameter.DEFAULT" negative_slope="0.0"/>
			<input>
				<port id="0">
					<dim>16</dim>
					<dim>256</dim>
					<dim>3</dim>
					<dim>3</dim>
				</port>
			</input>
			<output>
				<port id="1">
					<dim>16</dim>
					<dim>256</dim>
					<dim>3</dim>
					<dim>3</dim>
				</port>
			</output>
		</layer>
		<layer id="480" name="conv8_2_mbox_conf" precision="FP32" type="Convolution">
			<data dilation-x="1" dilation-y="1" group="1" kernel-x="3" kernel-y="3" output="84" pad-x="1" pad-y="1" stride="1,1,1,1" stride-x="1" stride-y="1"/>
			<input>
				<port id="0">
					<dim>16</dim>
					<dim>256</dim>
					<dim>3</dim>
					<dim>3</dim>
				</port>
			</input>
			<output>
				<port id="3">
					<dim>16</dim>
					<dim>84</dim>
					<dim>3</dim>
					<dim>3</dim>
				</port>
			</output>
			<blobs>
				<weights offset="7995712" size="774144"/>
				<biases offset="13328824" size="336"/>
			</blobs>
		</layer>
		<layer id="264" name="conv8_2_mbox_conf_perm" precision="FP32" type="Permute">
			<data order="0,2,3,1"/>
			<input>
				<port id="0">
					<dim>16</dim>
					<dim>84</dim>
					<dim>3</dim>
					<dim>3</dim>
				</port>
			</input>
			<output>
				<port id="1">
					<dim>16</dim>
					<dim>3</dim>
					<dim>3</dim>
					<dim>84</dim>
				</port>
			</output>
		</layer>
		<layer id="339" name="conv8_2_mbox_conf_flat" precision="FP32" type="Flatten">
			<data axis="1"/>
			<input>
				<port id="0">
					<dim>16</dim>
					<dim>3</dim>
					<dim>3</dim>
					<dim>84</dim>
				</port>
			</input>
			<output>
				<port id="1">
					<dim>16</dim>
					<dim>756</dim>
				</port>
			</output>
		</layer>
		<layer id="505" name="conv8_2_mbox_loc" precision="FP32" type="Convolution">
			<data dilation-x="1" dilation-y="1" group="1" kernel-x="3" kernel-y="3" output="16" pad-x="1" pad-y="1" stride="1,1,1,1" stride-x="1" stride-y="1"/>
			<input>
				<port id="0">
					<dim>16</dim>
					<dim>256</dim>
					<dim>3</dim>
					<dim>3</dim>
				</port>
			</input>
			<output>
				<port id="3">
					<dim>16</dim>
					<dim>16</dim>
					<dim>3</dim>
					<dim>3</dim>
				</port>
			</output>
			<blobs>
				<weights offset="26438072" size="147456"/>
				<biases offset="26438008" size="64"/>
			</blobs>
		</layer>
		<layer id="451" name="conv8_2_mbox_loc_perm" precision="FP32" type="Permute">
			<data order="0,2,3,1"/>
			<input>
				<port id="0">
					<dim>16</dim>
					<dim>16</dim>
					<dim>3</dim>
					<dim>3</dim>
				</port>
			</input>
			<output>
				<port id="1">
					<dim>16</dim>
					<dim>3</dim>
					<dim>3</dim>
					<dim>16</dim>
				</port>
			</output>
		</layer>
		<layer id="118" name="conv8_2_mbox_loc_flat" precision="FP32" type="Flatten">
			<data axis="1"/>
			<input>
				<port id="0">
					<dim>16</dim>
					<dim>3</dim>
					<dim>3</dim>
					<dim>16</dim>
				</port>
			</input>
			<output>
				<port id="1">
					<dim>16</dim>
					<dim>144</dim>
				</port>
			</output>
		</layer>
		<layer id="445" name="conv9_1" precision="FP32" type="Convolution">
			<data dilation-x="1" dilation-y="1" group="1" kernel-x="1" kernel-y="1" output="128" pad-x="0" pad-y="0" stride="1,1,1,1" stride-x="1" stride-y="1"/>
			<input>
				<port id="0">
					<dim>16</dim>
					<dim>256</dim>
					<dim>3</dim>
					<dim>3</dim>
				</port>
			</input>
			<output>
				<port id="3">
					<dim>16</dim>
					<dim>128</dim>
					<dim>3</dim>
					<dim>3</dim>
				</port>
			</output>
			<blobs>
				<weights offset="39320760" size="131072"/>
				<biases offset="14781576" size="512"/>
			</blobs>
		</layer>
		<layer id="204" name="conv9_1_relu" precision="FP32" type="ReLU">
			<data engine="caffe.ReLUParameter.DEFAULT" negative_slope="0.0"/>
			<input>
				<port id="0">
					<dim>16</dim>
					<dim>128</dim>
					<dim>3</dim>
					<dim>3</dim>
				</port>
			</input>
			<output>
				<port id="1">
					<dim>16</dim>
					<dim>128</dim>
					<dim>3</dim>
					<dim>3</dim>
				</port>
			</output>
		</layer>
		<layer id="221" name="conv9_2" precision="FP32" type="Convolution">
			<data dilation-x="1" dilation-y="1" group="1" kernel-x="3" kernel-y="3" output="256" pad-x="0" pad-y="0" stride="1,1,1,1" stride-x="1" stride-y="1"/>
			<input>
				<port id="0">
					<dim>16</dim>
					<dim>128</dim>
					<dim>3</dim>
					<dim>3</dim>
				</port>
			</input>
			<output>
				<port id="3">
					<dim>16</dim>
					<dim>256</dim>
					<dim>1</dim>
					<dim>1</dim>
				</port>
			</output>
			<blobs>
				<weights offset="9657016" size="1179648"/>
				<biases offset="13624328" size="1024"/>
			</blobs>
		</layer>
		<layer id="312" name="conv9_2_relu" precision="FP32" type="ReLU">
			<data engine="caffe.ReLUParameter.DEFAULT" negative_slope="0.0"/>
			<input>
				<port id="0">
					<dim>16</dim>
					<dim>256</dim>
					<dim>1</dim>
					<dim>1</dim>
				</port>
			</input>
			<output>
				<port id="1">
					<dim>16</dim>
					<dim>256</dim>
					<dim>1</dim>
					<dim>1</dim>
				</port>
			</output>
		</layer>
		<layer id="128" name="conv9_2_mbox_conf" precision="FP32" type="Convolution">
			<data dilation-x="1" dilation-y="1" group="1" kernel-x="3" kernel-y="3" output="84" pad-x="1" pad-y="1" stride="1,1,1,1" stride-x="1" stride-y="1"/>
			<input>
				<port id="0">
					<dim>16</dim>
					<dim>256</dim>
					<dim>1</dim>
					<dim>1</dim>
				</port>
			</input>
			<output>
				<port id="3">
					<dim>16</dim>
					<dim>84</dim>
					<dim>1</dim>
					<dim>1</dim>
				</port>
			</output>
			<blobs>
				<weights offset="25663864" size="774144"/>
				<biases offset="25663528" size="336"/>
			</blobs>
		</layer>
		<layer id="6" name="conv9_2_mbox_conf_perm" precision="FP32" type="Permute">
			<data order="0,2,3,1"/>
			<input>
				<port id="0">
					<dim>16</dim>
					<dim>84</dim>
					<dim>1</dim>
					<dim>1</dim>
				</port>
			</input>
			<output>
				<port id="1">
					<dim>16</dim>
					<dim>1</dim>
					<dim>1</dim>
					<dim>84</dim>
				</port>
			</output>
		</layer>
		<layer id="85" name="conv9_2_mbox_conf_flat" precision="FP32" type="Flatten">
			<data axis="1"/>
			<input>
				<port id="0">
					<dim>16</dim>
					<dim>1</dim>
					<dim>1</dim>
					<dim>84</dim>
				</port>
			</input>
			<output>
				<port id="1">
					<dim>16</dim>
					<dim>84</dim>
				</port>
			</output>
		</layer>
		<layer id="275" name="conv9_2_mbox_priorbox" precision="FP32" type="PriorBox">
			<data aspect_ratio="2.0" clip="0" flip="1" max_size="315.0" min_size="264.0" offset="0.5" step="300.0" variance="0.10000000149011612,0.10000000149011612,0.20000000298023224,0.20000000298023224"/>
			<input>
				<port id="0">
					<dim>16</dim>
					<dim>256</dim>
					<dim>1</dim>
					<dim>1</dim>
				</port>
				<port id="1">
					<dim>16</dim>
					<dim>3</dim>
					<dim>300</dim>
					<dim>300</dim>
				</port>
			</input>
			<output>
				<port id="2">
					<dim>1</dim>
					<dim>2</dim>
					<dim>16</dim>
				</port>
			</output>
		</layer>
		<layer id="455" name="conv9_2_mbox_loc" precision="FP32" type="Convolution">
			<data dilation-x="1" dilation-y="1" group="1" kernel-x="3" kernel-y="3" output="16" pad-x="1" pad-y="1" stride="1,1,1,1" stride-x="1" stride-y="1"/>
			<input>
				<port id="0">
					<dim>16</dim>
					<dim>256</dim>
					<dim>1</dim>
					<dim>1</dim>
				</port>
			</input>
			<output>
				<port id="3">
					<dim>16</dim>
					<dim>16</dim>
					<dim>1</dim>
					<dim>1</dim>
				</port>
			</output>
			<blobs>
				<weights offset="12894648" size="147456"/>
				<biases offset="25439016" size="64"/>
			</blobs>
		</layer>
		<layer id="392" name="conv9_2_mbox_loc_perm" precision="FP32" type="Permute">
			<data order="0,2,3,1"/>
			<input>
				<port id="0">
					<dim>16</dim>
					<dim>16</dim>
					<dim>1</dim>
					<dim>1</dim>
				</port>
			</input>
			<output>
				<port id="1">
					<dim>16</dim>
					<dim>1</dim>
					<dim>1</dim>
					<dim>16</dim>
				</port>
			</output>
		</layer>
		<layer id="113" name="conv9_2_mbox_loc_flat" precision="FP32" type="Flatten">
			<data axis="1"/>
			<input>
				<port id="0">
					<dim>16</dim>
					<dim>1</dim>
					<dim>1</dim>
					<dim>16</dim>
				</port>
			</input>
			<output>
				<port id="1">
					<dim>16</dim>
					<dim>16</dim>
				</port>
			</output>
		</layer>
		<layer id="303" name="conv8_2_mbox_priorbox" precision="FP32" type="PriorBox">
			<data aspect_ratio="2.0" clip="0" flip="1" max_size="264.0" min_size="213.0" offset="0.5" step="100.0" variance="0.10000000149011612,0.10000000149011612,0.20000000298023224,0.20000000298023224"/>
			<input>
				<port id="0">
					<dim>16</dim>
					<dim>256</dim>
					<dim>3</dim>
					<dim>3</dim>
				</port>
				<port id="1">
					<dim>16</dim>
					<dim>3</dim>
					<dim>300</dim>
					<dim>300</dim>
				</port>
			</input>
			<output>
				<port id="2">
					<dim>1</dim>
					<dim>2</dim>
					<dim>144</dim>
				</port>
			</output>
		</layer>
		<layer id="327" name="conv7_2_mbox_conf" precision="FP32" type="Convolution">
			<data dilation-x="1" dilation-y="1" group="1" kernel-x="3" kernel-y="3" output="126" pad-x="1" pad-y="1" stride="1,1,1,1" stride-x="1" stride-y="1"/>
			<input>
				<port id="0">
					<dim>16</dim>
					<dim>256</dim>
					<dim>5</dim>
					<dim>5</dim>
				</port>
			</input>
			<output>
				<port id="3">
					<dim>16</dim>
					<dim>126</dim>
					<dim>5</dim>
					<dim>5</dim>
				</port>
			</output>
			<blobs>
				<weights offset="1161216" size="1161216"/>
				<biases offset="25662184" size="504"/>
			</blobs>
		</layer>
		<layer id="349" name="conv7_2_mbox_conf_perm" precision="FP32" type="Permute">
			<data order="0,2,3,1"/>
			<input>
				<port id="0">
					<dim>16</dim>
					<dim>126</dim>
					<dim>5</dim>
					<dim>5</dim>
				</port>
			</input>
			<output>
				<port id="1">
					<dim>16</dim>
					<dim>5</dim>
					<dim>5</dim>
					<dim>126</dim>
				</port>
			</output>
		</layer>
		<layer id="122" name="conv7_2_mbox_conf_flat" precision="FP32" type="Flatten">
			<data axis="1"/>
			<input>
				<port id="0">
					<dim>16</dim>
					<dim>5</dim>
					<dim>5</dim>
					<dim>126</dim>
				</port>
			</input>
			<output>
				<port id="1">
					<dim>16</dim>
					<dim>3150</dim>
				</port>
			</output>
		</layer>
		<layer id="76" name="conv7_2_mbox_loc" precision="FP32" type="Convolution">
			<data dilation-x="1" dilation-y="1" group="1" kernel-x="3" kernel-y="3" output="24" pad-x="1" pad-y="1" stride="1,1,1,1" stride-x="1" stride-y="1"/>
			<input>
				<port id="0">
					<dim>16</dim>
					<dim>256</dim>
					<dim>5</dim>
					<dim>5</dim>
				</port>
			</input>
			<output>
				<port id="3">
					<dim>16</dim>
					<dim>24</dim>
					<dim>5</dim>
					<dim>5</dim>
				</port>
			</output>
			<blobs>
				<weights offset="21831272" size="221184"/>
				<biases offset="5781216" size="96"/>
			</blobs>
		</layer>
		<layer id="381" name="conv7_2_mbox_loc_perm" precision="FP32" type="Permute">
			<data order="0,2,3,1"/>
			<input>
				<port id="0">
					<dim>16</dim>
					<dim>24</dim>
					<dim>5</dim>
					<dim>5</dim>
				</port>
			</input>
			<output>
				<port id="1">
					<dim>16</dim>
					<dim>5</dim>
					<dim>5</dim>
					<dim>24</dim>
				</port>
			</output>
		</layer>
		<layer id="357" name="conv7_2_mbox_loc_flat" precision="FP32" type="Flatten">
			<data axis="1"/>
			<input>
				<port id="0">
					<dim>16</dim>
					<dim>5</dim>
					<dim>5</dim>
					<dim>24</dim>
				</port>
			</input>
			<output>
				<port id="1">
					<dim>16</dim>
					<dim>600</dim>
				</port>
			</output>
		</layer>
		<layer id="511" name="conv7_2_mbox_priorbox" precision="FP32" type="PriorBox">
			<data aspect_ratio="2.0,3.0" clip="0" flip="1" max_size="213.0" min_size="162.0" offset="0.5" step="64.0" variance="0.10000000149011612,0.10000000149011612,0.20000000298023224,0.20000000298023224"/>
			<input>
				<port id="0">
					<dim>16</dim>
					<dim>256</dim>
					<dim>5</dim>
					<dim>5</dim>
				</port>
				<port id="1">
					<dim>16</dim>
					<dim>3</dim>
					<dim>300</dim>
					<dim>300</dim>
				</port>
			</input>
			<output>
				<port id="2">
					<dim>1</dim>
					<dim>2</dim>
					<dim>600</dim>
				</port>
			</output>
		</layer>
		<layer id="365" name="conv6_2_mbox_loc" precision="FP32" type="Convolution">
			<data dilation-x="1" dilation-y="1" group="1" kernel-x="3" kernel-y="3" output="24" pad-x="1" pad-y="1" stride="1,1,1,1" stride-x="1" stride-y="1"/>
			<input>
				<port id="0">
					<dim>16</dim>
					<dim>512</dim>
					<dim>9</dim>
					<dim>9</dim>
				</port>
			</input>
			<output>
				<port id="3">
					<dim>16</dim>
					<dim>24</dim>
					<dim>9</dim>
					<dim>9</dim>
				</port>
			</output>
			<blobs>
				<weights offset="14290056" size="442368"/>
				<biases offset="5780352" size="96"/>
			</blobs>
		</layer>
		<layer id="441" name="conv6_2_mbox_loc_perm" precision="FP32" type="Permute">
			<data order="0,2,3,1"/>
			<input>
				<port id="0">
					<dim>16</dim>
					<dim>24</dim>
					<dim>9</dim>
					<dim>9</dim>
				</port>
			</input>
			<output>
				<port id="1">
					<dim>16</dim>
					<dim>9</dim>
					<dim>9</dim>
					<dim>24</dim>
				</port>
			</output>
		</layer>
		<layer id="474" name="conv6_2_mbox_loc_flat" precision="FP32" type="Flatten">
			<data axis="1"/>
			<input>
				<port id="0">
					<dim>16</dim>
					<dim>9</dim>
					<dim>9</dim>
					<dim>24</dim>
				</port>
			</input>
			<output>
				<port id="1">
					<dim>16</dim>
					<dim>1944</dim>
				</port>
			</output>
		</layer>
		<layer id="295" name="conv6_2_mbox_conf" precision="FP32" type="Convolution">
			<data dilation-x="1" dilation-y="1" group="1" kernel-x="3" kernel-y="3" output="126" pad-x="1" pad-y="1" stride="1,1,1,1" stride-x="1" stride-y="1"/>
			<input>
				<port id="0">
					<dim>16</dim>
					<dim>512</dim>
					<dim>9</dim>
					<dim>9</dim>
				</port>
			</input>
			<output>
				<port id="3">
					<dim>16</dim>
					<dim>126</dim>
					<dim>9</dim>
					<dim>9</dim>
				</port>
			</output>
			<blobs>
				<weights offset="22274152" size="2322432"/>
				<biases offset="9655872" size="504"/>
			</blobs>
		</layer>
		<layer id="117" name="conv6_2_mbox_conf_perm" precision="FP32" type="Permute">
			<data order="0,2,3,1"/>
			<input>
				<port id="0">
					<dim>16</dim>
					<dim>126</dim>
					<dim>9</dim>
					<dim>9</dim>
				</port>
			</input>
			<output>
				<port id="1">
					<dim>16</dim>
					<dim>9</dim>
					<dim>9</dim>
					<dim>126</dim>
				</port>
			</output>
		</layer>
		<layer id="91" name="conv6_2_mbox_conf_flat" precision="FP32" type="Flatten">
			<data axis="1"/>
			<input>
				<port id="0">
					<dim>16</dim>
					<dim>9</dim>
					<dim>9</dim>
					<dim>126</dim>
				</port>
			</input>
			<output>
				<port id="1">
					<dim>16</dim>
					<dim>10206</dim>
				</port>
			</output>
		</layer>
		<layer id="207" name="inception_4e/3x3_reduce" precision="FP32" type="Convolution">
			<data dilation-x="1" dilation-y="1" group="1" kernel-x="1" kernel-y="1" output="128" pad-x="0" pad-y="0" stride="1,1,1,1" stride-x="1" stride-y="1"/>
			<input>
				<port id="0">
					<dim>16</dim>
					<dim>576</dim>
					<dim>18</dim>
					<dim>18</dim>
				</port>
			</input>
			<output>
				<port id="3">
					<dim>16</dim>
					<dim>128</dim>
					<dim>18</dim>
					<dim>18</dim>
				</port>
			</output>
			<blobs>
				<weights offset="20870536" size="294912"/>
				<biases offset="39476408" size="512"/>
			</blobs>
		</layer>
		<layer id="507" name="inception_4e/3x3_reduce/bn/sc/relu" precision="FP32" type="ReLU">
			<data engine="caffe.ReLUParameter.DEFAULT" negative_slope="0.0"/>
			<input>
				<port id="0">
					<dim>16</dim>
					<dim>128</dim>
					<dim>18</dim>
					<dim>18</dim>
				</port>
			</input>
			<output>
				<port id="1">
					<dim>16</dim>
					<dim>128</dim>
					<dim>18</dim>
					<dim>18</dim>
				</port>
			</output>
		</layer>
		<layer id="336" name="inception_4e/3x3" precision="FP32" type="Convolution">
			<data dilation-x="1" dilation-y="1" group="1" kernel-x="3" kernel-y="3" output="192" pad-x="1" pad-y="1" stride="1,1,2,2" stride-x="2" stride-y="2"/>
			<input>
				<port id="0">
					<dim>16</dim>
					<dim>128</dim>
					<dim>18</dim>
					<dim>18</dim>
				</port>
			</input>
			<output>
				<port id="3">
					<dim>16</dim>
					<dim>192</dim>
					<dim>9</dim>
					<dim>9</dim>
				</port>
			</output>
			<blobs>
				<weights offset="3502080" size="884736"/>
				<biases offset="38419256" size="768"/>
			</blobs>
		</layer>
		<layer id="526" name="inception_4e/3x3/bn/sc/relu" precision="FP32" type="ReLU">
			<data engine="caffe.ReLUParameter.DEFAULT" negative_slope="0.0"/>
			<input>
				<port id="0">
					<dim>16</dim>
					<dim>192</dim>
					<dim>9</dim>
					<dim>9</dim>
				</port>
			</input>
			<output>
				<port id="1">
					<dim>16</dim>
					<dim>192</dim>
					<dim>9</dim>
					<dim>9</dim>
				</port>
			</output>
		</layer>
		<layer id="223" name="inception_4e/output" precision="FP32" type="Concat">
			<data axis="1"/>
			<input>
				<port id="0">
					<dim>16</dim>
					<dim>192</dim>
					<dim>9</dim>
					<dim>9</dim>
				</port>
				<port id="1">
					<dim>16</dim>
					<dim>256</dim>
					<dim>9</dim>
					<dim>9</dim>
				</port>
				<port id="2">
					<dim>16</dim>
					<dim>576</dim>
					<dim>9</dim>
					<dim>9</dim>
				</port>
			</input>
			<output>
				<port id="3">
					<dim>16</dim>
					<dim>1024</dim>
					<dim>9</dim>
					<dim>9</dim>
				</port>
			</output>
		</layer>
		<layer id="31" name="fc7_mbox_conf" precision="FP32" type="Convolution">
			<data dilation-x="1" dilation-y="1" group="1" kernel-x="3" kernel-y="3" output="126" pad-x="1" pad-y="1" stride="1,1,1,1" stride-x="1" stride-y="1"/>
			<input>
				<port id="0">
					<dim>16</dim>
					<dim>1024</dim>
					<dim>9</dim>
					<dim>9</dim>
				</port>
			</input>
			<output>
				<port id="3">
					<dim>16</dim>
					<dim>126</dim>
					<dim>9</dim>
					<dim>9</dim>
				</port>
			</output>
			<blobs>
				<weights offset="32077752" size="4644864"/>
				<biases offset="25663024" size="504"/>
			</blobs>
		</layer>
		<layer id="450" name="fc7_mbox_conf_perm" precision="FP32" type="Permute">
			<data order="0,2,3,1"/>
			<input>
				<port id="0">
					<dim>16</dim>
					<dim>126</dim>
					<dim>9</dim>
					<dim>9</dim>
				</port>
			</input>
			<output>
				<port id="1">
					<dim>16</dim>
					<dim>9</dim>
					<dim>9</dim>
					<dim>126</dim>
				</port>
			</output>
		</layer>
		<layer id="174" name="fc7_mbox_conf_flat" precision="FP32" type="Flatten">
			<data axis="1"/>
			<input>
				<port id="0">
					<dim>16</dim>
					<dim>9</dim>
					<dim>9</dim>
					<dim>126</dim>
				</port>
			</input>
			<output>
				<port id="1">
					<dim>16</dim>
					<dim>10206</dim>
				</port>
			</output>
		</layer>
		<layer id="107" name="mbox_conf" precision="FP32" type="Concat">
			<data axis="1"/>
			<input>
				<port id="0">
					<dim>16</dim>
					<dim>114996</dim>
				</port>
				<port id="1">
					<dim>16</dim>
					<dim>10206</dim>
				</port>
				<port id="2">
					<dim>16</dim>
					<dim>10206</dim>
				</port>
				<port id="3">
					<dim>16</dim>
					<dim>3150</dim>
				</port>
				<port id="4">
					<dim>16</dim>
					<dim>756</dim>
				</port>
				<port id="5">
					<dim>16</dim>
					<dim>84</dim>
				</port>
			</input>
			<output>
				<port id="6">
					<dim>16</dim>
					<dim>139398</dim>
				</port>
			</output>
		</layer>
		<layer id="143" name="mbox_conf_reshape" precision="FP32" type="Reshape">
			<data axis="0" dim="0,-1,21" num_axes="-1"/>
			<input>
				<port id="0">
					<dim>16</dim>
					<dim>139398</dim>
				</port>
			</input>
			<output>
				<port id="1">
					<dim>16</dim>
					<dim>6638</dim>
					<dim>21</dim>
				</port>
			</output>
		</layer>
		<layer id="126" name="mbox_conf_softmax" precision="FP32" type="SoftMax">
			<data axis="2"/>
			<input>
				<port id="0">
					<dim>16</dim>
					<dim>6638</dim>
					<dim>21</dim>
				</port>
			</input>
			<output>
				<port id="1">
					<dim>16</dim>
					<dim>6638</dim>
					<dim>21</dim>
				</port>
			</output>
		</layer>
		<layer id="95" name="mbox_conf_flatten" precision="FP32" type="Flatten">
			<data axis="1"/>
			<input>
				<port id="0">
					<dim>16</dim>
					<dim>6638</dim>
					<dim>21</dim>
				</port>
			</input>
			<output>
				<port id="1">
					<dim>16</dim>
					<dim>139398</dim>
				</port>
			</output>
		</layer>
		<layer id="187" name="fc7_mbox_loc" precision="FP32" type="Convolution">
			<data dilation-x="1" dilation-y="1" group="1" kernel-x="3" kernel-y="3" output="24" pad-x="1" pad-y="1" stride="1,1,1,1" stride-x="1" stride-y="1"/>
			<input>
				<port id="0">
					<dim>16</dim>
					<dim>1024</dim>
					<dim>9</dim>
					<dim>9</dim>
				</port>
			</input>
			<output>
				<port id="3">
					<dim>16</dim>
					<dim>24</dim>
					<dim>9</dim>
					<dim>9</dim>
				</port>
			</output>
			<blobs>
				<weights offset="11788728" size="884736"/>
				<biases offset="21683720" size="96"/>
			</blobs>
		</layer>
		<layer id="10" name="fc7_mbox_loc_perm" precision="FP32" type="Permute">
			<data order="0,2,3,1"/>
			<input>
				<port id="0">
					<dim>16</dim>
					<dim>24</dim>
					<dim>9</dim>
					<dim>9</dim>
				</port>
			</input>
			<output>
				<port id="1">
					<dim>16</dim>
					<dim>9</dim>
					<dim>9</dim>
					<dim>24</dim>
				</port>
			</output>
		</layer>
		<layer id="397" name="fc7_mbox_loc_flat" precision="FP32" type="Flatten">
			<data axis="1"/>
			<input>
				<port id="0">
					<dim>16</dim>
					<dim>9</dim>
					<dim>9</dim>
					<dim>24</dim>
				</port>
			</input>
			<output>
				<port id="1">
					<dim>16</dim>
					<dim>1944</dim>
				</port>
			</output>
		</layer>
		<layer id="47" name="mbox_loc" precision="FP32" type="Concat">
			<data axis="1"/>
			<input>
				<port id="0">
					<dim>16</dim>
					<dim>21904</dim>
				</port>
				<port id="1">
					<dim>16</dim>
					<dim>1944</dim>
				</port>
				<port id="2">
					<dim>16</dim>
					<dim>1944</dim>
				</port>
				<port id="3">
					<dim>16</dim>
					<dim>600</dim>
				</port>
				<port id="4">
					<dim>16</dim>
					<dim>144</dim>
				</port>
				<port id="5">
					<dim>16</dim>
					<dim>16</dim>
				</port>
			</input>
			<output>
				<port id="6">
					<dim>16</dim>
					<dim>26552</dim>
				</port>
			</output>
		</layer>
		<layer id="79" name="fc7_mbox_priorbox" precision="FP32" type="PriorBox">
			<data aspect_ratio="2.0,3.0" clip="0" flip="1" max_size="111.0" min_size="60.0" offset="0.5" step="16.0" variance="0.10000000149011612,0.10000000149011612,0.20000000298023224,0.20000000298023224"/>
			<input>
				<port id="0">
					<dim>16</dim>
					<dim>1024</dim>
					<dim>9</dim>
					<dim>9</dim>
				</port>
				<port id="1">
					<dim>16</dim>
					<dim>3</dim>
					<dim>300</dim>
					<dim>300</dim>
				</port>
			</input>
			<output>
				<port id="2">
					<dim>1</dim>
					<dim>2</dim>
					<dim>1944</dim>
				</port>
			</output>
		</layer>
		<layer id="244" name="mbox_priorbox" precision="FP32" type="Concat">
			<data axis="2"/>
			<input>
				<port id="0">
					<dim>1</dim>
					<dim>2</dim>
					<dim>21904</dim>
				</port>
				<port id="1">
					<dim>1</dim>
					<dim>2</dim>
					<dim>1944</dim>
				</port>
				<port id="2">
					<dim>1</dim>
					<dim>2</dim>
					<dim>1944</dim>
				</port>
				<port id="3">
					<dim>1</dim>
					<dim>2</dim>
					<dim>600</dim>
				</port>
				<port id="4">
					<dim>1</dim>
					<dim>2</dim>
					<dim>144</dim>
				</port>
				<port id="5">
					<dim>1</dim>
					<dim>2</dim>
					<dim>16</dim>
				</port>
			</input>
			<output>
				<port id="6">
					<dim>1</dim>
					<dim>2</dim>
					<dim>26552</dim>
				</port>
			</output>
		</layer>
		<layer id="517" name="detection_out" precision="FP32" type="DetectionOutput">
			<data background_label_id="0" code_type="caffe.PriorBoxParameter.CENTER_SIZE" confidence_threshold="0.009999999776482582" eta="1.0" input_height="-1" input_width="-1" keep_top_k="200" nms_threshold="0.44999998807907104" normalized="1" num_classes="21" share_location="1" top_k="400" variance_encoded_in_target="0" visualize="False"/>
			<input>
				<port id="0">
					<dim>16</dim>
					<dim>26552</dim>
				</port>
				<port id="1">
					<dim>16</dim>
					<dim>139398</dim>
				</port>
				<port id="2">
					<dim>1</dim>
					<dim>2</dim>
					<dim>26552</dim>
				</port>
			</input>
			<output>
				<port id="3">
					<dim>1</dim>
					<dim>1</dim>
					<dim>3200</dim>
					<dim>7</dim>
				</port>
			</output>
		</layer>
	</layers>
	<edges>
		<edge from-layer="302" from-port="0" to-layer="189" to-port="0"/>
		<edge from-layer="189" from-port="3" to-layer="224" to-port="0"/>
		<edge from-layer="224" from-port="1" to-layer="151" to-port="0"/>
		<edge from-layer="151" from-port="1" to-layer="211" to-port="0"/>
		<edge from-layer="211" from-port="3" to-layer="488" to-port="0"/>
		<edge from-layer="488" from-port="1" to-layer="475" to-port="0"/>
		<edge from-layer="475" from-port="3" to-layer="250" to-port="0"/>
		<edge from-layer="250" from-port="1" to-layer="389" to-port="0"/>
		<edge from-layer="389" from-port="1" to-layer="186" to-port="0"/>
		<edge from-layer="186" from-port="1" to-layer="286" to-port="0"/>
		<edge from-layer="286" from-port="3" to-layer="316" to-port="0"/>
		<edge from-layer="389" from-port="1" to-layer="453" to-port="0"/>
		<edge from-layer="453" from-port="3" to-layer="155" to-port="0"/>
		<edge from-layer="389" from-port="1" to-layer="108" to-port="0"/>
		<edge from-layer="108" from-port="3" to-layer="354" to-port="0"/>
		<edge from-layer="389" from-port="1" to-layer="307" to-port="0"/>
		<edge from-layer="307" from-port="3" to-layer="503" to-port="0"/>
		<edge from-layer="503" from-port="1" to-layer="504" to-port="0"/>
		<edge from-layer="504" from-port="3" to-layer="99" to-port="0"/>
		<edge from-layer="155" from-port="1" to-layer="270" to-port="0"/>
		<edge from-layer="270" from-port="3" to-layer="435" to-port="0"/>
		<edge from-layer="435" from-port="1" to-layer="185" to-port="0"/>
		<edge from-layer="185" from-port="3" to-layer="462" to-port="0"/>
		<edge from-layer="354" from-port="1" to-layer="217" to-port="0"/>
		<edge from-layer="99" from-port="1" to-layer="217" to-port="1"/>
		<edge from-layer="462" from-port="1" to-layer="217" to-port="2"/>
		<edge from-layer="316" from-port="1" to-layer="217" to-port="3"/>
		<edge from-layer="217" from-port="4" to-layer="43" to-port="0"/>
		<edge from-layer="43" from-port="1" to-layer="352" to-port="0"/>
		<edge from-layer="352" from-port="3" to-layer="297" to-port="0"/>
		<edge from-layer="217" from-port="4" to-layer="203" to-port="0"/>
		<edge from-layer="203" from-port="3" to-layer="210" to-port="0"/>
		<edge from-layer="217" from-port="4" to-layer="60" to-port="0"/>
		<edge from-layer="60" from-port="3" to-layer="45" to-port="0"/>
		<edge from-layer="45" from-port="1" to-layer="419" to-port="0"/>
		<edge from-layer="419" from-port="3" to-layer="114" to-port="0"/>
		<edge from-layer="217" from-port="4" to-layer="149" to-port="0"/>
		<edge from-layer="149" from-port="3" to-layer="329" to-port="0"/>
		<edge from-layer="329" from-port="1" to-layer="68" to-port="0"/>
		<edge from-layer="68" from-port="3" to-layer="74" to-port="0"/>
		<edge from-layer="74" from-port="1" to-layer="495" to-port="0"/>
		<edge from-layer="495" from-port="3" to-layer="482" to-port="0"/>
		<edge from-layer="210" from-port="1" to-layer="411" to-port="0"/>
		<edge from-layer="114" from-port="1" to-layer="411" to-port="1"/>
		<edge from-layer="482" from-port="1" to-layer="411" to-port="2"/>
		<edge from-layer="297" from-port="1" to-layer="411" to-port="3"/>
		<edge from-layer="411" from-port="4" to-layer="288" to-port="0"/>
		<edge from-layer="288" from-port="3" to-layer="317" to-port="0"/>
		<edge from-layer="317" from-port="1" to-layer="440" to-port="0"/>
		<edge from-layer="411" from-port="4" to-layer="296" to-port="0"/>
		<edge from-layer="411" from-port="4" to-layer="298" to-port="0"/>
		<edge from-layer="298" from-port="3" to-layer="84" to-port="0"/>
		<edge from-layer="84" from-port="1" to-layer="163" to-port="0"/>
		<edge from-layer="163" from-port="3" to-layer="486" to-port="0"/>
		<edge from-layer="486" from-port="1" to-layer="201" to-port="0"/>
		<edge from-layer="201" from-port="3" to-layer="89" to-port="0"/>
		<edge from-layer="411" from-port="4" to-layer="251" to-port="0"/>
		<edge from-layer="302" from-port="0" to-layer="251" to-port="1"/>
		<edge from-layer="411" from-port="4" to-layer="508" to-port="0"/>
		<edge from-layer="508" from-port="3" to-layer="208" to-port="0"/>
		<edge from-layer="208" from-port="1" to-layer="277" to-port="0"/>
		<edge from-layer="411" from-port="4" to-layer="269" to-port="0"/>
		<edge from-layer="269" from-port="3" to-layer="160" to-port="0"/>
		<edge from-layer="160" from-port="1" to-layer="253" to-port="0"/>
		<edge from-layer="253" from-port="3" to-layer="513" to-port="0"/>
		<edge from-layer="513" from-port="1" to-layer="535" to-port="0"/>
		<edge from-layer="89" from-port="1" to-layer="535" to-port="1"/>
		<edge from-layer="296" from-port="1" to-layer="535" to-port="2"/>
		<edge from-layer="535" from-port="3" to-layer="248" to-port="0"/>
		<edge from-layer="535" from-port="3" to-layer="500" to-port="0"/>
		<edge from-layer="500" from-port="3" to-layer="487" to-port="0"/>
		<edge from-layer="487" from-port="1" to-layer="3" to-port="0"/>
		<edge from-layer="3" from-port="3" to-layer="112" to-port="0"/>
		<edge from-layer="112" from-port="1" to-layer="283" to-port="0"/>
		<edge from-layer="283" from-port="3" to-layer="46" to-port="0"/>
		<edge from-layer="535" from-port="3" to-layer="165" to-port="0"/>
		<edge from-layer="165" from-port="3" to-layer="40" to-port="0"/>
		<edge from-layer="535" from-port="3" to-layer="62" to-port="0"/>
		<edge from-layer="62" from-port="1" to-layer="199" to-port="0"/>
		<edge from-layer="199" from-port="3" to-layer="219" to-port="0"/>
		<edge from-layer="248" from-port="3" to-layer="0" to-port="0"/>
		<edge from-layer="0" from-port="1" to-layer="157" to-port="0"/>
		<edge from-layer="157" from-port="3" to-layer="485" to-port="0"/>
		<edge from-layer="40" from-port="1" to-layer="37" to-port="0"/>
		<edge from-layer="485" from-port="1" to-layer="37" to-port="1"/>
		<edge from-layer="46" from-port="1" to-layer="37" to-port="2"/>
		<edge from-layer="219" from-port="1" to-layer="37" to-port="3"/>
		<edge from-layer="37" from-port="4" to-layer="514" to-port="0"/>
		<edge from-layer="514" from-port="3" to-layer="439" to-port="0"/>
		<edge from-layer="37" from-port="4" to-layer="530" to-port="0"/>
		<edge from-layer="530" from-port="3" to-layer="373" to-port="0"/>
		<edge from-layer="373" from-port="1" to-layer="24" to-port="0"/>
		<edge from-layer="24" from-port="3" to-layer="314" to-port="0"/>
		<edge from-layer="37" from-port="4" to-layer="14" to-port="0"/>
		<edge from-layer="14" from-port="1" to-layer="342" to-port="0"/>
		<edge from-layer="342" from-port="3" to-layer="237" to-port="0"/>
		<edge from-layer="37" from-port="4" to-layer="477" to-port="0"/>
		<edge from-layer="477" from-port="3" to-layer="94" to-port="0"/>
		<edge from-layer="94" from-port="1" to-layer="414" to-port="0"/>
		<edge from-layer="414" from-port="3" to-layer="58" to-port="0"/>
		<edge from-layer="58" from-port="1" to-layer="73" to-port="0"/>
		<edge from-layer="73" from-port="3" to-layer="321" to-port="0"/>
		<edge from-layer="439" from-port="1" to-layer="121" to-port="0"/>
		<edge from-layer="314" from-port="1" to-layer="121" to-port="1"/>
		<edge from-layer="321" from-port="1" to-layer="121" to-port="2"/>
		<edge from-layer="237" from-port="1" to-layer="121" to-port="3"/>
		<edge from-layer="121" from-port="4" to-layer="96" to-port="0"/>
		<edge from-layer="96" from-port="3" to-layer="16" to-port="0"/>
		<edge from-layer="16" from-port="1" to-layer="249" to-port="0"/>
		<edge from-layer="249" from-port="3" to-layer="176" to-port="0"/>
		<edge from-layer="121" from-port="4" to-layer="65" to-port="0"/>
		<edge from-layer="65" from-port="3" to-layer="273" to-port="0"/>
		<edge from-layer="121" from-port="4" to-layer="524" to-port="0"/>
		<edge from-layer="524" from-port="1" to-layer="236" to-port="0"/>
		<edge from-layer="236" from-port="3" to-layer="102" to-port="0"/>
		<edge from-layer="121" from-port="4" to-layer="383" to-port="0"/>
		<edge from-layer="383" from-port="3" to-layer="39" to-port="0"/>
		<edge from-layer="39" from-port="1" to-layer="206" to-port="0"/>
		<edge from-layer="206" from-port="3" to-layer="178" to-port="0"/>
		<edge from-layer="178" from-port="1" to-layer="471" to-port="0"/>
		<edge from-layer="471" from-port="3" to-layer="481" to-port="0"/>
		<edge from-layer="273" from-port="1" to-layer="429" to-port="0"/>
		<edge from-layer="176" from-port="1" to-layer="429" to-port="1"/>
		<edge from-layer="481" from-port="1" to-layer="429" to-port="2"/>
		<edge from-layer="102" from-port="1" to-layer="429" to-port="3"/>
		<edge from-layer="429" from-port="4" to-layer="448" to-port="0"/>
		<edge from-layer="448" from-port="3" to-layer="144" to-port="0"/>
		<edge from-layer="144" from-port="1" to-layer="332" to-port="0"/>
		<edge from-layer="332" from-port="3" to-layer="146" to-port="0"/>
		<edge from-layer="146" from-port="1" to-layer="437" to-port="0"/>
		<edge from-layer="437" from-port="3" to-layer="408" to-port="0"/>
		<edge from-layer="429" from-port="4" to-layer="434" to-port="0"/>
		<edge from-layer="434" from-port="3" to-layer="310" to-port="0"/>
		<edge from-layer="429" from-port="4" to-layer="324" to-port="0"/>
		<edge from-layer="324" from-port="1" to-layer="124" to-port="0"/>
		<edge from-layer="124" from-port="3" to-layer="164" to-port="0"/>
		<edge from-layer="429" from-port="4" to-layer="77" to-port="0"/>
		<edge from-layer="77" from-port="3" to-layer="532" to-port="0"/>
		<edge from-layer="532" from-port="1" to-layer="9" to-port="0"/>
		<edge from-layer="9" from-port="3" to-layer="516" to-port="0"/>
		<edge from-layer="310" from-port="1" to-layer="271" to-port="0"/>
		<edge from-layer="516" from-port="1" to-layer="271" to-port="1"/>
		<edge from-layer="408" from-port="1" to-layer="271" to-port="2"/>
		<edge from-layer="164" from-port="1" to-layer="271" to-port="3"/>
		<edge from-layer="271" from-port="4" to-layer="315" to-port="0"/>
		<edge from-layer="315" from-port="3" to-layer="385" to-port="0"/>
		<edge from-layer="385" from-port="1" to-layer="170" to-port="0"/>
		<edge from-layer="170" from-port="3" to-layer="300" to-port="0"/>
		<edge from-layer="300" from-port="1" to-layer="20" to-port="0"/>
		<edge from-layer="20" from-port="3" to-layer="265" to-port="0"/>
		<edge from-layer="271" from-port="4" to-layer="13" to-port="0"/>
		<edge from-layer="271" from-port="4" to-layer="493" to-port="0"/>
		<edge from-layer="493" from-port="3" to-layer="119" to-port="0"/>
		<edge from-layer="119" from-port="1" to-layer="258" to-port="0"/>
		<edge from-layer="258" from-port="3" to-layer="97" to-port="0"/>
		<edge from-layer="97" from-port="1" to-layer="472" to-port="0"/>
		<edge from-layer="302" from-port="0" to-layer="472" to-port="1"/>
		<edge from-layer="97" from-port="1" to-layer="388" to-port="0"/>
		<edge from-layer="388" from-port="3" to-layer="218" to-port="0"/>
		<edge from-layer="218" from-port="1" to-layer="23" to-port="0"/>
		<edge from-layer="23" from-port="3" to-layer="494" to-port="0"/>
		<edge from-layer="494" from-port="1" to-layer="104" to-port="0"/>
		<edge from-layer="104" from-port="3" to-layer="231" to-port="0"/>
		<edge from-layer="231" from-port="1" to-layer="148" to-port="0"/>
		<edge from-layer="148" from-port="3" to-layer="293" to-port="0"/>
		<edge from-layer="293" from-port="1" to-layer="480" to-port="0"/>
		<edge from-layer="480" from-port="3" to-layer="264" to-port="0"/>
		<edge from-layer="264" from-port="1" to-layer="339" to-port="0"/>
		<edge from-layer="293" from-port="1" to-layer="505" to-port="0"/>
		<edge from-layer="505" from-port="3" to-layer="451" to-port="0"/>
		<edge from-layer="451" from-port="1" to-layer="118" to-port="0"/>
		<edge from-layer="293" from-port="1" to-layer="445" to-port="0"/>
		<edge from-layer="445" from-port="3" to-layer="204" to-port="0"/>
		<edge from-layer="204" from-port="1" to-layer="221" to-port="0"/>
		<edge from-layer="221" from-port="3" to-layer="312" to-port="0"/>
		<edge from-layer="312" from-port="1" to-layer="128" to-port="0"/>
		<edge from-layer="128" from-port="3" to-layer="6" to-port="0"/>
		<edge from-layer="6" from-port="1" to-layer="85" to-port="0"/>
		<edge from-layer="312" from-port="1" to-layer="275" to-port="0"/>
		<edge from-layer="302" from-port="0" to-layer="275" to-port="1"/>
		<edge from-layer="312" from-port="1" to-layer="455" to-port="0"/>
		<edge from-layer="455" from-port="3" to-layer="392" to-port="0"/>
		<edge from-layer="392" from-port="1" to-layer="113" to-port="0"/>
		<edge from-layer="293" from-port="1" to-layer="303" to-port="0"/>
		<edge from-layer="302" from-port="0" to-layer="303" to-port="1"/>
		<edge from-layer="494" from-port="1" to-layer="327" to-port="0"/>
		<edge from-layer="327" from-port="3" to-layer="349" to-port="0"/>
		<edge from-layer="349" from-port="1" to-layer="122" to-port="0"/>
		<edge from-layer="494" from-port="1" to-layer="76" to-port="0"/>
		<edge from-layer="76" from-port="3" to-layer="381" to-port="0"/>
		<edge from-layer="381" from-port="1" to-layer="357" to-port="0"/>
		<edge from-layer="494" from-port="1" to-layer="511" to-port="0"/>
		<edge from-layer="302" from-port="0" to-layer="511" to-port="1"/>
		<edge from-layer="97" from-port="1" to-layer="365" to-port="0"/>
		<edge from-layer="365" from-port="3" to-layer="441" to-port="0"/>
		<edge from-layer="441" from-port="1" to-layer="474" to-port="0"/>
		<edge from-layer="97" from-port="1" to-layer="295" to-port="0"/>
		<edge from-layer="295" from-port="3" to-layer="117" to-port="0"/>
		<edge from-layer="117" from-port="1" to-layer="91" to-port="0"/>
		<edge from-layer="271" from-port="4" to-layer="207" to-port="0"/>
		<edge from-layer="207" from-port="3" to-layer="507" to-port="0"/>
		<edge from-layer="507" from-port="1" to-layer="336" to-port="0"/>
		<edge from-layer="336" from-port="3" to-layer="526" to-port="0"/>
		<edge from-layer="526" from-port="1" to-layer="223" to-port="0"/>
		<edge from-layer="265" from-port="1" to-layer="223" to-port="1"/>
		<edge from-layer="13" from-port="1" to-layer="223" to-port="2"/>
		<edge from-layer="223" from-port="3" to-layer="31" to-port="0"/>
		<edge from-layer="31" from-port="3" to-layer="450" to-port="0"/>
		<edge from-layer="450" from-port="1" to-layer="174" to-port="0"/>
		<edge from-layer="277" from-port="1" to-layer="107" to-port="0"/>
		<edge from-layer="174" from-port="1" to-layer="107" to-port="1"/>
		<edge from-layer="91" from-port="1" to-layer="107" to-port="2"/>
		<edge from-layer="122" from-port="1" to-layer="107" to-port="3"/>
		<edge from-layer="339" from-port="1" to-layer="107" to-port="4"/>
		<edge from-layer="85" from-port="1" to-layer="107" to-port="5"/>
		<edge from-layer="107" from-port="6" to-layer="143" to-port="0"/>
		<edge from-layer="143" from-port="1" to-layer="126" to-port="0"/>
		<edge from-layer="126" from-port="1" to-layer="95" to-port="0"/>
		<edge from-layer="223" from-port="3" to-layer="187" to-port="0"/>
		<edge from-layer="187" from-port="3" to-layer="10" to-port="0"/>
		<edge from-layer="10" from-port="1" to-layer="397" to-port="0"/>
		<edge from-layer="440" from-port="1" to-layer="47" to-port="0"/>
		<edge from-layer="397" from-port="1" to-layer="47" to-port="1"/>
		<edge from-layer="474" from-port="1" to-layer="47" to-port="2"/>
		<edge from-layer="357" from-port="1" to-layer="47" to-port="3"/>
		<edge from-layer="118" from-port="1" to-layer="47" to-port="4"/>
		<edge from-layer="113" from-port="1" to-layer="47" to-port="5"/>
		<edge from-layer="223" from-port="3" to-layer="79" to-port="0"/>
		<edge from-layer="302" from-port="0" to-layer="79" to-port="1"/>
		<edge from-layer="251" from-port="2" to-layer="244" to-port="0"/>
		<edge from-layer="79" from-port="2" to-layer="244" to-port="1"/>
		<edge from-layer="472" from-port="2" to-layer="244" to-port="2"/>
		<edge from-layer="511" from-port="2" to-layer="244" to-port="3"/>
		<edge from-layer="303" from-port="2" to-layer="244" to-port="4"/>
		<edge from-layer="275" from-port="2" to-layer="244" to-port="5"/>
		<edge from-layer="47" from-port="6" to-layer="517" to-port="0"/>
		<edge from-layer="95" from-port="1" to-layer="517" to-port="1"/>
		<edge from-layer="244" from-port="6" to-layer="517" to-port="2"/>
	</edges>
</net>
