<?xml version="1.0" ?>
<net batch="1" name="model" version="2">
	<layers>
		<layer id="350" name="data" precision="FP32" type="Input">
			<output>
				<port id="0">
					<dim>8</dim>
					<dim>3</dim>
					<dim>300</dim>
					<dim>300</dim>
				</port>
			</output>
		</layer>
		<layer id="226" name="conv1/7x7_s2" precision="FP32" type="Convolution">
			<data dilation-x="1" dilation-y="1" group="1" kernel-x="7" kernel-y="7" output="64" pad-x="3" pad-y="3" stride="1,1,2,2" stride-x="2" stride-y="2"/>
			<input>
				<port id="0">
					<dim>8</dim>
					<dim>3</dim>
					<dim>300</dim>
					<dim>300</dim>
				</port>
			</input>
			<output>
				<port id="3">
					<dim>8</dim>
					<dim>64</dim>
					<dim>150</dim>
					<dim>150</dim>
				</port>
			</output>
			<blobs>
				<weights offset="39092944" size="37632"/>
				<biases offset="21114640" size="256"/>
			</blobs>
		</layer>
		<layer id="100" name="conv1/7x7_s2/bn/sc/relu" precision="FP32" type="ReLU">
			<data engine="caffe.ReLUParameter.DEFAULT" negative_slope="0.0"/>
			<input>
				<port id="0">
					<dim>8</dim>
					<dim>64</dim>
					<dim>150</dim>
					<dim>150</dim>
				</port>
			</input>
			<output>
				<port id="1">
					<dim>8</dim>
					<dim>64</dim>
					<dim>150</dim>
					<dim>150</dim>
				</port>
			</output>
		</layer>
		<layer id="262" name="pool1/3x3_s2" precision="FP32" type="Pooling">
			<data exclude-pad="false" kernel-x="3" kernel-y="3" pad-x="0" pad-y="0" pool-method="max" rounding_type="ceil" stride="1,1,2,2" stride-x="2" stride-y="2"/>
			<input>
				<port id="0">
					<dim>8</dim>
					<dim>64</dim>
					<dim>150</dim>
					<dim>150</dim>
				</port>
			</input>
			<output>
				<port id="1">
					<dim>8</dim>
					<dim>64</dim>
					<dim>75</dim>
					<dim>75</dim>
				</port>
			</output>
		</layer>
		<layer id="481" name="conv2/3x3_reduce" precision="FP32" type="Convolution">
			<data dilation-x="1" dilation-y="1" group="1" kernel-x="1" kernel-y="1" output="64" pad-x="0" pad-y="0" stride="1,1,1,1" stride-x="1" stride-y="1"/>
			<input>
				<port id="0">
					<dim>8</dim>
					<dim>64</dim>
					<dim>75</dim>
					<dim>75</dim>
				</port>
			</input>
			<output>
				<port id="3">
					<dim>8</dim>
					<dim>64</dim>
					<dim>75</dim>
					<dim>75</dim>
				</port>
			</output>
			<blobs>
				<weights offset="36345296" size="16384"/>
				<biases offset="5408072" size="256"/>
			</blobs>
		</layer>
		<layer id="119" name="conv2/3x3_reduce/bn/sc/relu" precision="FP32" type="ReLU">
			<data engine="caffe.ReLUParameter.DEFAULT" negative_slope="0.0"/>
			<input>
				<port id="0">
					<dim>8</dim>
					<dim>64</dim>
					<dim>75</dim>
					<dim>75</dim>
				</port>
			</input>
			<output>
				<port id="1">
					<dim>8</dim>
					<dim>64</dim>
					<dim>75</dim>
					<dim>75</dim>
				</port>
			</output>
		</layer>
		<layer id="267" name="conv2/3x3" precision="FP32" type="Convolution">
			<data dilation-x="1" dilation-y="1" group="1" kernel-x="3" kernel-y="3" output="192" pad-x="1" pad-y="1" stride="1,1,1,1" stride-x="1" stride-y="1"/>
			<input>
				<port id="0">
					<dim>8</dim>
					<dim>64</dim>
					<dim>75</dim>
					<dim>75</dim>
				</port>
			</input>
			<output>
				<port id="3">
					<dim>8</dim>
					<dim>192</dim>
					<dim>75</dim>
					<dim>75</dim>
				</port>
			</output>
			<blobs>
				<weights offset="39402600" size="442368"/>
				<biases offset="27819536" size="768"/>
			</blobs>
		</layer>
		<layer id="276" name="conv2/3x3/bn/sc/relu" precision="FP32" type="ReLU">
			<data engine="caffe.ReLUParameter.DEFAULT" negative_slope="0.0"/>
			<input>
				<port id="0">
					<dim>8</dim>
					<dim>192</dim>
					<dim>75</dim>
					<dim>75</dim>
				</port>
			</input>
			<output>
				<port id="1">
					<dim>8</dim>
					<dim>192</dim>
					<dim>75</dim>
					<dim>75</dim>
				</port>
			</output>
		</layer>
		<layer id="268" name="pool2/3x3_s2" precision="FP32" type="Pooling">
			<data exclude-pad="false" kernel-x="3" kernel-y="3" pad-x="0" pad-y="0" pool-method="max" rounding_type="ceil" stride="1,1,2,2" stride-x="2" stride-y="2"/>
			<input>
				<port id="0">
					<dim>8</dim>
					<dim>192</dim>
					<dim>75</dim>
					<dim>75</dim>
				</port>
			</input>
			<output>
				<port id="1">
					<dim>8</dim>
					<dim>192</dim>
					<dim>37</dim>
					<dim>37</dim>
				</port>
			</output>
		</layer>
		<layer id="416" name="inception_3a/pool" precision="FP32" type="Pooling">
			<data exclude-pad="false" kernel-x="3" kernel-y="3" pad-x="1" pad-y="1" pool-method="avg" rounding_type="ceil" stride="1,1,1,1" stride-x="1" stride-y="1"/>
			<input>
				<port id="0">
					<dim>8</dim>
					<dim>192</dim>
					<dim>37</dim>
					<dim>37</dim>
				</port>
			</input>
			<output>
				<port id="1">
					<dim>8</dim>
					<dim>192</dim>
					<dim>37</dim>
					<dim>37</dim>
				</port>
			</output>
		</layer>
		<layer id="257" name="inception_3a/pool_proj" precision="FP32" type="Convolution">
			<data dilation-x="1" dilation-y="1" group="1" kernel-x="1" kernel-y="1" output="32" pad-x="0" pad-y="0" stride="1,1,1,1" stride-x="1" stride-y="1"/>
			<input>
				<port id="0">
					<dim>8</dim>
					<dim>192</dim>
					<dim>37</dim>
					<dim>37</dim>
				</port>
			</input>
			<output>
				<port id="3">
					<dim>8</dim>
					<dim>32</dim>
					<dim>37</dim>
					<dim>37</dim>
				</port>
			</output>
			<blobs>
				<weights offset="26644496" size="24576"/>
				<biases offset="11137312" size="128"/>
			</blobs>
		</layer>
		<layer id="228" name="inception_3a/double3x3_reduce" precision="FP32" type="Convolution">
			<data dilation-x="1" dilation-y="1" group="1" kernel-x="1" kernel-y="1" output="64" pad-x="0" pad-y="0" stride="1,1,1,1" stride-x="1" stride-y="1"/>
			<input>
				<port id="0">
					<dim>8</dim>
					<dim>192</dim>
					<dim>37</dim>
					<dim>37</dim>
				</port>
			</input>
			<output>
				<port id="3">
					<dim>8</dim>
					<dim>64</dim>
					<dim>37</dim>
					<dim>37</dim>
				</port>
			</output>
			<blobs>
				<weights offset="39352872" size="49152"/>
				<biases offset="38871504" size="256"/>
			</blobs>
		</layer>
		<layer id="280" name="inception_3a/double3x3_reduce/bn/sc/relu" precision="FP32" type="ReLU">
			<data engine="caffe.ReLUParameter.DEFAULT" negative_slope="0.0"/>
			<input>
				<port id="0">
					<dim>8</dim>
					<dim>64</dim>
					<dim>37</dim>
					<dim>37</dim>
				</port>
			</input>
			<output>
				<port id="1">
					<dim>8</dim>
					<dim>64</dim>
					<dim>37</dim>
					<dim>37</dim>
				</port>
			</output>
		</layer>
		<layer id="30" name="inception_3a/double3x3a" precision="FP32" type="Convolution">
			<data dilation-x="1" dilation-y="1" group="1" kernel-x="3" kernel-y="3" output="96" pad-x="1" pad-y="1" stride="1,1,1,1" stride-x="1" stride-y="1"/>
			<input>
				<port id="0">
					<dim>8</dim>
					<dim>64</dim>
					<dim>37</dim>
					<dim>37</dim>
				</port>
			</input>
			<output>
				<port id="3">
					<dim>8</dim>
					<dim>96</dim>
					<dim>37</dim>
					<dim>37</dim>
				</port>
			</output>
			<blobs>
				<weights offset="5457480" size="221184"/>
				<biases offset="6786080" size="384"/>
			</blobs>
		</layer>
		<layer id="525" name="inception_3a/double3x3a/bn/sc/relu" precision="FP32" type="ReLU">
			<data engine="caffe.ReLUParameter.DEFAULT" negative_slope="0.0"/>
			<input>
				<port id="0">
					<dim>8</dim>
					<dim>96</dim>
					<dim>37</dim>
					<dim>37</dim>
				</port>
			</input>
			<output>
				<port id="1">
					<dim>8</dim>
					<dim>96</dim>
					<dim>37</dim>
					<dim>37</dim>
				</port>
			</output>
		</layer>
		<layer id="307" name="inception_3a/double3x3b" precision="FP32" type="Convolution">
			<data dilation-x="1" dilation-y="1" group="1" kernel-x="3" kernel-y="3" output="96" pad-x="1" pad-y="1" stride="1,1,1,1" stride-x="1" stride-y="1"/>
			<input>
				<port id="0">
					<dim>8</dim>
					<dim>96</dim>
					<dim>37</dim>
					<dim>37</dim>
				</port>
			</input>
			<output>
				<port id="3">
					<dim>8</dim>
					<dim>96</dim>
					<dim>37</dim>
					<dim>37</dim>
				</port>
			</output>
			<blobs>
				<weights offset="33172752" size="331776"/>
				<biases offset="37247312" size="384"/>
			</blobs>
		</layer>
		<layer id="275" name="inception_3a/double3x3b/bn/sc/relu" precision="FP32" type="ReLU">
			<data engine="caffe.ReLUParameter.DEFAULT" negative_slope="0.0"/>
			<input>
				<port id="0">
					<dim>8</dim>
					<dim>96</dim>
					<dim>37</dim>
					<dim>37</dim>
				</port>
			</input>
			<output>
				<port id="1">
					<dim>8</dim>
					<dim>96</dim>
					<dim>37</dim>
					<dim>37</dim>
				</port>
			</output>
		</layer>
		<layer id="77" name="inception_3a/3x3_reduce" precision="FP32" type="Convolution">
			<data dilation-x="1" dilation-y="1" group="1" kernel-x="1" kernel-y="1" output="64" pad-x="0" pad-y="0" stride="1,1,1,1" stride-x="1" stride-y="1"/>
			<input>
				<port id="0">
					<dim>8</dim>
					<dim>192</dim>
					<dim>37</dim>
					<dim>37</dim>
				</port>
			</input>
			<output>
				<port id="3">
					<dim>8</dim>
					<dim>64</dim>
					<dim>37</dim>
					<dim>37</dim>
				</port>
			</output>
			<blobs>
				<weights offset="5408328" size="49152"/>
				<biases offset="39352520" size="256"/>
			</blobs>
		</layer>
		<layer id="197" name="inception_3a/3x3_reduce/bn/sc/relu" precision="FP32" type="ReLU">
			<data engine="caffe.ReLUParameter.DEFAULT" negative_slope="0.0"/>
			<input>
				<port id="0">
					<dim>8</dim>
					<dim>64</dim>
					<dim>37</dim>
					<dim>37</dim>
				</port>
			</input>
			<output>
				<port id="1">
					<dim>8</dim>
					<dim>64</dim>
					<dim>37</dim>
					<dim>37</dim>
				</port>
			</output>
		</layer>
		<layer id="90" name="inception_3a/3x3" precision="FP32" type="Convolution">
			<data dilation-x="1" dilation-y="1" group="1" kernel-x="3" kernel-y="3" output="64" pad-x="1" pad-y="1" stride="1,1,1,1" stride-x="1" stride-y="1"/>
			<input>
				<port id="0">
					<dim>8</dim>
					<dim>64</dim>
					<dim>37</dim>
					<dim>37</dim>
				</port>
			</input>
			<output>
				<port id="3">
					<dim>8</dim>
					<dim>64</dim>
					<dim>37</dim>
					<dim>37</dim>
				</port>
			</output>
			<blobs>
				<weights offset="34351888" size="147456"/>
				<biases offset="8482208" size="256"/>
			</blobs>
		</layer>
		<layer id="422" name="inception_3a/3x3/bn/sc/relu" precision="FP32" type="ReLU">
			<data engine="caffe.ReLUParameter.DEFAULT" negative_slope="0.0"/>
			<input>
				<port id="0">
					<dim>8</dim>
					<dim>64</dim>
					<dim>37</dim>
					<dim>37</dim>
				</port>
			</input>
			<output>
				<port id="1">
					<dim>8</dim>
					<dim>64</dim>
					<dim>37</dim>
					<dim>37</dim>
				</port>
			</output>
		</layer>
		<layer id="394" name="inception_3a/pool_proj/bn/sc/relu" precision="FP32" type="ReLU">
			<data engine="caffe.ReLUParameter.DEFAULT" negative_slope="0.0"/>
			<input>
				<port id="0">
					<dim>8</dim>
					<dim>32</dim>
					<dim>37</dim>
					<dim>37</dim>
				</port>
			</input>
			<output>
				<port id="1">
					<dim>8</dim>
					<dim>32</dim>
					<dim>37</dim>
					<dim>37</dim>
				</port>
			</output>
		</layer>
		<layer id="78" name="inception_3a/1x1" precision="FP32" type="Convolution">
			<data dilation-x="1" dilation-y="1" group="1" kernel-x="1" kernel-y="1" output="64" pad-x="0" pad-y="0" stride="1,1,1,1" stride-x="1" stride-y="1"/>
			<input>
				<port id="0">
					<dim>8</dim>
					<dim>192</dim>
					<dim>37</dim>
					<dim>37</dim>
				</port>
			</input>
			<output>
				<port id="3">
					<dim>8</dim>
					<dim>64</dim>
					<dim>37</dim>
					<dim>37</dim>
				</port>
			</output>
			<blobs>
				<weights offset="34302096" size="49152"/>
				<biases offset="44859192" size="256"/>
			</blobs>
		</layer>
		<layer id="110" name="inception_3a/1x1/bn/sc/relu" precision="FP32" type="ReLU">
			<data engine="caffe.ReLUParameter.DEFAULT" negative_slope="0.0"/>
			<input>
				<port id="0">
					<dim>8</dim>
					<dim>64</dim>
					<dim>37</dim>
					<dim>37</dim>
				</port>
			</input>
			<output>
				<port id="1">
					<dim>8</dim>
					<dim>64</dim>
					<dim>37</dim>
					<dim>37</dim>
				</port>
			</output>
		</layer>
		<layer id="154" name="inception_3a/output" precision="FP32" type="Concat">
			<data axis="1"/>
			<input>
				<port id="0">
					<dim>8</dim>
					<dim>64</dim>
					<dim>37</dim>
					<dim>37</dim>
				</port>
				<port id="1">
					<dim>8</dim>
					<dim>64</dim>
					<dim>37</dim>
					<dim>37</dim>
				</port>
				<port id="2">
					<dim>8</dim>
					<dim>96</dim>
					<dim>37</dim>
					<dim>37</dim>
				</port>
				<port id="3">
					<dim>8</dim>
					<dim>32</dim>
					<dim>37</dim>
					<dim>37</dim>
				</port>
			</input>
			<output>
				<port id="4">
					<dim>8</dim>
					<dim>256</dim>
					<dim>37</dim>
					<dim>37</dim>
				</port>
			</output>
		</layer>
		<layer id="408" name="inception_3b/3x3_reduce" precision="FP32" type="Convolution">
			<data dilation-x="1" dilation-y="1" group="1" kernel-x="1" kernel-y="1" output="64" pad-x="0" pad-y="0" stride="1,1,1,1" stride-x="1" stride-y="1"/>
			<input>
				<port id="0">
					<dim>8</dim>
					<dim>256</dim>
					<dim>37</dim>
					<dim>37</dim>
				</port>
			</input>
			<output>
				<port id="3">
					<dim>8</dim>
					<dim>64</dim>
					<dim>37</dim>
					<dim>37</dim>
				</port>
			</output>
			<blobs>
				<weights offset="33506960" size="65536"/>
				<biases offset="21114384" size="256"/>
			</blobs>
		</layer>
		<layer id="300" name="inception_3b/3x3_reduce/bn/sc/relu" precision="FP32" type="ReLU">
			<data engine="caffe.ReLUParameter.DEFAULT" negative_slope="0.0"/>
			<input>
				<port id="0">
					<dim>8</dim>
					<dim>64</dim>
					<dim>37</dim>
					<dim>37</dim>
				</port>
			</input>
			<output>
				<port id="1">
					<dim>8</dim>
					<dim>64</dim>
					<dim>37</dim>
					<dim>37</dim>
				</port>
			</output>
		</layer>
		<layer id="217" name="inception_3b/double3x3_reduce" precision="FP32" type="Convolution">
			<data dilation-x="1" dilation-y="1" group="1" kernel-x="1" kernel-y="1" output="64" pad-x="0" pad-y="0" stride="1,1,1,1" stride-x="1" stride-y="1"/>
			<input>
				<port id="0">
					<dim>8</dim>
					<dim>256</dim>
					<dim>37</dim>
					<dim>37</dim>
				</port>
			</input>
			<output>
				<port id="3">
					<dim>8</dim>
					<dim>64</dim>
					<dim>37</dim>
					<dim>37</dim>
				</port>
			</output>
			<blobs>
				<weights offset="27822480" size="65536"/>
				<biases offset="21114128" size="256"/>
			</blobs>
		</layer>
		<layer id="103" name="inception_3b/double3x3_reduce/bn/sc/relu" precision="FP32" type="ReLU">
			<data engine="caffe.ReLUParameter.DEFAULT" negative_slope="0.0"/>
			<input>
				<port id="0">
					<dim>8</dim>
					<dim>64</dim>
					<dim>37</dim>
					<dim>37</dim>
				</port>
			</input>
			<output>
				<port id="1">
					<dim>8</dim>
					<dim>64</dim>
					<dim>37</dim>
					<dim>37</dim>
				</port>
			</output>
		</layer>
		<layer id="397" name="inception_3b/double3x3a" precision="FP32" type="Convolution">
			<data dilation-x="1" dilation-y="1" group="1" kernel-x="3" kernel-y="3" output="96" pad-x="1" pad-y="1" stride="1,1,1,1" stride-x="1" stride-y="1"/>
			<input>
				<port id="0">
					<dim>8</dim>
					<dim>64</dim>
					<dim>37</dim>
					<dim>37</dim>
				</port>
			</input>
			<output>
				<port id="3">
					<dim>8</dim>
					<dim>96</dim>
					<dim>37</dim>
					<dim>37</dim>
				</port>
			</output>
			<blobs>
				<weights offset="31789456" size="221184"/>
				<biases offset="1217616" size="384"/>
			</blobs>
		</layer>
		<layer id="412" name="inception_3b/double3x3a/bn/sc/relu" precision="FP32" type="ReLU">
			<data engine="caffe.ReLUParameter.DEFAULT" negative_slope="0.0"/>
			<input>
				<port id="0">
					<dim>8</dim>
					<dim>96</dim>
					<dim>37</dim>
					<dim>37</dim>
				</port>
			</input>
			<output>
				<port id="1">
					<dim>8</dim>
					<dim>96</dim>
					<dim>37</dim>
					<dim>37</dim>
				</port>
			</output>
		</layer>
		<layer id="40" name="inception_3b/double3x3b" precision="FP32" type="Convolution">
			<data dilation-x="1" dilation-y="1" group="1" kernel-x="3" kernel-y="3" output="96" pad-x="1" pad-y="1" stride="1,1,1,1" stride-x="1" stride-y="1"/>
			<input>
				<port id="0">
					<dim>8</dim>
					<dim>96</dim>
					<dim>37</dim>
					<dim>37</dim>
				</port>
			</input>
			<output>
				<port id="3">
					<dim>8</dim>
					<dim>96</dim>
					<dim>37</dim>
					<dim>37</dim>
				</port>
			</output>
			<blobs>
				<weights offset="10584096" size="331776"/>
				<biases offset="32010640" size="384"/>
			</blobs>
		</layer>
		<layer id="421" name="inception_3b/double3x3b/bn/sc/relu" precision="FP32" type="ReLU">
			<data engine="caffe.ReLUParameter.DEFAULT" negative_slope="0.0"/>
			<input>
				<port id="0">
					<dim>8</dim>
					<dim>96</dim>
					<dim>37</dim>
					<dim>37</dim>
				</port>
			</input>
			<output>
				<port id="1">
					<dim>8</dim>
					<dim>96</dim>
					<dim>37</dim>
					<dim>37</dim>
				</port>
			</output>
		</layer>
		<layer id="248" name="inception_3b/1x1" precision="FP32" type="Convolution">
			<data dilation-x="1" dilation-y="1" group="1" kernel-x="1" kernel-y="1" output="64" pad-x="0" pad-y="0" stride="1,1,1,1" stride-x="1" stride-y="1"/>
			<input>
				<port id="0">
					<dim>8</dim>
					<dim>256</dim>
					<dim>37</dim>
					<dim>37</dim>
				</port>
			</input>
			<output>
				<port id="3">
					<dim>8</dim>
					<dim>64</dim>
					<dim>37</dim>
					<dim>37</dim>
				</port>
			</output>
			<blobs>
				<weights offset="4287688" size="65536"/>
				<biases offset="39351760" size="256"/>
			</blobs>
		</layer>
		<layer id="124" name="inception_3b/1x1/bn/sc/relu" precision="FP32" type="ReLU">
			<data engine="caffe.ReLUParameter.DEFAULT" negative_slope="0.0"/>
			<input>
				<port id="0">
					<dim>8</dim>
					<dim>64</dim>
					<dim>37</dim>
					<dim>37</dim>
				</port>
			</input>
			<output>
				<port id="1">
					<dim>8</dim>
					<dim>64</dim>
					<dim>37</dim>
					<dim>37</dim>
				</port>
			</output>
		</layer>
		<layer id="264" name="inception_3b/pool" precision="FP32" type="Pooling">
			<data exclude-pad="false" kernel-x="3" kernel-y="3" pad-x="1" pad-y="1" pool-method="avg" rounding_type="ceil" stride="1,1,1,1" stride-x="1" stride-y="1"/>
			<input>
				<port id="0">
					<dim>8</dim>
					<dim>256</dim>
					<dim>37</dim>
					<dim>37</dim>
				</port>
			</input>
			<output>
				<port id="1">
					<dim>8</dim>
					<dim>256</dim>
					<dim>37</dim>
					<dim>37</dim>
				</port>
			</output>
		</layer>
		<layer id="38" name="inception_3b/pool_proj" precision="FP32" type="Convolution">
			<data dilation-x="1" dilation-y="1" group="1" kernel-x="1" kernel-y="1" output="64" pad-x="0" pad-y="0" stride="1,1,1,1" stride-x="1" stride-y="1"/>
			<input>
				<port id="0">
					<dim>8</dim>
					<dim>256</dim>
					<dim>37</dim>
					<dim>37</dim>
				</port>
			</input>
			<output>
				<port id="3">
					<dim>8</dim>
					<dim>64</dim>
					<dim>37</dim>
					<dim>37</dim>
				</port>
			</output>
			<blobs>
				<weights offset="34015376" size="65536"/>
				<biases offset="10915872" size="256"/>
			</blobs>
		</layer>
		<layer id="401" name="inception_3b/pool_proj/bn/sc/relu" precision="FP32" type="ReLU">
			<data engine="caffe.ReLUParameter.DEFAULT" negative_slope="0.0"/>
			<input>
				<port id="0">
					<dim>8</dim>
					<dim>64</dim>
					<dim>37</dim>
					<dim>37</dim>
				</port>
			</input>
			<output>
				<port id="1">
					<dim>8</dim>
					<dim>64</dim>
					<dim>37</dim>
					<dim>37</dim>
				</port>
			</output>
		</layer>
		<layer id="87" name="inception_3b/3x3" precision="FP32" type="Convolution">
			<data dilation-x="1" dilation-y="1" group="1" kernel-x="3" kernel-y="3" output="96" pad-x="1" pad-y="1" stride="1,1,1,1" stride-x="1" stride-y="1"/>
			<input>
				<port id="0">
					<dim>8</dim>
					<dim>64</dim>
					<dim>37</dim>
					<dim>37</dim>
				</port>
			</input>
			<output>
				<port id="3">
					<dim>8</dim>
					<dim>96</dim>
					<dim>37</dim>
					<dim>37</dim>
				</port>
			</output>
			<blobs>
				<weights offset="33794192" size="221184"/>
				<biases offset="44859448" size="384"/>
			</blobs>
		</layer>
		<layer id="404" name="inception_3b/3x3/bn/sc/relu" precision="FP32" type="ReLU">
			<data engine="caffe.ReLUParameter.DEFAULT" negative_slope="0.0"/>
			<input>
				<port id="0">
					<dim>8</dim>
					<dim>96</dim>
					<dim>37</dim>
					<dim>37</dim>
				</port>
			</input>
			<output>
				<port id="1">
					<dim>8</dim>
					<dim>96</dim>
					<dim>37</dim>
					<dim>37</dim>
				</port>
			</output>
		</layer>
		<layer id="131" name="inception_3b/output" precision="FP32" type="Concat">
			<data axis="1"/>
			<input>
				<port id="0">
					<dim>8</dim>
					<dim>64</dim>
					<dim>37</dim>
					<dim>37</dim>
				</port>
				<port id="1">
					<dim>8</dim>
					<dim>96</dim>
					<dim>37</dim>
					<dim>37</dim>
				</port>
				<port id="2">
					<dim>8</dim>
					<dim>96</dim>
					<dim>37</dim>
					<dim>37</dim>
				</port>
				<port id="3">
					<dim>8</dim>
					<dim>64</dim>
					<dim>37</dim>
					<dim>37</dim>
				</port>
			</input>
			<output>
				<port id="4">
					<dim>8</dim>
					<dim>320</dim>
					<dim>37</dim>
					<dim>37</dim>
				</port>
			</output>
		</layer>
		<layer id="480" name="conv4_3_norm_mbox_priorbox" precision="FP32" type="PriorBox">
			<data aspect_ratio="2.0" clip="0" flip="1" max_size="60.0" min_size="30.0" offset="0.5" step="8.0" variance="0.10000000149011612,0.10000000149011612,0.20000000298023224,0.20000000298023224"/>
			<input>
				<port id="0">
					<dim>8</dim>
					<dim>320</dim>
					<dim>37</dim>
					<dim>37</dim>
				</port>
				<port id="1">
					<dim>8</dim>
					<dim>3</dim>
					<dim>300</dim>
					<dim>300</dim>
				</port>
			</input>
			<output>
				<port id="2">
					<dim>1</dim>
					<dim>2</dim>
					<dim>21904</dim>
				</port>
			</output>
		</layer>
		<layer id="147" name="conv4_3_norm_mbox_loc" precision="FP32" type="Convolution">
			<data dilation-x="1" dilation-y="1" group="1" kernel-x="3" kernel-y="3" output="16" pad-x="1" pad-y="1" stride="1,1,1,1" stride-x="1" stride-y="1"/>
			<input>
				<port id="0">
					<dim>8</dim>
					<dim>320</dim>
					<dim>37</dim>
					<dim>37</dim>
				</port>
			</input>
			<output>
				<port id="3">
					<dim>8</dim>
					<dim>16</dim>
					<dim>37</dim>
					<dim>37</dim>
				</port>
			</output>
			<blobs>
				<weights offset="19380496" size="184320"/>
				<biases offset="39402536" size="64"/>
			</blobs>
		</layer>
		<layer id="174" name="conv4_3_norm_mbox_loc_perm" precision="FP32" type="Permute">
			<data order="0,2,3,1"/>
			<input>
				<port id="0">
					<dim>8</dim>
					<dim>16</dim>
					<dim>37</dim>
					<dim>37</dim>
				</port>
			</input>
			<output>
				<port id="1">
					<dim>8</dim>
					<dim>37</dim>
					<dim>37</dim>
					<dim>16</dim>
				</port>
			</output>
		</layer>
		<layer id="403" name="conv4_3_norm_mbox_loc_flat" precision="FP32" type="Flatten">
			<data axis="1"/>
			<input>
				<port id="0">
					<dim>8</dim>
					<dim>37</dim>
					<dim>37</dim>
					<dim>16</dim>
				</port>
			</input>
			<output>
				<port id="1">
					<dim>8</dim>
					<dim>21904</dim>
				</port>
			</output>
		</layer>
		<layer id="516" name="inception_3c/3x3_reduce" precision="FP32" type="Convolution">
			<data dilation-x="1" dilation-y="1" group="1" kernel-x="1" kernel-y="1" output="128" pad-x="0" pad-y="0" stride="1,1,1,1" stride-x="1" stride-y="1"/>
			<input>
				<port id="0">
					<dim>8</dim>
					<dim>320</dim>
					<dim>37</dim>
					<dim>37</dim>
				</port>
			</input>
			<output>
				<port id="3">
					<dim>8</dim>
					<dim>128</dim>
					<dim>37</dim>
					<dim>37</dim>
				</port>
			</output>
			<blobs>
				<weights offset="11139168" size="163840"/>
				<biases offset="29887888" size="512"/>
			</blobs>
		</layer>
		<layer id="315" name="inception_3c/3x3_reduce/bn/sc/relu" precision="FP32" type="ReLU">
			<data engine="caffe.ReLUParameter.DEFAULT" negative_slope="0.0"/>
			<input>
				<port id="0">
					<dim>8</dim>
					<dim>128</dim>
					<dim>37</dim>
					<dim>37</dim>
				</port>
			</input>
			<output>
				<port id="1">
					<dim>8</dim>
					<dim>128</dim>
					<dim>37</dim>
					<dim>37</dim>
				</port>
			</output>
		</layer>
		<layer id="9" name="inception_3c/3x3" precision="FP32" type="Convolution">
			<data dilation-x="1" dilation-y="1" group="1" kernel-x="3" kernel-y="3" output="160" pad-x="0" pad-y="0" stride="1,1,2,2" stride-x="2" stride-y="2"/>
			<input>
				<port id="0">
					<dim>8</dim>
					<dim>128</dim>
					<dim>37</dim>
					<dim>37</dim>
				</port>
			</input>
			<output>
				<port id="3">
					<dim>8</dim>
					<dim>160</dim>
					<dim>18</dim>
					<dim>18</dim>
				</port>
			</output>
			<blobs>
				<weights offset="5679168" size="737280"/>
				<biases offset="36361936" size="640"/>
			</blobs>
		</layer>
		<layer id="126" name="inception_3c/3x3/bn/sc/relu" precision="FP32" type="ReLU">
			<data engine="caffe.ReLUParameter.DEFAULT" negative_slope="0.0"/>
			<input>
				<port id="0">
					<dim>8</dim>
					<dim>160</dim>
					<dim>18</dim>
					<dim>18</dim>
				</port>
			</input>
			<output>
				<port id="1">
					<dim>8</dim>
					<dim>160</dim>
					<dim>18</dim>
					<dim>18</dim>
				</port>
			</output>
		</layer>
		<layer id="86" name="inception_3c/pool" precision="FP32" type="Pooling">
			<data exclude-pad="false" kernel-x="3" kernel-y="3" pad-x="0" pad-y="0" pool-method="max" rounding_type="ceil" stride="1,1,2,2" stride-x="2" stride-y="2"/>
			<input>
				<port id="0">
					<dim>8</dim>
					<dim>320</dim>
					<dim>37</dim>
					<dim>37</dim>
				</port>
			</input>
			<output>
				<port id="1">
					<dim>8</dim>
					<dim>320</dim>
					<dim>18</dim>
					<dim>18</dim>
				</port>
			</output>
		</layer>
		<layer id="492" name="inception_3c/double3x3_reduce" precision="FP32" type="Convolution">
			<data dilation-x="1" dilation-y="1" group="1" kernel-x="1" kernel-y="1" output="64" pad-x="0" pad-y="0" stride="1,1,1,1" stride-x="1" stride-y="1"/>
			<input>
				<port id="0">
					<dim>8</dim>
					<dim>320</dim>
					<dim>37</dim>
					<dim>37</dim>
				</port>
			</input>
			<output>
				<port id="3">
					<dim>8</dim>
					<dim>64</dim>
					<dim>37</dim>
					<dim>37</dim>
				</port>
			</output>
			<blobs>
				<weights offset="1513424" size="81920"/>
				<biases offset="36361680" size="256"/>
			</blobs>
		</layer>
		<layer id="523" name="inception_3c/double3x3_reduce/bn/sc/relu" precision="FP32" type="ReLU">
			<data engine="caffe.ReLUParameter.DEFAULT" negative_slope="0.0"/>
			<input>
				<port id="0">
					<dim>8</dim>
					<dim>64</dim>
					<dim>37</dim>
					<dim>37</dim>
				</port>
			</input>
			<output>
				<port id="1">
					<dim>8</dim>
					<dim>64</dim>
					<dim>37</dim>
					<dim>37</dim>
				</port>
			</output>
		</layer>
		<layer id="209" name="inception_3c/double3x3a" precision="FP32" type="Convolution">
			<data dilation-x="1" dilation-y="1" group="1" kernel-x="3" kernel-y="3" output="96" pad-x="1" pad-y="1" stride="1,1,1,1" stride-x="1" stride-y="1"/>
			<input>
				<port id="0">
					<dim>8</dim>
					<dim>64</dim>
					<dim>37</dim>
					<dim>37</dim>
				</port>
			</input>
			<output>
				<port id="3">
					<dim>8</dim>
					<dim>96</dim>
					<dim>37</dim>
					<dim>37</dim>
				</port>
			</output>
			<blobs>
				<weights offset="10916128" size="221184"/>
				<biases offset="26817040" size="384"/>
			</blobs>
		</layer>
		<layer id="3" name="inception_3c/double3x3a/bn/sc/relu" precision="FP32" type="ReLU">
			<data engine="caffe.ReLUParameter.DEFAULT" negative_slope="0.0"/>
			<input>
				<port id="0">
					<dim>8</dim>
					<dim>96</dim>
					<dim>37</dim>
					<dim>37</dim>
				</port>
			</input>
			<output>
				<port id="1">
					<dim>8</dim>
					<dim>96</dim>
					<dim>37</dim>
					<dim>37</dim>
				</port>
			</output>
		</layer>
		<layer id="158" name="inception_3c/double3x3b" precision="FP32" type="Convolution">
			<data dilation-x="1" dilation-y="1" group="1" kernel-x="3" kernel-y="3" output="96" pad-x="0" pad-y="0" stride="1,1,2,2" stride-x="2" stride-y="2"/>
			<input>
				<port id="0">
					<dim>8</dim>
					<dim>96</dim>
					<dim>37</dim>
					<dim>37</dim>
				</port>
			</input>
			<output>
				<port id="3">
					<dim>8</dim>
					<dim>96</dim>
					<dim>18</dim>
					<dim>18</dim>
				</port>
			</output>
			<blobs>
				<weights offset="885840" size="331776"/>
				<biases offset="35089936" size="384"/>
			</blobs>
		</layer>
		<layer id="333" name="conv4_3_norm_mbox_conf" precision="FP32" type="Convolution">
			<data dilation-x="1" dilation-y="1" group="1" kernel-x="3" kernel-y="3" output="84" pad-x="1" pad-y="1" stride="1,1,1,1" stride-x="1" stride-y="1"/>
			<input>
				<port id="0">
					<dim>8</dim>
					<dim>320</dim>
					<dim>37</dim>
					<dim>37</dim>
				</port>
			</input>
			<output>
				<port id="3">
					<dim>8</dim>
					<dim>84</dim>
					<dim>37</dim>
					<dim>37</dim>
				</port>
			</output>
			<blobs>
				<weights offset="27888016" size="967680"/>
				<biases offset="12482656" size="336"/>
			</blobs>
		</layer>
		<layer id="168" name="conv4_3_norm_mbox_conf_perm" precision="FP32" type="Permute">
			<data order="0,2,3,1"/>
			<input>
				<port id="0">
					<dim>8</dim>
					<dim>84</dim>
					<dim>37</dim>
					<dim>37</dim>
				</port>
			</input>
			<output>
				<port id="1">
					<dim>8</dim>
					<dim>37</dim>
					<dim>37</dim>
					<dim>84</dim>
				</port>
			</output>
		</layer>
		<layer id="426" name="conv4_3_norm_mbox_conf_flat" precision="FP32" type="Flatten">
			<data axis="1"/>
			<input>
				<port id="0">
					<dim>8</dim>
					<dim>37</dim>
					<dim>37</dim>
					<dim>84</dim>
				</port>
			</input>
			<output>
				<port id="1">
					<dim>8</dim>
					<dim>114996</dim>
				</port>
			</output>
		</layer>
		<layer id="17" name="inception_3c/double3x3b/bn/sc/relu" precision="FP32" type="ReLU">
			<data engine="caffe.ReLUParameter.DEFAULT" negative_slope="0.0"/>
			<input>
				<port id="0">
					<dim>8</dim>
					<dim>96</dim>
					<dim>18</dim>
					<dim>18</dim>
				</port>
			</input>
			<output>
				<port id="1">
					<dim>8</dim>
					<dim>96</dim>
					<dim>18</dim>
					<dim>18</dim>
				</port>
			</output>
		</layer>
		<layer id="208" name="inception_3c/output" precision="FP32" type="Concat">
			<data axis="1"/>
			<input>
				<port id="0">
					<dim>8</dim>
					<dim>160</dim>
					<dim>18</dim>
					<dim>18</dim>
				</port>
				<port id="1">
					<dim>8</dim>
					<dim>96</dim>
					<dim>18</dim>
					<dim>18</dim>
				</port>
				<port id="2">
					<dim>8</dim>
					<dim>320</dim>
					<dim>18</dim>
					<dim>18</dim>
				</port>
			</input>
			<output>
				<port id="3">
					<dim>8</dim>
					<dim>576</dim>
					<dim>18</dim>
					<dim>18</dim>
				</port>
			</output>
		</layer>
		<layer id="160" name="inception_4a/double3x3_reduce" precision="FP32" type="Convolution">
			<data dilation-x="1" dilation-y="1" group="1" kernel-x="1" kernel-y="1" output="96" pad-x="0" pad-y="0" stride="1,1,1,1" stride-x="1" stride-y="1"/>
			<input>
				<port id="0">
					<dim>8</dim>
					<dim>576</dim>
					<dim>18</dim>
					<dim>18</dim>
				</port>
			</input>
			<output>
				<port id="3">
					<dim>8</dim>
					<dim>96</dim>
					<dim>18</dim>
					<dim>18</dim>
				</port>
			</output>
			<blobs>
				<weights offset="39130576" size="221184"/>
				<biases offset="4287304" size="384"/>
			</blobs>
		</layer>
		<layer id="237" name="inception_4a/double3x3_reduce/bn/sc/relu" precision="FP32" type="ReLU">
			<data engine="caffe.ReLUParameter.DEFAULT" negative_slope="0.0"/>
			<input>
				<port id="0">
					<dim>8</dim>
					<dim>96</dim>
					<dim>18</dim>
					<dim>18</dim>
				</port>
			</input>
			<output>
				<port id="1">
					<dim>8</dim>
					<dim>96</dim>
					<dim>18</dim>
					<dim>18</dim>
				</port>
			</output>
		</layer>
		<layer id="247" name="inception_4a/double3x3a" precision="FP32" type="Convolution">
			<data dilation-x="1" dilation-y="1" group="1" kernel-x="3" kernel-y="3" output="128" pad-x="1" pad-y="1" stride="1,1,1,1" stride-x="1" stride-y="1"/>
			<input>
				<port id="0">
					<dim>8</dim>
					<dim>96</dim>
					<dim>18</dim>
					<dim>18</dim>
				</port>
			</input>
			<output>
				<port id="3">
					<dim>8</dim>
					<dim>128</dim>
					<dim>18</dim>
					<dim>18</dim>
				</port>
			</output>
			<blobs>
				<weights offset="38427344" size="442368"/>
				<biases offset="20670736" size="512"/>
			</blobs>
		</layer>
		<layer id="51" name="inception_4a/double3x3a/bn/sc/relu" precision="FP32" type="ReLU">
			<data engine="caffe.ReLUParameter.DEFAULT" negative_slope="0.0"/>
			<input>
				<port id="0">
					<dim>8</dim>
					<dim>128</dim>
					<dim>18</dim>
					<dim>18</dim>
				</port>
			</input>
			<output>
				<port id="1">
					<dim>8</dim>
					<dim>128</dim>
					<dim>18</dim>
					<dim>18</dim>
				</port>
			</output>
		</layer>
		<layer id="382" name="inception_4a/double3x3b" precision="FP32" type="Convolution">
			<data dilation-x="1" dilation-y="1" group="1" kernel-x="3" kernel-y="3" output="128" pad-x="1" pad-y="1" stride="1,1,1,1" stride-x="1" stride-y="1"/>
			<input>
				<port id="0">
					<dim>8</dim>
					<dim>128</dim>
					<dim>18</dim>
					<dim>18</dim>
				</port>
			</input>
			<output>
				<port id="3">
					<dim>8</dim>
					<dim>128</dim>
					<dim>18</dim>
					<dim>18</dim>
				</port>
			</output>
			<blobs>
				<weights offset="21114896" size="589824"/>
				<biases offset="33506448" size="512"/>
			</blobs>
		</layer>
		<layer id="450" name="inception_4a/double3x3b/bn/sc/relu" precision="FP32" type="ReLU">
			<data engine="caffe.ReLUParameter.DEFAULT" negative_slope="0.0"/>
			<input>
				<port id="0">
					<dim>8</dim>
					<dim>128</dim>
					<dim>18</dim>
					<dim>18</dim>
				</port>
			</input>
			<output>
				<port id="1">
					<dim>8</dim>
					<dim>128</dim>
					<dim>18</dim>
					<dim>18</dim>
				</port>
			</output>
		</layer>
		<layer id="59" name="inception_4a/1x1" precision="FP32" type="Convolution">
			<data dilation-x="1" dilation-y="1" group="1" kernel-x="1" kernel-y="1" output="224" pad-x="0" pad-y="0" stride="1,1,1,1" stride-x="1" stride-y="1"/>
			<input>
				<port id="0">
					<dim>8</dim>
					<dim>576</dim>
					<dim>18</dim>
					<dim>18</dim>
				</port>
			</input>
			<output>
				<port id="3">
					<dim>8</dim>
					<dim>224</dim>
					<dim>18</dim>
					<dim>18</dim>
				</port>
			</output>
			<blobs>
				<weights offset="7966112" size="516096"/>
				<biases offset="6785184" size="896"/>
			</blobs>
		</layer>
		<layer id="491" name="inception_4a/1x1/bn/sc/relu" precision="FP32" type="ReLU">
			<data engine="caffe.ReLUParameter.DEFAULT" negative_slope="0.0"/>
			<input>
				<port id="0">
					<dim>8</dim>
					<dim>224</dim>
					<dim>18</dim>
					<dim>18</dim>
				</port>
			</input>
			<output>
				<port id="1">
					<dim>8</dim>
					<dim>224</dim>
					<dim>18</dim>
					<dim>18</dim>
				</port>
			</output>
		</layer>
		<layer id="380" name="inception_4a/3x3_reduce" precision="FP32" type="Convolution">
			<data dilation-x="1" dilation-y="1" group="1" kernel-x="1" kernel-y="1" output="64" pad-x="0" pad-y="0" stride="1,1,1,1" stride-x="1" stride-y="1"/>
			<input>
				<port id="0">
					<dim>8</dim>
					<dim>576</dim>
					<dim>18</dim>
					<dim>18</dim>
				</port>
			</input>
			<output>
				<port id="3">
					<dim>8</dim>
					<dim>64</dim>
					<dim>18</dim>
					<dim>18</dim>
				</port>
			</output>
			<blobs>
				<weights offset="26669072" size="147456"/>
				<biases offset="12779952" size="256"/>
			</blobs>
		</layer>
		<layer id="310" name="inception_4a/3x3_reduce/bn/sc/relu" precision="FP32" type="ReLU">
			<data engine="caffe.ReLUParameter.DEFAULT" negative_slope="0.0"/>
			<input>
				<port id="0">
					<dim>8</dim>
					<dim>64</dim>
					<dim>18</dim>
					<dim>18</dim>
				</port>
			</input>
			<output>
				<port id="1">
					<dim>8</dim>
					<dim>64</dim>
					<dim>18</dim>
					<dim>18</dim>
				</port>
			</output>
		</layer>
		<layer id="430" name="inception_4a/3x3" precision="FP32" type="Convolution">
			<data dilation-x="1" dilation-y="1" group="1" kernel-x="3" kernel-y="3" output="96" pad-x="1" pad-y="1" stride="1,1,1,1" stride-x="1" stride-y="1"/>
			<input>
				<port id="0">
					<dim>8</dim>
					<dim>64</dim>
					<dim>18</dim>
					<dim>18</dim>
				</port>
			</input>
			<output>
				<port id="3">
					<dim>8</dim>
					<dim>96</dim>
					<dim>18</dim>
					<dim>18</dim>
				</port>
			</output>
			<blobs>
				<weights offset="26423312" size="221184"/>
				<biases offset="39844968" size="384"/>
			</blobs>
		</layer>
		<layer id="72" name="inception_4a/3x3/bn/sc/relu" precision="FP32" type="ReLU">
			<data engine="caffe.ReLUParameter.DEFAULT" negative_slope="0.0"/>
			<input>
				<port id="0">
					<dim>8</dim>
					<dim>96</dim>
					<dim>18</dim>
					<dim>18</dim>
				</port>
			</input>
			<output>
				<port id="1">
					<dim>8</dim>
					<dim>96</dim>
					<dim>18</dim>
					<dim>18</dim>
				</port>
			</output>
		</layer>
		<layer id="157" name="inception_4a/pool" precision="FP32" type="Pooling">
			<data exclude-pad="false" kernel-x="3" kernel-y="3" pad-x="1" pad-y="1" pool-method="avg" rounding_type="ceil" stride="1,1,1,1" stride-x="1" stride-y="1"/>
			<input>
				<port id="0">
					<dim>8</dim>
					<dim>576</dim>
					<dim>18</dim>
					<dim>18</dim>
				</port>
			</input>
			<output>
				<port id="1">
					<dim>8</dim>
					<dim>576</dim>
					<dim>18</dim>
					<dim>18</dim>
				</port>
			</output>
		</layer>
		<layer id="155" name="inception_4a/pool_proj" precision="FP32" type="Convolution">
			<data dilation-x="1" dilation-y="1" group="1" kernel-x="1" kernel-y="1" output="128" pad-x="0" pad-y="0" stride="1,1,1,1" stride-x="1" stride-y="1"/>
			<input>
				<port id="0">
					<dim>8</dim>
					<dim>576</dim>
					<dim>18</dim>
					<dim>18</dim>
				</port>
			</input>
			<output>
				<port id="3">
					<dim>8</dim>
					<dim>128</dim>
					<dim>18</dim>
					<dim>18</dim>
				</port>
			</output>
			<blobs>
				<weights offset="42204984" size="294912"/>
				<biases offset="31788944" size="512"/>
			</blobs>
		</layer>
		<layer id="122" name="inception_4a/pool_proj/bn/sc/relu" precision="FP32" type="ReLU">
			<data engine="caffe.ReLUParameter.DEFAULT" negative_slope="0.0"/>
			<input>
				<port id="0">
					<dim>8</dim>
					<dim>128</dim>
					<dim>18</dim>
					<dim>18</dim>
				</port>
			</input>
			<output>
				<port id="1">
					<dim>8</dim>
					<dim>128</dim>
					<dim>18</dim>
					<dim>18</dim>
				</port>
			</output>
		</layer>
		<layer id="61" name="inception_4a/output" precision="FP32" type="Concat">
			<data axis="1"/>
			<input>
				<port id="0">
					<dim>8</dim>
					<dim>224</dim>
					<dim>18</dim>
					<dim>18</dim>
				</port>
				<port id="1">
					<dim>8</dim>
					<dim>96</dim>
					<dim>18</dim>
					<dim>18</dim>
				</port>
				<port id="2">
					<dim>8</dim>
					<dim>128</dim>
					<dim>18</dim>
					<dim>18</dim>
				</port>
				<port id="3">
					<dim>8</dim>
					<dim>128</dim>
					<dim>18</dim>
					<dim>18</dim>
				</port>
			</input>
			<output>
				<port id="4">
					<dim>8</dim>
					<dim>576</dim>
					<dim>18</dim>
					<dim>18</dim>
				</port>
			</output>
		</layer>
		<layer id="128" name="inception_4b/3x3_reduce" precision="FP32" type="Convolution">
			<data dilation-x="1" dilation-y="1" group="1" kernel-x="1" kernel-y="1" output="96" pad-x="0" pad-y="0" stride="1,1,1,1" stride-x="1" stride-y="1"/>
			<input>
				<port id="0">
					<dim>8</dim>
					<dim>576</dim>
					<dim>18</dim>
					<dim>18</dim>
				</port>
			</input>
			<output>
				<port id="3">
					<dim>8</dim>
					<dim>96</dim>
					<dim>18</dim>
					<dim>18</dim>
				</port>
			</output>
			<blobs>
				<weights offset="35090320" size="221184"/>
				<biases offset="27112336" size="384"/>
			</blobs>
		</layer>
		<layer id="263" name="inception_4b/3x3_reduce/bn/sc/relu" precision="FP32" type="ReLU">
			<data engine="caffe.ReLUParameter.DEFAULT" negative_slope="0.0"/>
			<input>
				<port id="0">
					<dim>8</dim>
					<dim>96</dim>
					<dim>18</dim>
					<dim>18</dim>
				</port>
			</input>
			<output>
				<port id="1">
					<dim>8</dim>
					<dim>96</dim>
					<dim>18</dim>
					<dim>18</dim>
				</port>
			</output>
		</layer>
		<layer id="153" name="inception_4b/3x3" precision="FP32" type="Convolution">
			<data dilation-x="1" dilation-y="1" group="1" kernel-x="3" kernel-y="3" output="128" pad-x="1" pad-y="1" stride="1,1,1,1" stride-x="1" stride-y="1"/>
			<input>
				<port id="0">
					<dim>8</dim>
					<dim>96</dim>
					<dim>18</dim>
					<dim>18</dim>
				</port>
			</input>
			<output>
				<port id="3">
					<dim>8</dim>
					<dim>128</dim>
					<dim>18</dim>
					<dim>18</dim>
				</port>
			</output>
			<blobs>
				<weights offset="36804944" size="442368"/>
				<biases offset="27112720" size="512"/>
			</blobs>
		</layer>
		<layer id="193" name="inception_4b/3x3/bn/sc/relu" precision="FP32" type="ReLU">
			<data engine="caffe.ReLUParameter.DEFAULT" negative_slope="0.0"/>
			<input>
				<port id="0">
					<dim>8</dim>
					<dim>128</dim>
					<dim>18</dim>
					<dim>18</dim>
				</port>
			</input>
			<output>
				<port id="1">
					<dim>8</dim>
					<dim>128</dim>
					<dim>18</dim>
					<dim>18</dim>
				</port>
			</output>
		</layer>
		<layer id="130" name="inception_4b/double3x3_reduce" precision="FP32" type="Convolution">
			<data dilation-x="1" dilation-y="1" group="1" kernel-x="1" kernel-y="1" output="96" pad-x="0" pad-y="0" stride="1,1,1,1" stride-x="1" stride-y="1"/>
			<input>
				<port id="0">
					<dim>8</dim>
					<dim>576</dim>
					<dim>18</dim>
					<dim>18</dim>
				</port>
			</input>
			<output>
				<port id="3">
					<dim>8</dim>
					<dim>96</dim>
					<dim>18</dim>
					<dim>18</dim>
				</port>
			</output>
			<blobs>
				<weights offset="27113232" size="221184"/>
				<biases offset="35311504" size="384"/>
			</blobs>
		</layer>
		<layer id="31" name="inception_4b/double3x3_reduce/bn/sc/relu" precision="FP32" type="ReLU">
			<data engine="caffe.ReLUParameter.DEFAULT" negative_slope="0.0"/>
			<input>
				<port id="0">
					<dim>8</dim>
					<dim>96</dim>
					<dim>18</dim>
					<dim>18</dim>
				</port>
			</input>
			<output>
				<port id="1">
					<dim>8</dim>
					<dim>96</dim>
					<dim>18</dim>
					<dim>18</dim>
				</port>
			</output>
		</layer>
		<layer id="244" name="inception_4b/double3x3a" precision="FP32" type="Convolution">
			<data dilation-x="1" dilation-y="1" group="1" kernel-x="3" kernel-y="3" output="128" pad-x="1" pad-y="1" stride="1,1,1,1" stride-x="1" stride-y="1"/>
			<input>
				<port id="0">
					<dim>8</dim>
					<dim>96</dim>
					<dim>18</dim>
					<dim>18</dim>
				</port>
			</input>
			<output>
				<port id="3">
					<dim>8</dim>
					<dim>128</dim>
					<dim>18</dim>
					<dim>18</dim>
				</port>
			</output>
			<blobs>
				<weights offset="20671248" size="442368"/>
				<biases offset="1218000" size="512"/>
			</blobs>
		</layer>
		<layer id="232" name="inception_4b/double3x3a/bn/sc/relu" precision="FP32" type="ReLU">
			<data engine="caffe.ReLUParameter.DEFAULT" negative_slope="0.0"/>
			<input>
				<port id="0">
					<dim>8</dim>
					<dim>128</dim>
					<dim>18</dim>
					<dim>18</dim>
				</port>
			</input>
			<output>
				<port id="1">
					<dim>8</dim>
					<dim>128</dim>
					<dim>18</dim>
					<dim>18</dim>
				</port>
			</output>
		</layer>
		<layer id="533" name="inception_4b/double3x3b" precision="FP32" type="Convolution">
			<data dilation-x="1" dilation-y="1" group="1" kernel-x="3" kernel-y="3" output="128" pad-x="1" pad-y="1" stride="1,1,1,1" stride-x="1" stride-y="1"/>
			<input>
				<port id="0">
					<dim>8</dim>
					<dim>128</dim>
					<dim>18</dim>
					<dim>18</dim>
				</port>
			</input>
			<output>
				<port id="3">
					<dim>8</dim>
					<dim>128</dim>
					<dim>18</dim>
					<dim>18</dim>
				</port>
			</output>
			<blobs>
				<weights offset="39845352" size="589824"/>
				<biases offset="14291632" size="512"/>
			</blobs>
		</layer>
		<layer id="535" name="inception_4b/double3x3b/bn/sc/relu" precision="FP32" type="ReLU">
			<data engine="caffe.ReLUParameter.DEFAULT" negative_slope="0.0"/>
			<input>
				<port id="0">
					<dim>8</dim>
					<dim>128</dim>
					<dim>18</dim>
					<dim>18</dim>
				</port>
			</input>
			<output>
				<port id="1">
					<dim>8</dim>
					<dim>128</dim>
					<dim>18</dim>
					<dim>18</dim>
				</port>
			</output>
		</layer>
		<layer id="54" name="inception_4b/pool" precision="FP32" type="Pooling">
			<data exclude-pad="false" kernel-x="3" kernel-y="3" pad-x="1" pad-y="1" pool-method="avg" rounding_type="ceil" stride="1,1,1,1" stride-x="1" stride-y="1"/>
			<input>
				<port id="0">
					<dim>8</dim>
					<dim>576</dim>
					<dim>18</dim>
					<dim>18</dim>
				</port>
			</input>
			<output>
				<port id="1">
					<dim>8</dim>
					<dim>576</dim>
					<dim>18</dim>
					<dim>18</dim>
				</port>
			</output>
		</layer>
		<layer id="406" name="inception_4b/pool_proj" precision="FP32" type="Convolution">
			<data dilation-x="1" dilation-y="1" group="1" kernel-x="1" kernel-y="1" output="128" pad-x="0" pad-y="0" stride="1,1,1,1" stride-x="1" stride-y="1"/>
			<input>
				<port id="0">
					<dim>8</dim>
					<dim>576</dim>
					<dim>18</dim>
					<dim>18</dim>
				</port>
			</input>
			<output>
				<port id="3">
					<dim>8</dim>
					<dim>128</dim>
					<dim>18</dim>
					<dim>18</dim>
				</port>
			</output>
			<blobs>
				<weights offset="26817424" size="294912"/>
				<biases offset="26816528" size="512"/>
			</blobs>
		</layer>
		<layer id="89" name="inception_4b/pool_proj/bn/sc/relu" precision="FP32" type="ReLU">
			<data engine="caffe.ReLUParameter.DEFAULT" negative_slope="0.0"/>
			<input>
				<port id="0">
					<dim>8</dim>
					<dim>128</dim>
					<dim>18</dim>
					<dim>18</dim>
				</port>
			</input>
			<output>
				<port id="1">
					<dim>8</dim>
					<dim>128</dim>
					<dim>18</dim>
					<dim>18</dim>
				</port>
			</output>
		</layer>
		<layer id="383" name="inception_4b/1x1" precision="FP32" type="Convolution">
			<data dilation-x="1" dilation-y="1" group="1" kernel-x="1" kernel-y="1" output="192" pad-x="0" pad-y="0" stride="1,1,1,1" stride-x="1" stride-y="1"/>
			<input>
				<port id="0">
					<dim>8</dim>
					<dim>576</dim>
					<dim>18</dim>
					<dim>18</dim>
				</port>
			</input>
			<output>
				<port id="3">
					<dim>8</dim>
					<dim>192</dim>
					<dim>18</dim>
					<dim>18</dim>
				</port>
			</output>
			<blobs>
				<weights offset="14292144" size="442368"/>
				<biases offset="27818768" size="768"/>
			</blobs>
		</layer>
		<layer id="169" name="inception_4b/1x1/bn/sc/relu" precision="FP32" type="ReLU">
			<data engine="caffe.ReLUParameter.DEFAULT" negative_slope="0.0"/>
			<input>
				<port id="0">
					<dim>8</dim>
					<dim>192</dim>
					<dim>18</dim>
					<dim>18</dim>
				</port>
			</input>
			<output>
				<port id="1">
					<dim>8</dim>
					<dim>192</dim>
					<dim>18</dim>
					<dim>18</dim>
				</port>
			</output>
		</layer>
		<layer id="344" name="inception_4b/output" precision="FP32" type="Concat">
			<data axis="1"/>
			<input>
				<port id="0">
					<dim>8</dim>
					<dim>192</dim>
					<dim>18</dim>
					<dim>18</dim>
				</port>
				<port id="1">
					<dim>8</dim>
					<dim>128</dim>
					<dim>18</dim>
					<dim>18</dim>
				</port>
				<port id="2">
					<dim>8</dim>
					<dim>128</dim>
					<dim>18</dim>
					<dim>18</dim>
				</port>
				<port id="3">
					<dim>8</dim>
					<dim>128</dim>
					<dim>18</dim>
					<dim>18</dim>
				</port>
			</input>
			<output>
				<port id="4">
					<dim>8</dim>
					<dim>576</dim>
					<dim>18</dim>
					<dim>18</dim>
				</port>
			</output>
		</layer>
		<layer id="225" name="inception_4c/1x1" precision="FP32" type="Convolution">
			<data dilation-x="1" dilation-y="1" group="1" kernel-x="1" kernel-y="1" output="160" pad-x="0" pad-y="0" stride="1,1,1,1" stride-x="1" stride-y="1"/>
			<input>
				<port id="0">
					<dim>8</dim>
					<dim>576</dim>
					<dim>18</dim>
					<dim>18</dim>
				</port>
			</input>
			<output>
				<port id="3">
					<dim>8</dim>
					<dim>160</dim>
					<dim>18</dim>
					<dim>18</dim>
				</port>
			</output>
			<blobs>
				<weights offset="6416544" size="368640"/>
				<biases offset="27821328" size="640"/>
			</blobs>
		</layer>
		<layer id="43" name="inception_4c/1x1/bn/sc/relu" precision="FP32" type="ReLU">
			<data engine="caffe.ReLUParameter.DEFAULT" negative_slope="0.0"/>
			<input>
				<port id="0">
					<dim>8</dim>
					<dim>160</dim>
					<dim>18</dim>
					<dim>18</dim>
				</port>
			</input>
			<output>
				<port id="1">
					<dim>8</dim>
					<dim>160</dim>
					<dim>18</dim>
					<dim>18</dim>
				</port>
			</output>
		</layer>
		<layer id="75" name="inception_4c/pool" precision="FP32" type="Pooling">
			<data exclude-pad="false" kernel-x="3" kernel-y="3" pad-x="1" pad-y="1" pool-method="avg" rounding_type="ceil" stride="1,1,1,1" stride-x="1" stride-y="1"/>
			<input>
				<port id="0">
					<dim>8</dim>
					<dim>576</dim>
					<dim>18</dim>
					<dim>18</dim>
				</port>
			</input>
			<output>
				<port id="1">
					<dim>8</dim>
					<dim>576</dim>
					<dim>18</dim>
					<dim>18</dim>
				</port>
			</output>
		</layer>
		<layer id="2" name="inception_4c/pool_proj" precision="FP32" type="Convolution">
			<data dilation-x="1" dilation-y="1" group="1" kernel-x="1" kernel-y="1" output="96" pad-x="0" pad-y="0" stride="1,1,1,1" stride-x="1" stride-y="1"/>
			<input>
				<port id="0">
					<dim>8</dim>
					<dim>576</dim>
					<dim>18</dim>
					<dim>18</dim>
				</port>
			</input>
			<output>
				<port id="3">
					<dim>8</dim>
					<dim>96</dim>
					<dim>18</dim>
					<dim>18</dim>
				</port>
			</output>
			<blobs>
				<weights offset="33572496" size="221184"/>
				<biases offset="8482464" size="384"/>
			</blobs>
		</layer>
		<layer id="83" name="inception_4c/pool_proj/bn/sc/relu" precision="FP32" type="ReLU">
			<data engine="caffe.ReLUParameter.DEFAULT" negative_slope="0.0"/>
			<input>
				<port id="0">
					<dim>8</dim>
					<dim>96</dim>
					<dim>18</dim>
					<dim>18</dim>
				</port>
			</input>
			<output>
				<port id="1">
					<dim>8</dim>
					<dim>96</dim>
					<dim>18</dim>
					<dim>18</dim>
				</port>
			</output>
		</layer>
		<layer id="501" name="inception_4c/3x3_reduce" precision="FP32" type="Convolution">
			<data dilation-x="1" dilation-y="1" group="1" kernel-x="1" kernel-y="1" output="128" pad-x="0" pad-y="0" stride="1,1,1,1" stride-x="1" stride-y="1"/>
			<input>
				<port id="0">
					<dim>8</dim>
					<dim>576</dim>
					<dim>18</dim>
					<dim>18</dim>
				</port>
			</input>
			<output>
				<port id="3">
					<dim>8</dim>
					<dim>128</dim>
					<dim>18</dim>
					<dim>18</dim>
				</port>
			</output>
			<blobs>
				<weights offset="29298064" size="294912"/>
				<biases offset="5275464" size="512"/>
			</blobs>
		</layer>
		<layer id="377" name="inception_4c/3x3_reduce/bn/sc/relu" precision="FP32" type="ReLU">
			<data engine="caffe.ReLUParameter.DEFAULT" negative_slope="0.0"/>
			<input>
				<port id="0">
					<dim>8</dim>
					<dim>128</dim>
					<dim>18</dim>
					<dim>18</dim>
				</port>
			</input>
			<output>
				<port id="1">
					<dim>8</dim>
					<dim>128</dim>
					<dim>18</dim>
					<dim>18</dim>
				</port>
			</output>
		</layer>
		<layer id="374" name="inception_4c/3x3" precision="FP32" type="Convolution">
			<data dilation-x="1" dilation-y="1" group="1" kernel-x="3" kernel-y="3" output="160" pad-x="1" pad-y="1" stride="1,1,1,1" stride-x="1" stride-y="1"/>
			<input>
				<port id="0">
					<dim>8</dim>
					<dim>128</dim>
					<dim>18</dim>
					<dim>18</dim>
				</port>
			</input>
			<output>
				<port id="3">
					<dim>8</dim>
					<dim>160</dim>
					<dim>18</dim>
					<dim>18</dim>
				</port>
			</output>
			<blobs>
				<weights offset="40435176" size="737280"/>
				<biases offset="11137504" size="640"/>
			</blobs>
		</layer>
		<layer id="327" name="inception_4c/3x3/bn/sc/relu" precision="FP32" type="ReLU">
			<data engine="caffe.ReLUParameter.DEFAULT" negative_slope="0.0"/>
			<input>
				<port id="0">
					<dim>8</dim>
					<dim>160</dim>
					<dim>18</dim>
					<dim>18</dim>
				</port>
			</input>
			<output>
				<port id="1">
					<dim>8</dim>
					<dim>160</dim>
					<dim>18</dim>
					<dim>18</dim>
				</port>
			</output>
		</layer>
		<layer id="527" name="inception_4c/double3x3_reduce" precision="FP32" type="Convolution">
			<data dilation-x="1" dilation-y="1" group="1" kernel-x="1" kernel-y="1" output="128" pad-x="0" pad-y="0" stride="1,1,1,1" stride-x="1" stride-y="1"/>
			<input>
				<port id="0">
					<dim>8</dim>
					<dim>576</dim>
					<dim>18</dim>
					<dim>18</dim>
				</port>
			</input>
			<output>
				<port id="3">
					<dim>8</dim>
					<dim>128</dim>
					<dim>18</dim>
					<dim>18</dim>
				</port>
			</output>
			<blobs>
				<weights offset="29592976" size="294912"/>
				<biases offset="21113616" size="512"/>
			</blobs>
		</layer>
		<layer id="337" name="inception_4c/double3x3_reduce/bn/sc/relu" precision="FP32" type="ReLU">
			<data engine="caffe.ReLUParameter.DEFAULT" negative_slope="0.0"/>
			<input>
				<port id="0">
					<dim>8</dim>
					<dim>128</dim>
					<dim>18</dim>
					<dim>18</dim>
				</port>
			</input>
			<output>
				<port id="1">
					<dim>8</dim>
					<dim>128</dim>
					<dim>18</dim>
					<dim>18</dim>
				</port>
			</output>
		</layer>
		<layer id="29" name="inception_4c/double3x3a" precision="FP32" type="Convolution">
			<data dilation-x="1" dilation-y="1" group="1" kernel-x="3" kernel-y="3" output="160" pad-x="1" pad-y="1" stride="1,1,1,1" stride-x="1" stride-y="1"/>
			<input>
				<port id="0">
					<dim>8</dim>
					<dim>128</dim>
					<dim>18</dim>
					<dim>18</dim>
				</port>
			</input>
			<output>
				<port id="3">
					<dim>8</dim>
					<dim>160</dim>
					<dim>18</dim>
					<dim>18</dim>
				</port>
			</output>
			<blobs>
				<weights offset="12780208" size="737280"/>
				<biases offset="34351248" size="640"/>
			</blobs>
		</layer>
		<layer id="332" name="inception_4c/double3x3a/bn/sc/relu" precision="FP32" type="ReLU">
			<data engine="caffe.ReLUParameter.DEFAULT" negative_slope="0.0"/>
			<input>
				<port id="0">
					<dim>8</dim>
					<dim>160</dim>
					<dim>18</dim>
					<dim>18</dim>
				</port>
			</input>
			<output>
				<port id="1">
					<dim>8</dim>
					<dim>160</dim>
					<dim>18</dim>
					<dim>18</dim>
				</port>
			</output>
		</layer>
		<layer id="85" name="inception_4c/double3x3b" precision="FP32" type="Convolution">
			<data dilation-x="1" dilation-y="1" group="1" kernel-x="3" kernel-y="3" output="160" pad-x="1" pad-y="1" stride="1,1,1,1" stride-x="1" stride-y="1"/>
			<input>
				<port id="0">
					<dim>8</dim>
					<dim>160</dim>
					<dim>18</dim>
					<dim>18</dim>
				</port>
			</input>
			<output>
				<port id="3">
					<dim>8</dim>
					<dim>160</dim>
					<dim>18</dim>
					<dim>18</dim>
				</port>
			</output>
			<blobs>
				<weights offset="4353864" size="921600"/>
				<biases offset="4353224" size="640"/>
			</blobs>
		</layer>
		<layer id="292" name="inception_4c/double3x3b/bn/sc/relu" precision="FP32" type="ReLU">
			<data engine="caffe.ReLUParameter.DEFAULT" negative_slope="0.0"/>
			<input>
				<port id="0">
					<dim>8</dim>
					<dim>160</dim>
					<dim>18</dim>
					<dim>18</dim>
				</port>
			</input>
			<output>
				<port id="1">
					<dim>8</dim>
					<dim>160</dim>
					<dim>18</dim>
					<dim>18</dim>
				</port>
			</output>
		</layer>
		<layer id="177" name="inception_4c/output" precision="FP32" type="Concat">
			<data axis="1"/>
			<input>
				<port id="0">
					<dim>8</dim>
					<dim>160</dim>
					<dim>18</dim>
					<dim>18</dim>
				</port>
				<port id="1">
					<dim>8</dim>
					<dim>160</dim>
					<dim>18</dim>
					<dim>18</dim>
				</port>
				<port id="2">
					<dim>8</dim>
					<dim>160</dim>
					<dim>18</dim>
					<dim>18</dim>
				</port>
				<port id="3">
					<dim>8</dim>
					<dim>96</dim>
					<dim>18</dim>
					<dim>18</dim>
				</port>
			</input>
			<output>
				<port id="4">
					<dim>8</dim>
					<dim>576</dim>
					<dim>18</dim>
					<dim>18</dim>
				</port>
			</output>
		</layer>
		<layer id="195" name="inception_4d/double3x3_reduce" precision="FP32" type="Convolution">
			<data dilation-x="1" dilation-y="1" group="1" kernel-x="1" kernel-y="1" output="160" pad-x="0" pad-y="0" stride="1,1,1,1" stride-x="1" stride-y="1"/>
			<input>
				<port id="0">
					<dim>8</dim>
					<dim>576</dim>
					<dim>18</dim>
					<dim>18</dim>
				</port>
			</input>
			<output>
				<port id="3">
					<dim>8</dim>
					<dim>160</dim>
					<dim>18</dim>
					<dim>18</dim>
				</port>
			</output>
			<blobs>
				<weights offset="3918664" size="368640"/>
				<biases offset="35311888" size="640"/>
			</blobs>
		</layer>
		<layer id="306" name="inception_4d/double3x3_reduce/bn/sc/relu" precision="FP32" type="ReLU">
			<data engine="caffe.ReLUParameter.DEFAULT" negative_slope="0.0"/>
			<input>
				<port id="0">
					<dim>8</dim>
					<dim>160</dim>
					<dim>18</dim>
					<dim>18</dim>
				</port>
			</input>
			<output>
				<port id="1">
					<dim>8</dim>
					<dim>160</dim>
					<dim>18</dim>
					<dim>18</dim>
				</port>
			</output>
		</layer>
		<layer id="381" name="inception_4d/double3x3a" precision="FP32" type="Convolution">
			<data dilation-x="1" dilation-y="1" group="1" kernel-x="3" kernel-y="3" output="192" pad-x="1" pad-y="1" stride="1,1,1,1" stride-x="1" stride-y="1"/>
			<input>
				<port id="0">
					<dim>8</dim>
					<dim>160</dim>
					<dim>18</dim>
					<dim>18</dim>
				</port>
			</input>
			<output>
				<port id="3">
					<dim>8</dim>
					<dim>192</dim>
					<dim>18</dim>
					<dim>18</dim>
				</port>
			</output>
			<blobs>
				<weights offset="19564816" size="1105920"/>
				<biases offset="33505680" size="768"/>
			</blobs>
		</layer>
		<layer id="317" name="inception_4d/double3x3a/bn/sc/relu" precision="FP32" type="ReLU">
			<data engine="caffe.ReLUParameter.DEFAULT" negative_slope="0.0"/>
			<input>
				<port id="0">
					<dim>8</dim>
					<dim>192</dim>
					<dim>18</dim>
					<dim>18</dim>
				</port>
			</input>
			<output>
				<port id="1">
					<dim>8</dim>
					<dim>192</dim>
					<dim>18</dim>
					<dim>18</dim>
				</port>
			</output>
		</layer>
		<layer id="379" name="inception_4d/double3x3b" precision="FP32" type="Convolution">
			<data dilation-x="1" dilation-y="1" group="1" kernel-x="3" kernel-y="3" output="192" pad-x="1" pad-y="1" stride="1,1,1,1" stride-x="1" stride-y="1"/>
			<input>
				<port id="0">
					<dim>8</dim>
					<dim>192</dim>
					<dim>18</dim>
					<dim>18</dim>
				</port>
			</input>
			<output>
				<port id="3">
					<dim>8</dim>
					<dim>192</dim>
					<dim>18</dim>
					<dim>18</dim>
				</port>
			</output>
			<blobs>
				<weights offset="9256992" size="1327104"/>
				<biases offset="0" size="768"/>
			</blobs>
		</layer>
		<layer id="256" name="inception_4d/double3x3b/bn/sc/relu" precision="FP32" type="ReLU">
			<data engine="caffe.ReLUParameter.DEFAULT" negative_slope="0.0"/>
			<input>
				<port id="0">
					<dim>8</dim>
					<dim>192</dim>
					<dim>18</dim>
					<dim>18</dim>
				</port>
			</input>
			<output>
				<port id="1">
					<dim>8</dim>
					<dim>192</dim>
					<dim>18</dim>
					<dim>18</dim>
				</port>
			</output>
		</layer>
		<layer id="348" name="inception_4d/pool" precision="FP32" type="Pooling">
			<data exclude-pad="false" kernel-x="3" kernel-y="3" pad-x="1" pad-y="1" pool-method="avg" rounding_type="ceil" stride="1,1,1,1" stride-x="1" stride-y="1"/>
			<input>
				<port id="0">
					<dim>8</dim>
					<dim>576</dim>
					<dim>18</dim>
					<dim>18</dim>
				</port>
			</input>
			<output>
				<port id="1">
					<dim>8</dim>
					<dim>576</dim>
					<dim>18</dim>
					<dim>18</dim>
				</port>
			</output>
		</layer>
		<layer id="46" name="inception_4d/pool_proj" precision="FP32" type="Convolution">
			<data dilation-x="1" dilation-y="1" group="1" kernel-x="1" kernel-y="1" output="96" pad-x="0" pad-y="0" stride="1,1,1,1" stride-x="1" stride-y="1"/>
			<input>
				<port id="0">
					<dim>8</dim>
					<dim>576</dim>
					<dim>18</dim>
					<dim>18</dim>
				</port>
			</input>
			<output>
				<port id="3">
					<dim>8</dim>
					<dim>96</dim>
					<dim>18</dim>
					<dim>18</dim>
				</port>
			</output>
			<blobs>
				<weights offset="38871760" size="221184"/>
				<biases offset="1595848" size="384"/>
			</blobs>
		</layer>
		<layer id="352" name="inception_4d/pool_proj/bn/sc/relu" precision="FP32" type="ReLU">
			<data engine="caffe.ReLUParameter.DEFAULT" negative_slope="0.0"/>
			<input>
				<port id="0">
					<dim>8</dim>
					<dim>96</dim>
					<dim>18</dim>
					<dim>18</dim>
				</port>
			</input>
			<output>
				<port id="1">
					<dim>8</dim>
					<dim>96</dim>
					<dim>18</dim>
					<dim>18</dim>
				</port>
			</output>
		</layer>
		<layer id="437" name="inception_4d/1x1" precision="FP32" type="Convolution">
			<data dilation-x="1" dilation-y="1" group="1" kernel-x="1" kernel-y="1" output="96" pad-x="0" pad-y="0" stride="1,1,1,1" stride-x="1" stride-y="1"/>
			<input>
				<port id="0">
					<dim>8</dim>
					<dim>576</dim>
					<dim>18</dim>
					<dim>18</dim>
				</port>
			</input>
			<output>
				<port id="3">
					<dim>8</dim>
					<dim>96</dim>
					<dim>18</dim>
					<dim>18</dim>
				</port>
			</output>
			<blobs>
				<weights offset="27597584" size="221184"/>
				<biases offset="33504528" size="384"/>
			</blobs>
		</layer>
		<layer id="220" name="inception_4d/1x1/bn/sc/relu" precision="FP32" type="ReLU">
			<data engine="caffe.ReLUParameter.DEFAULT" negative_slope="0.0"/>
			<input>
				<port id="0">
					<dim>8</dim>
					<dim>96</dim>
					<dim>18</dim>
					<dim>18</dim>
				</port>
			</input>
			<output>
				<port id="1">
					<dim>8</dim>
					<dim>96</dim>
					<dim>18</dim>
					<dim>18</dim>
				</port>
			</output>
		</layer>
		<layer id="451" name="inception_4d/3x3_reduce" precision="FP32" type="Convolution">
			<data dilation-x="1" dilation-y="1" group="1" kernel-x="1" kernel-y="1" output="128" pad-x="0" pad-y="0" stride="1,1,1,1" stride-x="1" stride-y="1"/>
			<input>
				<port id="0">
					<dim>8</dim>
					<dim>576</dim>
					<dim>18</dim>
					<dim>18</dim>
				</port>
			</input>
			<output>
				<port id="3">
					<dim>8</dim>
					<dim>128</dim>
					<dim>18</dim>
					<dim>18</dim>
				</port>
			</output>
			<blobs>
				<weights offset="1218512" size="294912"/>
				<biases offset="27821968" size="512"/>
			</blobs>
		</layer>
		<layer id="322" name="inception_4d/3x3_reduce/bn/sc/relu" precision="FP32" type="ReLU">
			<data engine="caffe.ReLUParameter.DEFAULT" negative_slope="0.0"/>
			<input>
				<port id="0">
					<dim>8</dim>
					<dim>128</dim>
					<dim>18</dim>
					<dim>18</dim>
				</port>
			</input>
			<output>
				<port id="1">
					<dim>8</dim>
					<dim>128</dim>
					<dim>18</dim>
					<dim>18</dim>
				</port>
			</output>
		</layer>
		<layer id="210" name="inception_4d/3x3" precision="FP32" type="Convolution">
			<data dilation-x="1" dilation-y="1" group="1" kernel-x="3" kernel-y="3" output="192" pad-x="1" pad-y="1" stride="1,1,1,1" stride-x="1" stride-y="1"/>
			<input>
				<port id="0">
					<dim>8</dim>
					<dim>128</dim>
					<dim>18</dim>
					<dim>18</dim>
				</port>
			</input>
			<output>
				<port id="3">
					<dim>8</dim>
					<dim>192</dim>
					<dim>18</dim>
					<dim>18</dim>
				</port>
			</output>
			<blobs>
				<weights offset="35459984" size="884736"/>
				<biases offset="35089168" size="768"/>
			</blobs>
		</layer>
		<layer id="479" name="inception_4d/3x3/bn/sc/relu" precision="FP32" type="ReLU">
			<data engine="caffe.ReLUParameter.DEFAULT" negative_slope="0.0"/>
			<input>
				<port id="0">
					<dim>8</dim>
					<dim>192</dim>
					<dim>18</dim>
					<dim>18</dim>
				</port>
			</input>
			<output>
				<port id="1">
					<dim>8</dim>
					<dim>192</dim>
					<dim>18</dim>
					<dim>18</dim>
				</port>
			</output>
		</layer>
		<layer id="88" name="inception_4d/output" precision="FP32" type="Concat">
			<data axis="1"/>
			<input>
				<port id="0">
					<dim>8</dim>
					<dim>96</dim>
					<dim>18</dim>
					<dim>18</dim>
				</port>
				<port id="1">
					<dim>8</dim>
					<dim>192</dim>
					<dim>18</dim>
					<dim>18</dim>
				</port>
				<port id="2">
					<dim>8</dim>
					<dim>192</dim>
					<dim>18</dim>
					<dim>18</dim>
				</port>
				<port id="3">
					<dim>8</dim>
					<dim>96</dim>
					<dim>18</dim>
					<dim>18</dim>
				</port>
			</input>
			<output>
				<port id="4">
					<dim>8</dim>
					<dim>576</dim>
					<dim>18</dim>
					<dim>18</dim>
				</port>
			</output>
		</layer>
		<layer id="240" name="inception_4e/3x3_reduce" precision="FP32" type="Convolution">
			<data dilation-x="1" dilation-y="1" group="1" kernel-x="1" kernel-y="1" output="128" pad-x="0" pad-y="0" stride="1,1,1,1" stride-x="1" stride-y="1"/>
			<input>
				<port id="0">
					<dim>8</dim>
					<dim>576</dim>
					<dim>18</dim>
					<dim>18</dim>
				</port>
			</input>
			<output>
				<port id="3">
					<dim>8</dim>
					<dim>128</dim>
					<dim>18</dim>
					<dim>18</dim>
				</port>
			</output>
			<blobs>
				<weights offset="12485040" size="294912"/>
				<biases offset="33793680" size="512"/>
			</blobs>
		</layer>
		<layer id="365" name="inception_4e/3x3_reduce/bn/sc/relu" precision="FP32" type="ReLU">
			<data engine="caffe.ReLUParameter.DEFAULT" negative_slope="0.0"/>
			<input>
				<port id="0">
					<dim>8</dim>
					<dim>128</dim>
					<dim>18</dim>
					<dim>18</dim>
				</port>
			</input>
			<output>
				<port id="1">
					<dim>8</dim>
					<dim>128</dim>
					<dim>18</dim>
					<dim>18</dim>
				</port>
			</output>
		</layer>
		<layer id="91" name="inception_4e/3x3" precision="FP32" type="Convolution">
			<data dilation-x="1" dilation-y="1" group="1" kernel-x="3" kernel-y="3" output="192" pad-x="1" pad-y="1" stride="1,1,2,2" stride-x="2" stride-y="2"/>
			<input>
				<port id="0">
					<dim>8</dim>
					<dim>128</dim>
					<dim>18</dim>
					<dim>18</dim>
				</port>
			</input>
			<output>
				<port id="3">
					<dim>8</dim>
					<dim>192</dim>
					<dim>9</dim>
					<dim>9</dim>
				</port>
			</output>
			<blobs>
				<weights offset="1104" size="884736"/>
				<biases offset="38870736" size="768"/>
			</blobs>
		</layer>
		<layer id="66" name="inception_4e/3x3/bn/sc/relu" precision="FP32" type="ReLU">
			<data engine="caffe.ReLUParameter.DEFAULT" negative_slope="0.0"/>
			<input>
				<port id="0">
					<dim>8</dim>
					<dim>192</dim>
					<dim>9</dim>
					<dim>9</dim>
				</port>
			</input>
			<output>
				<port id="1">
					<dim>8</dim>
					<dim>192</dim>
					<dim>9</dim>
					<dim>9</dim>
				</port>
			</output>
		</layer>
		<layer id="79" name="conv6_1" precision="FP32" type="Convolution">
			<data dilation-x="1" dilation-y="1" group="1" kernel-x="1" kernel-y="1" output="256" pad-x="0" pad-y="0" stride="1,1,1,1" stride-x="1" stride-y="1"/>
			<input>
				<port id="0">
					<dim>8</dim>
					<dim>576</dim>
					<dim>18</dim>
					<dim>18</dim>
				</port>
			</input>
			<output>
				<port id="3">
					<dim>8</dim>
					<dim>256</dim>
					<dim>18</dim>
					<dim>18</dim>
				</port>
			</output>
			<blobs>
				<weights offset="34499344" size="589824"/>
				<biases offset="5275976" size="1024"/>
			</blobs>
		</layer>
		<layer id="521" name="conv6_1_relu" precision="FP32" type="ReLU">
			<data engine="caffe.ReLUParameter.DEFAULT" negative_slope="0.0"/>
			<input>
				<port id="0">
					<dim>8</dim>
					<dim>256</dim>
					<dim>18</dim>
					<dim>18</dim>
				</port>
			</input>
			<output>
				<port id="1">
					<dim>8</dim>
					<dim>256</dim>
					<dim>18</dim>
					<dim>18</dim>
				</port>
			</output>
		</layer>
		<layer id="105" name="conv6_2" precision="FP32" type="Convolution">
			<data dilation-x="1" dilation-y="1" group="1" kernel-x="3" kernel-y="3" output="512" pad-x="1" pad-y="1" stride="1,1,2,2" stride-x="2" stride-y="2"/>
			<input>
				<port id="0">
					<dim>8</dim>
					<dim>256</dim>
					<dim>18</dim>
					<dim>18</dim>
				</port>
			</input>
			<output>
				<port id="3">
					<dim>8</dim>
					<dim>512</dim>
					<dim>9</dim>
					<dim>9</dim>
				</port>
			</output>
			<blobs>
				<weights offset="21704720" size="4718592"/>
				<biases offset="12482992" size="2048"/>
			</blobs>
		</layer>
		<layer id="510" name="conv6_2_relu" precision="FP32" type="ReLU">
			<data engine="caffe.ReLUParameter.DEFAULT" negative_slope="0.0"/>
			<input>
				<port id="0">
					<dim>8</dim>
					<dim>512</dim>
					<dim>9</dim>
					<dim>9</dim>
				</port>
			</input>
			<output>
				<port id="1">
					<dim>8</dim>
					<dim>512</dim>
					<dim>9</dim>
					<dim>9</dim>
				</port>
			</output>
		</layer>
		<layer id="508" name="conv6_2_mbox_conf" precision="FP32" type="Convolution">
			<data dilation-x="1" dilation-y="1" group="1" kernel-x="3" kernel-y="3" output="126" pad-x="1" pad-y="1" stride="1,1,1,1" stride-x="1" stride-y="1"/>
			<input>
				<port id="0">
					<dim>8</dim>
					<dim>512</dim>
					<dim>9</dim>
					<dim>9</dim>
				</port>
			</input>
			<output>
				<port id="3">
					<dim>8</dim>
					<dim>126</dim>
					<dim>9</dim>
					<dim>9</dim>
				</port>
			</output>
			<blobs>
				<weights offset="1596232" size="2322432"/>
				<biases offset="39352016" size="504"/>
			</blobs>
		</layer>
		<layer id="419" name="conv6_2_mbox_conf_perm" precision="FP32" type="Permute">
			<data order="0,2,3,1"/>
			<input>
				<port id="0">
					<dim>8</dim>
					<dim>126</dim>
					<dim>9</dim>
					<dim>9</dim>
				</port>
			</input>
			<output>
				<port id="1">
					<dim>8</dim>
					<dim>9</dim>
					<dim>9</dim>
					<dim>126</dim>
				</port>
			</output>
		</layer>
		<layer id="167" name="conv6_2_mbox_conf_flat" precision="FP32" type="Flatten">
			<data axis="1"/>
			<input>
				<port id="0">
					<dim>8</dim>
					<dim>9</dim>
					<dim>9</dim>
					<dim>126</dim>
				</port>
			</input>
			<output>
				<port id="1">
					<dim>8</dim>
					<dim>10206</dim>
				</port>
			</output>
		</layer>
		<layer id="203" name="conv6_2_mbox_loc" precision="FP32" type="Convolution">
			<data dilation-x="1" dilation-y="1" group="1" kernel-x="3" kernel-y="3" output="24" pad-x="1" pad-y="1" stride="1,1,1,1" stride-x="1" stride-y="1"/>
			<input>
				<port id="0">
					<dim>8</dim>
					<dim>512</dim>
					<dim>9</dim>
					<dim>9</dim>
				</port>
			</input>
			<output>
				<port id="3">
					<dim>8</dim>
					<dim>24</dim>
					<dim>9</dim>
					<dim>9</dim>
				</port>
			</output>
			<blobs>
				<weights offset="36362576" size="442368"/>
				<biases offset="19379376" size="96"/>
			</blobs>
		</layer>
		<layer id="166" name="conv6_2_mbox_loc_perm" precision="FP32" type="Permute">
			<data order="0,2,3,1"/>
			<input>
				<port id="0">
					<dim>8</dim>
					<dim>24</dim>
					<dim>9</dim>
					<dim>9</dim>
				</port>
			</input>
			<output>
				<port id="1">
					<dim>8</dim>
					<dim>9</dim>
					<dim>9</dim>
					<dim>24</dim>
				</port>
			</output>
		</layer>
		<layer id="69" name="conv6_2_mbox_loc_flat" precision="FP32" type="Flatten">
			<data axis="1"/>
			<input>
				<port id="0">
					<dim>8</dim>
					<dim>9</dim>
					<dim>9</dim>
					<dim>24</dim>
				</port>
			</input>
			<output>
				<port id="1">
					<dim>8</dim>
					<dim>1944</dim>
				</port>
			</output>
		</layer>
		<layer id="108" name="conv7_1" precision="FP32" type="Convolution">
			<data dilation-x="1" dilation-y="1" group="1" kernel-x="1" kernel-y="1" output="128" pad-x="0" pad-y="0" stride="1,1,1,1" stride-x="1" stride-y="1"/>
			<input>
				<port id="0">
					<dim>8</dim>
					<dim>512</dim>
					<dim>9</dim>
					<dim>9</dim>
				</port>
			</input>
			<output>
				<port id="3">
					<dim>8</dim>
					<dim>128</dim>
					<dim>9</dim>
					<dim>9</dim>
				</port>
			</output>
			<blobs>
				<weights offset="27335440" size="262144"/>
				<biases offset="39402024" size="512"/>
			</blobs>
		</layer>
		<layer id="475" name="conv7_1_relu" precision="FP32" type="ReLU">
			<data engine="caffe.ReLUParameter.DEFAULT" negative_slope="0.0"/>
			<input>
				<port id="0">
					<dim>8</dim>
					<dim>128</dim>
					<dim>9</dim>
					<dim>9</dim>
				</port>
			</input>
			<output>
				<port id="1">
					<dim>8</dim>
					<dim>128</dim>
					<dim>9</dim>
					<dim>9</dim>
				</port>
			</output>
		</layer>
		<layer id="261" name="conv7_2" precision="FP32" type="Convolution">
			<data dilation-x="1" dilation-y="1" group="1" kernel-x="3" kernel-y="3" output="256" pad-x="1" pad-y="1" stride="1,1,2,2" stride-x="2" stride-y="2"/>
			<input>
				<port id="0">
					<dim>8</dim>
					<dim>128</dim>
					<dim>9</dim>
					<dim>9</dim>
				</port>
			</input>
			<output>
				<port id="3">
					<dim>8</dim>
					<dim>256</dim>
					<dim>5</dim>
					<dim>5</dim>
				</port>
			</output>
			<blobs>
				<weights offset="37247696" size="1179648"/>
				<biases offset="38869712" size="1024"/>
			</blobs>
		</layer>
		<layer id="290" name="conv7_2_relu" precision="FP32" type="ReLU">
			<data engine="caffe.ReLUParameter.DEFAULT" negative_slope="0.0"/>
			<input>
				<port id="0">
					<dim>8</dim>
					<dim>256</dim>
					<dim>5</dim>
					<dim>5</dim>
				</port>
			</input>
			<output>
				<port id="1">
					<dim>8</dim>
					<dim>256</dim>
					<dim>5</dim>
					<dim>5</dim>
				</port>
			</output>
		</layer>
		<layer id="144" name="conv7_2_mbox_loc" precision="FP32" type="Convolution">
			<data dilation-x="1" dilation-y="1" group="1" kernel-x="3" kernel-y="3" output="24" pad-x="1" pad-y="1" stride="1,1,1,1" stride-x="1" stride-y="1"/>
			<input>
				<port id="0">
					<dim>8</dim>
					<dim>256</dim>
					<dim>5</dim>
					<dim>5</dim>
				</port>
			</input>
			<output>
				<port id="3">
					<dim>8</dim>
					<dim>24</dim>
					<dim>5</dim>
					<dim>5</dim>
				</port>
			</output>
			<blobs>
				<weights offset="34080912" size="221184"/>
				<biases offset="6416448" size="96"/>
			</blobs>
		</layer>
		<layer id="187" name="conv7_2_mbox_loc_perm" precision="FP32" type="Permute">
			<data order="0,2,3,1"/>
			<input>
				<port id="0">
					<dim>8</dim>
					<dim>24</dim>
					<dim>5</dim>
					<dim>5</dim>
				</port>
			</input>
			<output>
				<port id="1">
					<dim>8</dim>
					<dim>5</dim>
					<dim>5</dim>
					<dim>24</dim>
				</port>
			</output>
		</layer>
		<layer id="48" name="conv7_2_mbox_loc_flat" precision="FP32" type="Flatten">
			<data axis="1"/>
			<input>
				<port id="0">
					<dim>8</dim>
					<dim>5</dim>
					<dim>5</dim>
					<dim>24</dim>
				</port>
			</input>
			<output>
				<port id="1">
					<dim>8</dim>
					<dim>600</dim>
				</port>
			</output>
		</layer>
		<layer id="281" name="conv7_2_mbox_priorbox" precision="FP32" type="PriorBox">
			<data aspect_ratio="2.0,3.0" clip="0" flip="1" max_size="213.0" min_size="162.0" offset="0.5" step="64.0" variance="0.10000000149011612,0.10000000149011612,0.20000000298023224,0.20000000298023224"/>
			<input>
				<port id="0">
					<dim>8</dim>
					<dim>256</dim>
					<dim>5</dim>
					<dim>5</dim>
				</port>
				<port id="1">
					<dim>8</dim>
					<dim>3</dim>
					<dim>300</dim>
					<dim>300</dim>
				</port>
			</input>
			<output>
				<port id="2">
					<dim>1</dim>
					<dim>2</dim>
					<dim>600</dim>
				</port>
			</output>
		</layer>
		<layer id="204" name="conv7_2_mbox_conf" precision="FP32" type="Convolution">
			<data dilation-x="1" dilation-y="1" group="1" kernel-x="3" kernel-y="3" output="126" pad-x="1" pad-y="1" stride="1,1,1,1" stride-x="1" stride-y="1"/>
			<input>
				<port id="0">
					<dim>8</dim>
					<dim>256</dim>
					<dim>5</dim>
					<dim>5</dim>
				</port>
			</input>
			<output>
				<port id="3">
					<dim>8</dim>
					<dim>126</dim>
					<dim>5</dim>
					<dim>5</dim>
				</port>
			</output>
			<blobs>
				<weights offset="32011536" size="1161216"/>
				<biases offset="5678664" size="504"/>
			</blobs>
		</layer>
		<layer id="125" name="conv7_2_mbox_conf_perm" precision="FP32" type="Permute">
			<data order="0,2,3,1"/>
			<input>
				<port id="0">
					<dim>8</dim>
					<dim>126</dim>
					<dim>5</dim>
					<dim>5</dim>
				</port>
			</input>
			<output>
				<port id="1">
					<dim>8</dim>
					<dim>5</dim>
					<dim>5</dim>
					<dim>126</dim>
				</port>
			</output>
		</layer>
		<layer id="316" name="conv7_2_mbox_conf_flat" precision="FP32" type="Flatten">
			<data axis="1"/>
			<input>
				<port id="0">
					<dim>8</dim>
					<dim>5</dim>
					<dim>5</dim>
					<dim>126</dim>
				</port>
			</input>
			<output>
				<port id="1">
					<dim>8</dim>
					<dim>3150</dim>
				</port>
			</output>
		</layer>
		<layer id="5" name="conv8_1" precision="FP32" type="Convolution">
			<data dilation-x="1" dilation-y="1" group="1" kernel-x="1" kernel-y="1" output="128" pad-x="0" pad-y="0" stride="1,1,1,1" stride-x="1" stride-y="1"/>
			<input>
				<port id="0">
					<dim>8</dim>
					<dim>256</dim>
					<dim>5</dim>
					<dim>5</dim>
				</port>
			</input>
			<output>
				<port id="3">
					<dim>8</dim>
					<dim>128</dim>
					<dim>5</dim>
					<dim>5</dim>
				</port>
			</output>
			<blobs>
				<weights offset="5277000" size="131072"/>
				<biases offset="32011024" size="512"/>
			</blobs>
		</layer>
		<layer id="395" name="conv8_1_relu" precision="FP32" type="ReLU">
			<data engine="caffe.ReLUParameter.DEFAULT" negative_slope="0.0"/>
			<input>
				<port id="0">
					<dim>8</dim>
					<dim>128</dim>
					<dim>5</dim>
					<dim>5</dim>
				</port>
			</input>
			<output>
				<port id="1">
					<dim>8</dim>
					<dim>128</dim>
					<dim>5</dim>
					<dim>5</dim>
				</port>
			</output>
		</layer>
		<layer id="325" name="conv8_2" precision="FP32" type="Convolution">
			<data dilation-x="1" dilation-y="1" group="1" kernel-x="3" kernel-y="3" output="256" pad-x="0" pad-y="0" stride="1,1,1,1" stride-x="1" stride-y="1"/>
			<input>
				<port id="0">
					<dim>8</dim>
					<dim>128</dim>
					<dim>5</dim>
					<dim>5</dim>
				</port>
			</input>
			<output>
				<port id="3">
					<dim>8</dim>
					<dim>256</dim>
					<dim>3</dim>
					<dim>3</dim>
				</port>
			</output>
			<blobs>
				<weights offset="6786464" size="1179648"/>
				<biases offset="11138144" size="1024"/>
			</blobs>
		</layer>
		<layer id="335" name="conv8_2_relu" precision="FP32" type="ReLU">
			<data engine="caffe.ReLUParameter.DEFAULT" negative_slope="0.0"/>
			<input>
				<port id="0">
					<dim>8</dim>
					<dim>256</dim>
					<dim>3</dim>
					<dim>3</dim>
				</port>
			</input>
			<output>
				<port id="1">
					<dim>8</dim>
					<dim>256</dim>
					<dim>3</dim>
					<dim>3</dim>
				</port>
			</output>
		</layer>
		<layer id="104" name="conv8_2_mbox_conf" precision="FP32" type="Convolution">
			<data dilation-x="1" dilation-y="1" group="1" kernel-x="3" kernel-y="3" output="84" pad-x="1" pad-y="1" stride="1,1,1,1" stride-x="1" stride-y="1"/>
			<input>
				<port id="0">
					<dim>8</dim>
					<dim>256</dim>
					<dim>3</dim>
					<dim>3</dim>
				</port>
			</input>
			<output>
				<port id="3">
					<dim>8</dim>
					<dim>84</dim>
					<dim>3</dim>
					<dim>3</dim>
				</port>
			</output>
			<blobs>
				<weights offset="8482848" size="774144"/>
				<biases offset="768" size="336"/>
			</blobs>
		</layer>
		<layer id="251" name="conv8_2_mbox_conf_perm" precision="FP32" type="Permute">
			<data order="0,2,3,1"/>
			<input>
				<port id="0">
					<dim>8</dim>
					<dim>84</dim>
					<dim>3</dim>
					<dim>3</dim>
				</port>
			</input>
			<output>
				<port id="1">
					<dim>8</dim>
					<dim>3</dim>
					<dim>3</dim>
					<dim>84</dim>
				</port>
			</output>
		</layer>
		<layer id="338" name="conv8_2_mbox_conf_flat" precision="FP32" type="Flatten">
			<data axis="1"/>
			<input>
				<port id="0">
					<dim>8</dim>
					<dim>3</dim>
					<dim>3</dim>
					<dim>84</dim>
				</port>
			</input>
			<output>
				<port id="1">
					<dim>8</dim>
					<dim>756</dim>
				</port>
			</output>
		</layer>
		<layer id="41" name="conv8_2_mbox_priorbox" precision="FP32" type="PriorBox">
			<data aspect_ratio="2.0" clip="0" flip="1" max_size="264.0" min_size="213.0" offset="0.5" step="100.0" variance="0.10000000149011612,0.10000000149011612,0.20000000298023224,0.20000000298023224"/>
			<input>
				<port id="0">
					<dim>8</dim>
					<dim>256</dim>
					<dim>3</dim>
					<dim>3</dim>
				</port>
				<port id="1">
					<dim>8</dim>
					<dim>3</dim>
					<dim>300</dim>
					<dim>300</dim>
				</port>
			</input>
			<output>
				<port id="2">
					<dim>1</dim>
					<dim>2</dim>
					<dim>144</dim>
				</port>
			</output>
		</layer>
		<layer id="346" name="conv9_1" precision="FP32" type="Convolution">
			<data dilation-x="1" dilation-y="1" group="1" kernel-x="1" kernel-y="1" output="128" pad-x="0" pad-y="0" stride="1,1,1,1" stride-x="1" stride-y="1"/>
			<input>
				<port id="0">
					<dim>8</dim>
					<dim>256</dim>
					<dim>3</dim>
					<dim>3</dim>
				</port>
			</input>
			<output>
				<port id="3">
					<dim>8</dim>
					<dim>128</dim>
					<dim>3</dim>
					<dim>3</dim>
				</port>
			</output>
			<blobs>
				<weights offset="29888400" size="131072"/>
				<biases offset="36344720" size="512"/>
			</blobs>
		</layer>
		<layer id="514" name="conv9_1_relu" precision="FP32" type="ReLU">
			<data engine="caffe.ReLUParameter.DEFAULT" negative_slope="0.0"/>
			<input>
				<port id="0">
					<dim>8</dim>
					<dim>128</dim>
					<dim>3</dim>
					<dim>3</dim>
				</port>
			</input>
			<output>
				<port id="1">
					<dim>8</dim>
					<dim>128</dim>
					<dim>3</dim>
					<dim>3</dim>
				</port>
			</output>
		</layer>
		<layer id="467" name="conv9_2" precision="FP32" type="Convolution">
			<data dilation-x="1" dilation-y="1" group="1" kernel-x="3" kernel-y="3" output="256" pad-x="0" pad-y="0" stride="1,1,1,1" stride-x="1" stride-y="1"/>
			<input>
				<port id="0">
					<dim>8</dim>
					<dim>128</dim>
					<dim>3</dim>
					<dim>3</dim>
				</port>
			</input>
			<output>
				<port id="3">
					<dim>8</dim>
					<dim>256</dim>
					<dim>1</dim>
					<dim>1</dim>
				</port>
			</output>
			<blobs>
				<weights offset="11303008" size="1179648"/>
				<biases offset="19379472" size="1024"/>
			</blobs>
		</layer>
		<layer id="532" name="conv9_2_relu" precision="FP32" type="ReLU">
			<data engine="caffe.ReLUParameter.DEFAULT" negative_slope="0.0"/>
			<input>
				<port id="0">
					<dim>8</dim>
					<dim>256</dim>
					<dim>1</dim>
					<dim>1</dim>
				</port>
			</input>
			<output>
				<port id="1">
					<dim>8</dim>
					<dim>256</dim>
					<dim>1</dim>
					<dim>1</dim>
				</port>
			</output>
		</layer>
		<layer id="74" name="conv9_2_mbox_loc" precision="FP32" type="Convolution">
			<data dilation-x="1" dilation-y="1" group="1" kernel-x="3" kernel-y="3" output="16" pad-x="1" pad-y="1" stride="1,1,1,1" stride-x="1" stride-y="1"/>
			<input>
				<port id="0">
					<dim>8</dim>
					<dim>256</dim>
					<dim>1</dim>
					<dim>1</dim>
				</port>
			</input>
			<output>
				<port id="3">
					<dim>8</dim>
					<dim>16</dim>
					<dim>1</dim>
					<dim>1</dim>
				</port>
			</output>
			<blobs>
				<weights offset="41172456" size="147456"/>
				<biases offset="36345232" size="64"/>
			</blobs>
		</layer>
		<layer id="107" name="conv9_2_mbox_loc_perm" precision="FP32" type="Permute">
			<data order="0,2,3,1"/>
			<input>
				<port id="0">
					<dim>8</dim>
					<dim>16</dim>
					<dim>1</dim>
					<dim>1</dim>
				</port>
			</input>
			<output>
				<port id="1">
					<dim>8</dim>
					<dim>1</dim>
					<dim>1</dim>
					<dim>16</dim>
				</port>
			</output>
		</layer>
		<layer id="433" name="conv9_2_mbox_loc_flat" precision="FP32" type="Flatten">
			<data axis="1"/>
			<input>
				<port id="0">
					<dim>8</dim>
					<dim>1</dim>
					<dim>1</dim>
					<dim>16</dim>
				</port>
			</input>
			<output>
				<port id="1">
					<dim>8</dim>
					<dim>16</dim>
				</port>
			</output>
		</layer>
		<layer id="534" name="conv9_2_mbox_priorbox" precision="FP32" type="PriorBox">
			<data aspect_ratio="2.0" clip="0" flip="1" max_size="315.0" min_size="264.0" offset="0.5" step="300.0" variance="0.10000000149011612,0.10000000149011612,0.20000000298023224,0.20000000298023224"/>
			<input>
				<port id="0">
					<dim>8</dim>
					<dim>256</dim>
					<dim>1</dim>
					<dim>1</dim>
				</port>
				<port id="1">
					<dim>8</dim>
					<dim>3</dim>
					<dim>300</dim>
					<dim>300</dim>
				</port>
			</input>
			<output>
				<port id="2">
					<dim>1</dim>
					<dim>2</dim>
					<dim>16</dim>
				</port>
			</output>
		</layer>
		<layer id="287" name="conv9_2_mbox_conf" precision="FP32" type="Convolution">
			<data dilation-x="1" dilation-y="1" group="1" kernel-x="3" kernel-y="3" output="84" pad-x="1" pad-y="1" stride="1,1,1,1" stride-x="1" stride-y="1"/>
			<input>
				<port id="0">
					<dim>8</dim>
					<dim>256</dim>
					<dim>1</dim>
					<dim>1</dim>
				</port>
			</input>
			<output>
				<port id="3">
					<dim>8</dim>
					<dim>84</dim>
					<dim>1</dim>
					<dim>1</dim>
				</port>
			</output>
			<blobs>
				<weights offset="13517488" size="774144"/>
				<biases offset="42204648" size="336"/>
			</blobs>
		</layer>
		<layer id="486" name="conv9_2_mbox_conf_perm" precision="FP32" type="Permute">
			<data order="0,2,3,1"/>
			<input>
				<port id="0">
					<dim>8</dim>
					<dim>84</dim>
					<dim>1</dim>
					<dim>1</dim>
				</port>
			</input>
			<output>
				<port id="1">
					<dim>8</dim>
					<dim>1</dim>
					<dim>1</dim>
					<dim>84</dim>
				</port>
			</output>
		</layer>
		<layer id="162" name="conv9_2_mbox_conf_flat" precision="FP32" type="Flatten">
			<data axis="1"/>
			<input>
				<port id="0">
					<dim>8</dim>
					<dim>1</dim>
					<dim>1</dim>
					<dim>84</dim>
				</port>
			</input>
			<output>
				<port id="1">
					<dim>8</dim>
					<dim>84</dim>
				</port>
			</output>
		</layer>
		<layer id="519" name="conv8_2_mbox_loc" precision="FP32" type="Convolution">
			<data dilation-x="1" dilation-y="1" group="1" kernel-x="3" kernel-y="3" output="16" pad-x="1" pad-y="1" stride="1,1,1,1" stride-x="1" stride-y="1"/>
			<input>
				<port id="0">
					<dim>8</dim>
					<dim>256</dim>
					<dim>3</dim>
					<dim>3</dim>
				</port>
			</input>
			<output>
				<port id="3">
					<dim>8</dim>
					<dim>16</dim>
					<dim>3</dim>
					<dim>3</dim>
				</port>
			</output>
			<blobs>
				<weights offset="35312528" size="147456"/>
				<biases offset="11137440" size="64"/>
			</blobs>
		</layer>
		<layer id="55" name="conv8_2_mbox_loc_perm" precision="FP32" type="Permute">
			<data order="0,2,3,1"/>
			<input>
				<port id="0">
					<dim>8</dim>
					<dim>16</dim>
					<dim>3</dim>
					<dim>3</dim>
				</port>
			</input>
			<output>
				<port id="1">
					<dim>8</dim>
					<dim>3</dim>
					<dim>3</dim>
					<dim>16</dim>
				</port>
			</output>
		</layer>
		<layer id="6" name="conv8_2_mbox_loc_flat" precision="FP32" type="Flatten">
			<data axis="1"/>
			<input>
				<port id="0">
					<dim>8</dim>
					<dim>3</dim>
					<dim>3</dim>
					<dim>16</dim>
				</port>
			</input>
			<output>
				<port id="1">
					<dim>8</dim>
					<dim>144</dim>
				</port>
			</output>
		</layer>
		<layer id="118" name="conv6_2_mbox_priorbox" precision="FP32" type="PriorBox">
			<data aspect_ratio="2.0,3.0" clip="0" flip="1" max_size="162.0" min_size="111.0" offset="0.5" step="32.0" variance="0.10000000149011612,0.10000000149011612,0.20000000298023224,0.20000000298023224"/>
			<input>
				<port id="0">
					<dim>8</dim>
					<dim>512</dim>
					<dim>9</dim>
					<dim>9</dim>
				</port>
				<port id="1">
					<dim>8</dim>
					<dim>3</dim>
					<dim>300</dim>
					<dim>300</dim>
				</port>
			</input>
			<output>
				<port id="2">
					<dim>1</dim>
					<dim>2</dim>
					<dim>1944</dim>
				</port>
			</output>
		</layer>
		<layer id="461" name="inception_4e/double3x3_reduce" precision="FP32" type="Convolution">
			<data dilation-x="1" dilation-y="1" group="1" kernel-x="1" kernel-y="1" output="192" pad-x="0" pad-y="0" stride="1,1,1,1" stride-x="1" stride-y="1"/>
			<input>
				<port id="0">
					<dim>8</dim>
					<dim>576</dim>
					<dim>18</dim>
					<dim>18</dim>
				</port>
			</input>
			<output>
				<port id="3">
					<dim>8</dim>
					<dim>192</dim>
					<dim>18</dim>
					<dim>18</dim>
				</port>
			</output>
			<blobs>
				<weights offset="28855696" size="442368"/>
				<biases offset="33504912" size="768"/>
			</blobs>
		</layer>
		<layer id="278" name="inception_4e/double3x3_reduce/bn/sc/relu" precision="FP32" type="ReLU">
			<data engine="caffe.ReLUParameter.DEFAULT" negative_slope="0.0"/>
			<input>
				<port id="0">
					<dim>8</dim>
					<dim>192</dim>
					<dim>18</dim>
					<dim>18</dim>
				</port>
			</input>
			<output>
				<port id="1">
					<dim>8</dim>
					<dim>192</dim>
					<dim>18</dim>
					<dim>18</dim>
				</port>
			</output>
		</layer>
		<layer id="22" name="inception_4e/double3x3a" precision="FP32" type="Convolution">
			<data dilation-x="1" dilation-y="1" group="1" kernel-x="3" kernel-y="3" output="256" pad-x="1" pad-y="1" stride="1,1,1,1" stride-x="1" stride-y="1"/>
			<input>
				<port id="0">
					<dim>8</dim>
					<dim>192</dim>
					<dim>18</dim>
					<dim>18</dim>
				</port>
			</input>
			<output>
				<port id="3">
					<dim>8</dim>
					<dim>256</dim>
					<dim>18</dim>
					<dim>18</dim>
				</port>
			</output>
			<blobs>
				<weights offset="30019472" size="1769472"/>
				<biases offset="27334416" size="1024"/>
			</blobs>
		</layer>
		<layer id="526" name="inception_4e/double3x3a/bn/sc/relu" precision="FP32" type="ReLU">
			<data engine="caffe.ReLUParameter.DEFAULT" negative_slope="0.0"/>
			<input>
				<port id="0">
					<dim>8</dim>
					<dim>256</dim>
					<dim>18</dim>
					<dim>18</dim>
				</port>
			</input>
			<output>
				<port id="1">
					<dim>8</dim>
					<dim>256</dim>
					<dim>18</dim>
					<dim>18</dim>
				</port>
			</output>
		</layer>
		<layer id="294" name="inception_4e/double3x3b" precision="FP32" type="Convolution">
			<data dilation-x="1" dilation-y="1" group="1" kernel-x="3" kernel-y="3" output="256" pad-x="1" pad-y="1" stride="1,1,2,2" stride-x="2" stride-y="2"/>
			<input>
				<port id="0">
					<dim>8</dim>
					<dim>256</dim>
					<dim>18</dim>
					<dim>18</dim>
				</port>
			</input>
			<output>
				<port id="3">
					<dim>8</dim>
					<dim>256</dim>
					<dim>9</dim>
					<dim>9</dim>
				</port>
			</output>
			<blobs>
				<weights offset="42499896" size="2359296"/>
				<biases offset="27820304" size="1024"/>
			</blobs>
		</layer>
		<layer id="434" name="inception_4e/double3x3b/bn/sc/relu" precision="FP32" type="ReLU">
			<data engine="caffe.ReLUParameter.DEFAULT" negative_slope="0.0"/>
			<input>
				<port id="0">
					<dim>8</dim>
					<dim>256</dim>
					<dim>9</dim>
					<dim>9</dim>
				</port>
			</input>
			<output>
				<port id="1">
					<dim>8</dim>
					<dim>256</dim>
					<dim>9</dim>
					<dim>9</dim>
				</port>
			</output>
		</layer>
		<layer id="295" name="inception_4e/pool" precision="FP32" type="Pooling">
			<data exclude-pad="false" kernel-x="3" kernel-y="3" pad-x="0" pad-y="0" pool-method="max" rounding_type="ceil" stride="1,1,2,2" stride-x="2" stride-y="2"/>
			<input>
				<port id="0">
					<dim>8</dim>
					<dim>576</dim>
					<dim>18</dim>
					<dim>18</dim>
				</port>
			</input>
			<output>
				<port id="1">
					<dim>8</dim>
					<dim>576</dim>
					<dim>9</dim>
					<dim>9</dim>
				</port>
			</output>
		</layer>
		<layer id="324" name="inception_4e/output" precision="FP32" type="Concat">
			<data axis="1"/>
			<input>
				<port id="0">
					<dim>8</dim>
					<dim>192</dim>
					<dim>9</dim>
					<dim>9</dim>
				</port>
				<port id="1">
					<dim>8</dim>
					<dim>256</dim>
					<dim>9</dim>
					<dim>9</dim>
				</port>
				<port id="2">
					<dim>8</dim>
					<dim>576</dim>
					<dim>9</dim>
					<dim>9</dim>
				</port>
			</input>
			<output>
				<port id="3">
					<dim>8</dim>
					<dim>1024</dim>
					<dim>9</dim>
					<dim>9</dim>
				</port>
			</output>
		</layer>
		<layer id="161" name="fc7_mbox_loc" precision="FP32" type="Convolution">
			<data dilation-x="1" dilation-y="1" group="1" kernel-x="3" kernel-y="3" output="24" pad-x="1" pad-y="1" stride="1,1,1,1" stride-x="1" stride-y="1"/>
			<input>
				<port id="0">
					<dim>8</dim>
					<dim>1024</dim>
					<dim>9</dim>
					<dim>9</dim>
				</port>
			</input>
			<output>
				<port id="3">
					<dim>8</dim>
					<dim>24</dim>
					<dim>9</dim>
					<dim>9</dim>
				</port>
			</output>
			<blobs>
				<weights offset="41319912" size="884736"/>
				<biases offset="39352776" size="96"/>
			</blobs>
		</layer>
		<layer id="145" name="fc7_mbox_loc_perm" precision="FP32" type="Permute">
			<data order="0,2,3,1"/>
			<input>
				<port id="0">
					<dim>8</dim>
					<dim>24</dim>
					<dim>9</dim>
					<dim>9</dim>
				</port>
			</input>
			<output>
				<port id="1">
					<dim>8</dim>
					<dim>9</dim>
					<dim>9</dim>
					<dim>24</dim>
				</port>
			</output>
		</layer>
		<layer id="435" name="fc7_mbox_loc_flat" precision="FP32" type="Flatten">
			<data axis="1"/>
			<input>
				<port id="0">
					<dim>8</dim>
					<dim>9</dim>
					<dim>9</dim>
					<dim>24</dim>
				</port>
			</input>
			<output>
				<port id="1">
					<dim>8</dim>
					<dim>1944</dim>
				</port>
			</output>
		</layer>
		<layer id="253" name="mbox_loc" precision="FP32" type="Concat">
			<data axis="1"/>
			<input>
				<port id="0">
					<dim>8</dim>
					<dim>21904</dim>
				</port>
				<port id="1">
					<dim>8</dim>
					<dim>1944</dim>
				</port>
				<port id="2">
					<dim>8</dim>
					<dim>1944</dim>
				</port>
				<port id="3">
					<dim>8</dim>
					<dim>600</dim>
				</port>
				<port id="4">
					<dim>8</dim>
					<dim>144</dim>
				</port>
				<port id="5">
					<dim>8</dim>
					<dim>16</dim>
				</port>
			</input>
			<output>
				<port id="6">
					<dim>8</dim>
					<dim>26552</dim>
				</port>
			</output>
		</layer>
		<layer id="468" name="fc7_mbox_priorbox" precision="FP32" type="PriorBox">
			<data aspect_ratio="2.0,3.0" clip="0" flip="1" max_size="111.0" min_size="60.0" offset="0.5" step="16.0" variance="0.10000000149011612,0.10000000149011612,0.20000000298023224,0.20000000298023224"/>
			<input>
				<port id="0">
					<dim>8</dim>
					<dim>1024</dim>
					<dim>9</dim>
					<dim>9</dim>
				</port>
				<port id="1">
					<dim>8</dim>
					<dim>3</dim>
					<dim>300</dim>
					<dim>300</dim>
				</port>
			</input>
			<output>
				<port id="2">
					<dim>1</dim>
					<dim>2</dim>
					<dim>1944</dim>
				</port>
			</output>
		</layer>
		<layer id="312" name="mbox_priorbox" precision="FP32" type="Concat">
			<data axis="2"/>
			<input>
				<port id="0">
					<dim>1</dim>
					<dim>2</dim>
					<dim>21904</dim>
				</port>
				<port id="1">
					<dim>1</dim>
					<dim>2</dim>
					<dim>1944</dim>
				</port>
				<port id="2">
					<dim>1</dim>
					<dim>2</dim>
					<dim>1944</dim>
				</port>
				<port id="3">
					<dim>1</dim>
					<dim>2</dim>
					<dim>600</dim>
				</port>
				<port id="4">
					<dim>1</dim>
					<dim>2</dim>
					<dim>144</dim>
				</port>
				<port id="5">
					<dim>1</dim>
					<dim>2</dim>
					<dim>16</dim>
				</port>
			</input>
			<output>
				<port id="6">
					<dim>1</dim>
					<dim>2</dim>
					<dim>26552</dim>
				</port>
			</output>
		</layer>
		<layer id="390" name="fc7_mbox_conf" precision="FP32" type="Convolution">
			<data dilation-x="1" dilation-y="1" group="1" kernel-x="3" kernel-y="3" output="126" pad-x="1" pad-y="1" stride="1,1,1,1" stride-x="1" stride-y="1"/>
			<input>
				<port id="0">
					<dim>8</dim>
					<dim>1024</dim>
					<dim>9</dim>
					<dim>9</dim>
				</port>
			</input>
			<output>
				<port id="3">
					<dim>8</dim>
					<dim>126</dim>
					<dim>9</dim>
					<dim>9</dim>
				</port>
			</output>
			<blobs>
				<weights offset="14734512" size="4644864"/>
				<biases offset="1595344" size="504"/>
			</blobs>
		</layer>
		<layer id="469" name="fc7_mbox_conf_perm" precision="FP32" type="Permute">
			<data order="0,2,3,1"/>
			<input>
				<port id="0">
					<dim>8</dim>
					<dim>126</dim>
					<dim>9</dim>
					<dim>9</dim>
				</port>
			</input>
			<output>
				<port id="1">
					<dim>8</dim>
					<dim>9</dim>
					<dim>9</dim>
					<dim>126</dim>
				</port>
			</output>
		</layer>
		<layer id="442" name="fc7_mbox_conf_flat" precision="FP32" type="Flatten">
			<data axis="1"/>
			<input>
				<port id="0">
					<dim>8</dim>
					<dim>9</dim>
					<dim>9</dim>
					<dim>126</dim>
				</port>
			</input>
			<output>
				<port id="1">
					<dim>8</dim>
					<dim>10206</dim>
				</port>
			</output>
		</layer>
		<layer id="458" name="mbox_conf" precision="FP32" type="Concat">
			<data axis="1"/>
			<input>
				<port id="0">
					<dim>8</dim>
					<dim>114996</dim>
				</port>
				<port id="1">
					<dim>8</dim>
					<dim>10206</dim>
				</port>
				<port id="2">
					<dim>8</dim>
					<dim>10206</dim>
				</port>
				<port id="3">
					<dim>8</dim>
					<dim>3150</dim>
				</port>
				<port id="4">
					<dim>8</dim>
					<dim>756</dim>
				</port>
				<port id="5">
					<dim>8</dim>
					<dim>84</dim>
				</port>
			</input>
			<output>
				<port id="6">
					<dim>8</dim>
					<dim>139398</dim>
				</port>
			</output>
		</layer>
		<layer id="64" name="mbox_conf_reshape" precision="FP32" type="Reshape">
			<data axis="0" dim="0,-1,21" num_axes="-1"/>
			<input>
				<port id="0">
					<dim>8</dim>
					<dim>139398</dim>
				</port>
			</input>
			<output>
				<port id="1">
					<dim>8</dim>
					<dim>6638</dim>
					<dim>21</dim>
				</port>
			</output>
		</layer>
		<layer id="485" name="mbox_conf_softmax" precision="FP32" type="SoftMax">
			<data axis="2"/>
			<input>
				<port id="0">
					<dim>8</dim>
					<dim>6638</dim>
					<dim>21</dim>
				</port>
			</input>
			<output>
				<port id="1">
					<dim>8</dim>
					<dim>6638</dim>
					<dim>21</dim>
				</port>
			</output>
		</layer>
		<layer id="424" name="mbox_conf_flatten" precision="FP32" type="Flatten">
			<data axis="1"/>
			<input>
				<port id="0">
					<dim>8</dim>
					<dim>6638</dim>
					<dim>21</dim>
				</port>
			</input>
			<output>
				<port id="1">
					<dim>8</dim>
					<dim>139398</dim>
				</port>
			</output>
		</layer>
		<layer id="347" name="detection_out" precision="FP32" type="DetectionOutput">
			<data background_label_id="0" code_type="caffe.PriorBoxParameter.CENTER_SIZE" confidence_threshold="0.009999999776482582" eta="1.0" input_height="-1" input_width="-1" keep_top_k="200" nms_threshold="0.44999998807907104" normalized="1" num_classes="21" share_location="1" top_k="400" variance_encoded_in_target="0" visualize="False"/>
			<input>
				<port id="0">
					<dim>8</dim>
					<dim>26552</dim>
				</port>
				<port id="1">
					<dim>8</dim>
					<dim>139398</dim>
				</port>
				<port id="2">
					<dim>1</dim>
					<dim>2</dim>
					<dim>26552</dim>
				</port>
			</input>
			<output>
				<port id="3">
					<dim>1</dim>
					<dim>1</dim>
					<dim>1600</dim>
					<dim>7</dim>
				</port>
			</output>
		</layer>
	</layers>
	<edges>
		<edge from-layer="350" from-port="0" to-layer="226" to-port="0"/>
		<edge from-layer="226" from-port="3" to-layer="100" to-port="0"/>
		<edge from-layer="100" from-port="1" to-layer="262" to-port="0"/>
		<edge from-layer="262" from-port="1" to-layer="481" to-port="0"/>
		<edge from-layer="481" from-port="3" to-layer="119" to-port="0"/>
		<edge from-layer="119" from-port="1" to-layer="267" to-port="0"/>
		<edge from-layer="267" from-port="3" to-layer="276" to-port="0"/>
		<edge from-layer="276" from-port="1" to-layer="268" to-port="0"/>
		<edge from-layer="268" from-port="1" to-layer="416" to-port="0"/>
		<edge from-layer="416" from-port="1" to-layer="257" to-port="0"/>
		<edge from-layer="268" from-port="1" to-layer="228" to-port="0"/>
		<edge from-layer="228" from-port="3" to-layer="280" to-port="0"/>
		<edge from-layer="280" from-port="1" to-layer="30" to-port="0"/>
		<edge from-layer="30" from-port="3" to-layer="525" to-port="0"/>
		<edge from-layer="525" from-port="1" to-layer="307" to-port="0"/>
		<edge from-layer="307" from-port="3" to-layer="275" to-port="0"/>
		<edge from-layer="268" from-port="1" to-layer="77" to-port="0"/>
		<edge from-layer="77" from-port="3" to-layer="197" to-port="0"/>
		<edge from-layer="197" from-port="1" to-layer="90" to-port="0"/>
		<edge from-layer="90" from-port="3" to-layer="422" to-port="0"/>
		<edge from-layer="257" from-port="3" to-layer="394" to-port="0"/>
		<edge from-layer="268" from-port="1" to-layer="78" to-port="0"/>
		<edge from-layer="78" from-port="3" to-layer="110" to-port="0"/>
		<edge from-layer="110" from-port="1" to-layer="154" to-port="0"/>
		<edge from-layer="422" from-port="1" to-layer="154" to-port="1"/>
		<edge from-layer="275" from-port="1" to-layer="154" to-port="2"/>
		<edge from-layer="394" from-port="1" to-layer="154" to-port="3"/>
		<edge from-layer="154" from-port="4" to-layer="408" to-port="0"/>
		<edge from-layer="408" from-port="3" to-layer="300" to-port="0"/>
		<edge from-layer="154" from-port="4" to-layer="217" to-port="0"/>
		<edge from-layer="217" from-port="3" to-layer="103" to-port="0"/>
		<edge from-layer="103" from-port="1" to-layer="397" to-port="0"/>
		<edge from-layer="397" from-port="3" to-layer="412" to-port="0"/>
		<edge from-layer="412" from-port="1" to-layer="40" to-port="0"/>
		<edge from-layer="40" from-port="3" to-layer="421" to-port="0"/>
		<edge from-layer="154" from-port="4" to-layer="248" to-port="0"/>
		<edge from-layer="248" from-port="3" to-layer="124" to-port="0"/>
		<edge from-layer="154" from-port="4" to-layer="264" to-port="0"/>
		<edge from-layer="264" from-port="1" to-layer="38" to-port="0"/>
		<edge from-layer="38" from-port="3" to-layer="401" to-port="0"/>
		<edge from-layer="300" from-port="1" to-layer="87" to-port="0"/>
		<edge from-layer="87" from-port="3" to-layer="404" to-port="0"/>
		<edge from-layer="124" from-port="1" to-layer="131" to-port="0"/>
		<edge from-layer="404" from-port="1" to-layer="131" to-port="1"/>
		<edge from-layer="421" from-port="1" to-layer="131" to-port="2"/>
		<edge from-layer="401" from-port="1" to-layer="131" to-port="3"/>
		<edge from-layer="131" from-port="4" to-layer="480" to-port="0"/>
		<edge from-layer="350" from-port="0" to-layer="480" to-port="1"/>
		<edge from-layer="131" from-port="4" to-layer="147" to-port="0"/>
		<edge from-layer="147" from-port="3" to-layer="174" to-port="0"/>
		<edge from-layer="174" from-port="1" to-layer="403" to-port="0"/>
		<edge from-layer="131" from-port="4" to-layer="516" to-port="0"/>
		<edge from-layer="516" from-port="3" to-layer="315" to-port="0"/>
		<edge from-layer="315" from-port="1" to-layer="9" to-port="0"/>
		<edge from-layer="9" from-port="3" to-layer="126" to-port="0"/>
		<edge from-layer="131" from-port="4" to-layer="86" to-port="0"/>
		<edge from-layer="131" from-port="4" to-layer="492" to-port="0"/>
		<edge from-layer="492" from-port="3" to-layer="523" to-port="0"/>
		<edge from-layer="523" from-port="1" to-layer="209" to-port="0"/>
		<edge from-layer="209" from-port="3" to-layer="3" to-port="0"/>
		<edge from-layer="3" from-port="1" to-layer="158" to-port="0"/>
		<edge from-layer="131" from-port="4" to-layer="333" to-port="0"/>
		<edge from-layer="333" from-port="3" to-layer="168" to-port="0"/>
		<edge from-layer="168" from-port="1" to-layer="426" to-port="0"/>
		<edge from-layer="158" from-port="3" to-layer="17" to-port="0"/>
		<edge from-layer="126" from-port="1" to-layer="208" to-port="0"/>
		<edge from-layer="17" from-port="1" to-layer="208" to-port="1"/>
		<edge from-layer="86" from-port="1" to-layer="208" to-port="2"/>
		<edge from-layer="208" from-port="3" to-layer="160" to-port="0"/>
		<edge from-layer="160" from-port="3" to-layer="237" to-port="0"/>
		<edge from-layer="237" from-port="1" to-layer="247" to-port="0"/>
		<edge from-layer="247" from-port="3" to-layer="51" to-port="0"/>
		<edge from-layer="51" from-port="1" to-layer="382" to-port="0"/>
		<edge from-layer="382" from-port="3" to-layer="450" to-port="0"/>
		<edge from-layer="208" from-port="3" to-layer="59" to-port="0"/>
		<edge from-layer="59" from-port="3" to-layer="491" to-port="0"/>
		<edge from-layer="208" from-port="3" to-layer="380" to-port="0"/>
		<edge from-layer="380" from-port="3" to-layer="310" to-port="0"/>
		<edge from-layer="310" from-port="1" to-layer="430" to-port="0"/>
		<edge from-layer="430" from-port="3" to-layer="72" to-port="0"/>
		<edge from-layer="208" from-port="3" to-layer="157" to-port="0"/>
		<edge from-layer="157" from-port="1" to-layer="155" to-port="0"/>
		<edge from-layer="155" from-port="3" to-layer="122" to-port="0"/>
		<edge from-layer="491" from-port="1" to-layer="61" to-port="0"/>
		<edge from-layer="72" from-port="1" to-layer="61" to-port="1"/>
		<edge from-layer="450" from-port="1" to-layer="61" to-port="2"/>
		<edge from-layer="122" from-port="1" to-layer="61" to-port="3"/>
		<edge from-layer="61" from-port="4" to-layer="128" to-port="0"/>
		<edge from-layer="128" from-port="3" to-layer="263" to-port="0"/>
		<edge from-layer="263" from-port="1" to-layer="153" to-port="0"/>
		<edge from-layer="153" from-port="3" to-layer="193" to-port="0"/>
		<edge from-layer="61" from-port="4" to-layer="130" to-port="0"/>
		<edge from-layer="130" from-port="3" to-layer="31" to-port="0"/>
		<edge from-layer="31" from-port="1" to-layer="244" to-port="0"/>
		<edge from-layer="244" from-port="3" to-layer="232" to-port="0"/>
		<edge from-layer="232" from-port="1" to-layer="533" to-port="0"/>
		<edge from-layer="533" from-port="3" to-layer="535" to-port="0"/>
		<edge from-layer="61" from-port="4" to-layer="54" to-port="0"/>
		<edge from-layer="54" from-port="1" to-layer="406" to-port="0"/>
		<edge from-layer="406" from-port="3" to-layer="89" to-port="0"/>
		<edge from-layer="61" from-port="4" to-layer="383" to-port="0"/>
		<edge from-layer="383" from-port="3" to-layer="169" to-port="0"/>
		<edge from-layer="169" from-port="1" to-layer="344" to-port="0"/>
		<edge from-layer="193" from-port="1" to-layer="344" to-port="1"/>
		<edge from-layer="535" from-port="1" to-layer="344" to-port="2"/>
		<edge from-layer="89" from-port="1" to-layer="344" to-port="3"/>
		<edge from-layer="344" from-port="4" to-layer="225" to-port="0"/>
		<edge from-layer="225" from-port="3" to-layer="43" to-port="0"/>
		<edge from-layer="344" from-port="4" to-layer="75" to-port="0"/>
		<edge from-layer="75" from-port="1" to-layer="2" to-port="0"/>
		<edge from-layer="2" from-port="3" to-layer="83" to-port="0"/>
		<edge from-layer="344" from-port="4" to-layer="501" to-port="0"/>
		<edge from-layer="501" from-port="3" to-layer="377" to-port="0"/>
		<edge from-layer="377" from-port="1" to-layer="374" to-port="0"/>
		<edge from-layer="374" from-port="3" to-layer="327" to-port="0"/>
		<edge from-layer="344" from-port="4" to-layer="527" to-port="0"/>
		<edge from-layer="527" from-port="3" to-layer="337" to-port="0"/>
		<edge from-layer="337" from-port="1" to-layer="29" to-port="0"/>
		<edge from-layer="29" from-port="3" to-layer="332" to-port="0"/>
		<edge from-layer="332" from-port="1" to-layer="85" to-port="0"/>
		<edge from-layer="85" from-port="3" to-layer="292" to-port="0"/>
		<edge from-layer="43" from-port="1" to-layer="177" to-port="0"/>
		<edge from-layer="327" from-port="1" to-layer="177" to-port="1"/>
		<edge from-layer="292" from-port="1" to-layer="177" to-port="2"/>
		<edge from-layer="83" from-port="1" to-layer="177" to-port="3"/>
		<edge from-layer="177" from-port="4" to-layer="195" to-port="0"/>
		<edge from-layer="195" from-port="3" to-layer="306" to-port="0"/>
		<edge from-layer="306" from-port="1" to-layer="381" to-port="0"/>
		<edge from-layer="381" from-port="3" to-layer="317" to-port="0"/>
		<edge from-layer="317" from-port="1" to-layer="379" to-port="0"/>
		<edge from-layer="379" from-port="3" to-layer="256" to-port="0"/>
		<edge from-layer="177" from-port="4" to-layer="348" to-port="0"/>
		<edge from-layer="348" from-port="1" to-layer="46" to-port="0"/>
		<edge from-layer="46" from-port="3" to-layer="352" to-port="0"/>
		<edge from-layer="177" from-port="4" to-layer="437" to-port="0"/>
		<edge from-layer="437" from-port="3" to-layer="220" to-port="0"/>
		<edge from-layer="177" from-port="4" to-layer="451" to-port="0"/>
		<edge from-layer="451" from-port="3" to-layer="322" to-port="0"/>
		<edge from-layer="322" from-port="1" to-layer="210" to-port="0"/>
		<edge from-layer="210" from-port="3" to-layer="479" to-port="0"/>
		<edge from-layer="220" from-port="1" to-layer="88" to-port="0"/>
		<edge from-layer="479" from-port="1" to-layer="88" to-port="1"/>
		<edge from-layer="256" from-port="1" to-layer="88" to-port="2"/>
		<edge from-layer="352" from-port="1" to-layer="88" to-port="3"/>
		<edge from-layer="88" from-port="4" to-layer="240" to-port="0"/>
		<edge from-layer="240" from-port="3" to-layer="365" to-port="0"/>
		<edge from-layer="365" from-port="1" to-layer="91" to-port="0"/>
		<edge from-layer="91" from-port="3" to-layer="66" to-port="0"/>
		<edge from-layer="88" from-port="4" to-layer="79" to-port="0"/>
		<edge from-layer="79" from-port="3" to-layer="521" to-port="0"/>
		<edge from-layer="521" from-port="1" to-layer="105" to-port="0"/>
		<edge from-layer="105" from-port="3" to-layer="510" to-port="0"/>
		<edge from-layer="510" from-port="1" to-layer="508" to-port="0"/>
		<edge from-layer="508" from-port="3" to-layer="419" to-port="0"/>
		<edge from-layer="419" from-port="1" to-layer="167" to-port="0"/>
		<edge from-layer="510" from-port="1" to-layer="203" to-port="0"/>
		<edge from-layer="203" from-port="3" to-layer="166" to-port="0"/>
		<edge from-layer="166" from-port="1" to-layer="69" to-port="0"/>
		<edge from-layer="510" from-port="1" to-layer="108" to-port="0"/>
		<edge from-layer="108" from-port="3" to-layer="475" to-port="0"/>
		<edge from-layer="475" from-port="1" to-layer="261" to-port="0"/>
		<edge from-layer="261" from-port="3" to-layer="290" to-port="0"/>
		<edge from-layer="290" from-port="1" to-layer="144" to-port="0"/>
		<edge from-layer="144" from-port="3" to-layer="187" to-port="0"/>
		<edge from-layer="187" from-port="1" to-layer="48" to-port="0"/>
		<edge from-layer="290" from-port="1" to-layer="281" to-port="0"/>
		<edge from-layer="350" from-port="0" to-layer="281" to-port="1"/>
		<edge from-layer="290" from-port="1" to-layer="204" to-port="0"/>
		<edge from-layer="204" from-port="3" to-layer="125" to-port="0"/>
		<edge from-layer="125" from-port="1" to-layer="316" to-port="0"/>
		<edge from-layer="290" from-port="1" to-layer="5" to-port="0"/>
		<edge from-layer="5" from-port="3" to-layer="395" to-port="0"/>
		<edge from-layer="395" from-port="1" to-layer="325" to-port="0"/>
		<edge from-layer="325" from-port="3" to-layer="335" to-port="0"/>
		<edge from-layer="335" from-port="1" to-layer="104" to-port="0"/>
		<edge from-layer="104" from-port="3" to-layer="251" to-port="0"/>
		<edge from-layer="251" from-port="1" to-layer="338" to-port="0"/>
		<edge from-layer="335" from-port="1" to-layer="41" to-port="0"/>
		<edge from-layer="350" from-port="0" to-layer="41" to-port="1"/>
		<edge from-layer="335" from-port="1" to-layer="346" to-port="0"/>
		<edge from-layer="346" from-port="3" to-layer="514" to-port="0"/>
		<edge from-layer="514" from-port="1" to-layer="467" to-port="0"/>
		<edge from-layer="467" from-port="3" to-layer="532" to-port="0"/>
		<edge from-layer="532" from-port="1" to-layer="74" to-port="0"/>
		<edge from-layer="74" from-port="3" to-layer="107" to-port="0"/>
		<edge from-layer="107" from-port="1" to-layer="433" to-port="0"/>
		<edge from-layer="532" from-port="1" to-layer="534" to-port="0"/>
		<edge from-layer="350" from-port="0" to-layer="534" to-port="1"/>
		<edge from-layer="532" from-port="1" to-layer="287" to-port="0"/>
		<edge from-layer="287" from-port="3" to-layer="486" to-port="0"/>
		<edge from-layer="486" from-port="1" to-layer="162" to-port="0"/>
		<edge from-layer="335" from-port="1" to-layer="519" to-port="0"/>
		<edge from-layer="519" from-port="3" to-layer="55" to-port="0"/>
		<edge from-layer="55" from-port="1" to-layer="6" to-port="0"/>
		<edge from-layer="510" from-port="1" to-layer="118" to-port="0"/>
		<edge from-layer="350" from-port="0" to-layer="118" to-port="1"/>
		<edge from-layer="88" from-port="4" to-layer="461" to-port="0"/>
		<edge from-layer="461" from-port="3" to-layer="278" to-port="0"/>
		<edge from-layer="278" from-port="1" to-layer="22" to-port="0"/>
		<edge from-layer="22" from-port="3" to-layer="526" to-port="0"/>
		<edge from-layer="526" from-port="1" to-layer="294" to-port="0"/>
		<edge from-layer="294" from-port="3" to-layer="434" to-port="0"/>
		<edge from-layer="88" from-port="4" to-layer="295" to-port="0"/>
		<edge from-layer="66" from-port="1" to-layer="324" to-port="0"/>
		<edge from-layer="434" from-port="1" to-layer="324" to-port="1"/>
		<edge from-layer="295" from-port="1" to-layer="324" to-port="2"/>
		<edge from-layer="324" from-port="3" to-layer="161" to-port="0"/>
		<edge from-layer="161" from-port="3" to-layer="145" to-port="0"/>
		<edge from-layer="145" from-port="1" to-layer="435" to-port="0"/>
		<edge from-layer="403" from-port="1" to-layer="253" to-port="0"/>
		<edge from-layer="435" from-port="1" to-layer="253" to-port="1"/>
		<edge from-layer="69" from-port="1" to-layer="253" to-port="2"/>
		<edge from-layer="48" from-port="1" to-layer="253" to-port="3"/>
		<edge from-layer="6" from-port="1" to-layer="253" to-port="4"/>
		<edge from-layer="433" from-port="1" to-layer="253" to-port="5"/>
		<edge from-layer="324" from-port="3" to-layer="468" to-port="0"/>
		<edge from-layer="350" from-port="0" to-layer="468" to-port="1"/>
		<edge from-layer="480" from-port="2" to-layer="312" to-port="0"/>
		<edge from-layer="468" from-port="2" to-layer="312" to-port="1"/>
		<edge from-layer="118" from-port="2" to-layer="312" to-port="2"/>
		<edge from-layer="281" from-port="2" to-layer="312" to-port="3"/>
		<edge from-layer="41" from-port="2" to-layer="312" to-port="4"/>
		<edge from-layer="534" from-port="2" to-layer="312" to-port="5"/>
		<edge from-layer="324" from-port="3" to-layer="390" to-port="0"/>
		<edge from-layer="390" from-port="3" to-layer="469" to-port="0"/>
		<edge from-layer="469" from-port="1" to-layer="442" to-port="0"/>
		<edge from-layer="426" from-port="1" to-layer="458" to-port="0"/>
		<edge from-layer="442" from-port="1" to-layer="458" to-port="1"/>
		<edge from-layer="167" from-port="1" to-layer="458" to-port="2"/>
		<edge from-layer="316" from-port="1" to-layer="458" to-port="3"/>
		<edge from-layer="338" from-port="1" to-layer="458" to-port="4"/>
		<edge from-layer="162" from-port="1" to-layer="458" to-port="5"/>
		<edge from-layer="458" from-port="6" to-layer="64" to-port="0"/>
		<edge from-layer="64" from-port="1" to-layer="485" to-port="0"/>
		<edge from-layer="485" from-port="1" to-layer="424" to-port="0"/>
		<edge from-layer="253" from-port="6" to-layer="347" to-port="0"/>
		<edge from-layer="424" from-port="1" to-layer="347" to-port="1"/>
		<edge from-layer="312" from-port="6" to-layer="347" to-port="2"/>
	</edges>
</net>
